…
I0104 22:07:54.350265  1530 common.cpp:199] Number of multiprocessors:     2
I0104 22:07:54.350277  1530 common.cpp:200] Kernel execution timeout:      No
$ caffe/build/tools/caffe time --model=caffe/models/bvlc_alexnet/deploy.prototxt -gpu 0 -iterations 200
I0104 22:07:54.415345  1531 caffe.cpp:348] Use GPU with device ID 0
I0104 22:07:55.166714  1531 net.cpp:51] Initializing net from parameters: 
name: "AlexNet"
state {
  phase: TRAIN
  level: 0
  stage: ""
}
layer {
  name: "data"
  type: "Input"
  top: "data"
  input_param {
    shape {
      dim: 10
      dim: 3
      dim: 227
      dim: 227
    }
  }
}
layer {
  name: "conv1"
  type: "Convolution"
  bottom: "data"
  top: "conv1"
  param {
    lr_mult: 1
    decay_mult: 1
  }
  param {
    lr_mult: 2
    decay_mult: 0
  }
  convolution_param {
    num_output: 96
    kernel_size: 11
    stride: 4
  }
}
layer {
  name: "relu1"
  type: "ReLU"
  bottom: "conv1"
  top: "conv1"
}
layer {
  name: "norm1"
  type: "LRN"
  bottom: "conv1"
  top: "norm1"
  lrn_param {
    local_size: 5
    alpha: 0.0001
    beta: 0.75
  }
}
layer {
  name: "pool1"
  type: "Pooling"
  bottom: "norm1"
  top: "pool1"
  pooling_param {
    pool: MAX
    kernel_size: 3
    stride: 2
  }
}
layer {
  name: "conv2"
  type: "Convolution"
  bottom: "pool1"
  top: "conv2"
  param {
    lr_mult: 1
    decay_mult: 1
  }
  param {
    lr_mult: 2
    decay_mult: 0
  }
  convolution_param {
    num_output: 256
    pad: 2
    kernel_size: 5
    group: 2
  }
}
layer {
  name: "relu2"
  type: "ReLU"
  bottom: "conv2"
  top: "conv2"
}
layer {
  name: "norm2"
  type: "LRN"
  bottom: "conv2"
  top: "norm2"
  lrn_param {
    local_size: 5
    alpha: 0.0001
    beta: 0.75
  }
}
layer {
  name: "pool2"
  type: "Pooling"
  bottom: "norm2"
  top: "pool2"
  pooling_param {
    pool: MAX
    kernel_size: 3
    stride: 2
  }
}
layer {
  name: "conv3"
  type: "Convolution"
  bottom: "pool2"
  top: "conv3"
  param {
    lr_mult: 1
    decay_mult: 1
  }
  param {
    lr_mult: 2
    decay_mult: 0
  }
  convolution_param {
    num_output: 384
    pad: 1
    kernel_size: 3
  }
}
layer {
  name: "relu3"
  type: "ReLU"
  bottom: "conv3"
  top: "conv3"
}
layer {
  name: "conv4"
  type: "Convolution"
  bottom: "conv3"
  top: "conv4"
  param {
    lr_mult: 1
    decay_mult: 1
  }
  param {
    lr_mult: 2
    decay_mult: 0
  }
  convolution_param {
    num_output: 384
    pad: 1
    kernel_size: 3
    group: 2
  }
}
layer {
  name: "relu4"
  type: "ReLU"
  bottom: "conv4"
  top: "conv4"
}
layer {
  name: "conv5"
  type: "Convolution"
  bottom: "conv4"
  top: "conv5"
  param {
    lr_mult: 1
    decay_mult: 1
  }
  param {
    lr_mult: 2
    decay_mult: 0
  }
  convolution_param {
    num_output: 256
    pad: 1
    kernel_size: 3
    group: 2
  }
}
layer {
  name: "relu5"
  type: "ReLU"
  bottom: "conv5"
  top: "conv5"
}
layer {
  name: "pool5"
  type: "Pooling"
  bottom: "conv5"
  top: "pool5"
  pooling_param {
    pool: MAX
    kernel_size: 3
    stride: 2
  }
}
layer {
  name: "fc6"
  type: "InnerProduct"
  bottom: "pool5"
  top: "fc6"
  param {
    lr_mult: 1
    decay_mult: 1
  }
  param {
    lr_mult: 2
    decay_mult: 0
  }
  inner_product_param {
    num_output: 4096
  }
}
layer {
  name: "relu6"
  type: "ReLU"
  bottom: "fc6"
  top: "fc6"
}
layer {
  name: "drop6"
  type: "Dropout"
  bottom: "fc6"
  top: "fc6"
  dropout_param {
    dropout_ratio: 0.5
  }
}
layer {
  name: "fc7"
  type: "InnerProduct"
  bottom: "fc6"
  top: "fc7"
  param {
    lr_mult: 1
    decay_mult: 1
  }
  param {
    lr_mult: 2
    decay_mult: 0
  }
  inner_product_param {
    num_output: 4096
  }
}
layer {
  name: "relu7"
  type: "ReLU"
  bottom: "fc7"
  top: "fc7"
}
layer {
  name: "drop7"
  type: "Dropout"
  bottom: "fc7"
  top: "fc7"
  dropout_param {
    dropout_ratio: 0.5
  }
}
layer {
  name: "fc8"
  type: "InnerProduct"
  bottom: "fc7"
  top: "fc8"
  param {
    lr_mult: 1
    decay_mult: 1
  }
  param {
    lr_mult: 2
    decay_mult: 0
  }
  inner_product_param {
    num_output: 1000
  }
}
layer {
  name: "prob"
  type: "Softmax"
  bottom: "fc8"
  top: "prob"
}
I0104 22:07:55.167510  1531 layer_factory.hpp:77] Creating layer data
I0104 22:07:55.167565  1531 net.cpp:84] Creating Layer data
I0104 22:07:55.167588  1531 net.cpp:380] data -> data
I0104 22:07:55.310323  1531 net.cpp:122] Setting up data
I0104 22:07:55.310376  1531 net.cpp:129] Top shape: 10 3 227 227 (1545870)
I0104 22:07:55.310473  1531 net.cpp:137] Memory required for data: 6183480
I0104 22:07:55.310505  1531 layer_factory.hpp:77] Creating layer conv1
I0104 22:07:55.310547  1531 net.cpp:84] Creating Layer conv1
I0104 22:07:55.310570  1531 net.cpp:406] conv1 <- data
I0104 22:07:55.310595  1531 net.cpp:380] conv1 -> conv1
I0104 22:07:55.312986  1531 net.cpp:122] Setting up conv1
I0104 22:07:55.313024  1531 net.cpp:129] Top shape: 10 96 55 55 (2904000)
I0104 22:07:55.313047  1531 net.cpp:137] Memory required for data: 17799480
I0104 22:07:55.313097  1531 layer_factory.hpp:77] Creating layer relu1
I0104 22:07:55.313125  1531 net.cpp:84] Creating Layer relu1
I0104 22:07:55.313139  1531 net.cpp:406] relu1 <- conv1
I0104 22:07:55.313153  1531 net.cpp:367] relu1 -> conv1 (in-place)
I0104 22:07:55.313176  1531 net.cpp:122] Setting up relu1
I0104 22:07:55.313189  1531 net.cpp:129] Top shape: 10 96 55 55 (2904000)
I0104 22:07:55.313202  1531 net.cpp:137] Memory required for data: 29415480
I0104 22:07:55.313212  1531 layer_factory.hpp:77] Creating layer norm1
I0104 22:07:55.313233  1531 net.cpp:84] Creating Layer norm1
I0104 22:07:55.313246  1531 net.cpp:406] norm1 <- conv1
I0104 22:07:55.313266  1531 net.cpp:380] norm1 -> norm1
I0104 22:07:55.313372  1531 net.cpp:122] Setting up norm1
I0104 22:07:55.313390  1531 net.cpp:129] Top shape: 10 96 55 55 (2904000)
I0104 22:07:55.313405  1531 net.cpp:137] Memory required for data: 41031480
I0104 22:07:55.313417  1531 layer_factory.hpp:77] Creating layer pool1
I0104 22:07:55.313438  1531 net.cpp:84] Creating Layer pool1
I0104 22:07:55.313452  1531 net.cpp:406] pool1 <- norm1
I0104 22:07:55.313469  1531 net.cpp:380] pool1 -> pool1
I0104 22:07:55.313571  1531 net.cpp:122] Setting up pool1
I0104 22:07:55.313590  1531 net.cpp:129] Top shape: 10 96 27 27 (699840)
I0104 22:07:55.313606  1531 net.cpp:137] Memory required for data: 43830840
I0104 22:07:55.313621  1531 layer_factory.hpp:77] Creating layer conv2
I0104 22:07:55.313644  1531 net.cpp:84] Creating Layer conv2
I0104 22:07:55.313659  1531 net.cpp:406] conv2 <- pool1
I0104 22:07:55.313678  1531 net.cpp:380] conv2 -> conv2
I0104 22:07:55.316828  1531 net.cpp:122] Setting up conv2
I0104 22:07:55.316860  1531 net.cpp:129] Top shape: 10 256 27 27 (1866240)
I0104 22:07:55.316881  1531 net.cpp:137] Memory required for data: 51295800
I0104 22:07:55.316910  1531 layer_factory.hpp:77] Creating layer relu2
I0104 22:07:55.316932  1531 net.cpp:84] Creating Layer relu2
I0104 22:07:55.316947  1531 net.cpp:406] relu2 <- conv2
I0104 22:07:55.316965  1531 net.cpp:367] relu2 -> conv2 (in-place)
I0104 22:07:55.316987  1531 net.cpp:122] Setting up relu2
I0104 22:07:55.317000  1531 net.cpp:129] Top shape: 10 256 27 27 (1866240)
I0104 22:07:55.317013  1531 net.cpp:137] Memory required for data: 58760760
I0104 22:07:55.317024  1531 layer_factory.hpp:77] Creating layer norm2
I0104 22:07:55.317040  1531 net.cpp:84] Creating Layer norm2
I0104 22:07:55.317056  1531 net.cpp:406] norm2 <- conv2
I0104 22:07:55.317073  1531 net.cpp:380] norm2 -> norm2
I0104 22:07:55.317167  1531 net.cpp:122] Setting up norm2
I0104 22:07:55.317183  1531 net.cpp:129] Top shape: 10 256 27 27 (1866240)
I0104 22:07:55.317199  1531 net.cpp:137] Memory required for data: 66225720
I0104 22:07:55.317210  1531 layer_factory.hpp:77] Creating layer pool2
I0104 22:07:55.317229  1531 net.cpp:84] Creating Layer pool2
I0104 22:07:55.317245  1531 net.cpp:406] pool2 <- norm2
I0104 22:07:55.317261  1531 net.cpp:380] pool2 -> pool2
I0104 22:07:55.317344  1531 net.cpp:122] Setting up pool2
I0104 22:07:55.317359  1531 net.cpp:129] Top shape: 10 256 13 13 (432640)
I0104 22:07:55.317373  1531 net.cpp:137] Memory required for data: 67956280
I0104 22:07:55.317384  1531 layer_factory.hpp:77] Creating layer conv3
I0104 22:07:55.317402  1531 net.cpp:84] Creating Layer conv3
I0104 22:07:55.317414  1531 net.cpp:406] conv3 <- pool2
I0104 22:07:55.317427  1531 net.cpp:380] conv3 -> conv3
I0104 22:07:55.322028  1531 net.cpp:122] Setting up conv3
I0104 22:07:55.322062  1531 net.cpp:129] Top shape: 10 384 13 13 (648960)
I0104 22:07:55.322083  1531 net.cpp:137] Memory required for data: 70552120
I0104 22:07:55.322150  1531 layer_factory.hpp:77] Creating layer relu3
I0104 22:07:55.322175  1531 net.cpp:84] Creating Layer relu3
I0104 22:07:55.322186  1531 net.cpp:406] relu3 <- conv3
I0104 22:07:55.322204  1531 net.cpp:367] relu3 -> conv3 (in-place)
I0104 22:07:55.322224  1531 net.cpp:122] Setting up relu3
I0104 22:07:55.322235  1531 net.cpp:129] Top shape: 10 384 13 13 (648960)
I0104 22:07:55.322247  1531 net.cpp:137] Memory required for data: 73147960
I0104 22:07:55.322262  1531 layer_factory.hpp:77] Creating layer conv4
I0104 22:07:55.322284  1531 net.cpp:84] Creating Layer conv4
I0104 22:07:55.322294  1531 net.cpp:406] conv4 <- conv3
I0104 22:07:55.322309  1531 net.cpp:380] conv4 -> conv4
I0104 22:07:55.325884  1531 net.cpp:122] Setting up conv4
I0104 22:07:55.325917  1531 net.cpp:129] Top shape: 10 384 13 13 (648960)
I0104 22:07:55.325937  1531 net.cpp:137] Memory required for data: 75743800
I0104 22:07:55.325963  1531 layer_factory.hpp:77] Creating layer relu4
I0104 22:07:55.325984  1531 net.cpp:84] Creating Layer relu4
I0104 22:07:55.325999  1531 net.cpp:406] relu4 <- conv4
I0104 22:07:55.326014  1531 net.cpp:367] relu4 -> conv4 (in-place)
I0104 22:07:55.326030  1531 net.cpp:122] Setting up relu4
I0104 22:07:55.326042  1531 net.cpp:129] Top shape: 10 384 13 13 (648960)
I0104 22:07:55.326058  1531 net.cpp:137] Memory required for data: 78339640
I0104 22:07:55.326069  1531 layer_factory.hpp:77] Creating layer conv5
I0104 22:07:55.326087  1531 net.cpp:84] Creating Layer conv5
I0104 22:07:55.326102  1531 net.cpp:406] conv5 <- conv4
I0104 22:07:55.326119  1531 net.cpp:380] conv5 -> conv5
I0104 22:07:55.328799  1531 net.cpp:122] Setting up conv5
I0104 22:07:55.328832  1531 net.cpp:129] Top shape: 10 256 13 13 (432640)
I0104 22:07:55.328852  1531 net.cpp:137] Memory required for data: 80070200
I0104 22:07:55.328881  1531 layer_factory.hpp:77] Creating layer relu5
I0104 22:07:55.328902  1531 net.cpp:84] Creating Layer relu5
I0104 22:07:55.328917  1531 net.cpp:406] relu5 <- conv5
I0104 22:07:55.328933  1531 net.cpp:367] relu5 -> conv5 (in-place)
I0104 22:07:55.328953  1531 net.cpp:122] Setting up relu5
I0104 22:07:55.328968  1531 net.cpp:129] Top shape: 10 256 13 13 (432640)
I0104 22:07:55.328984  1531 net.cpp:137] Memory required for data: 81800760
I0104 22:07:55.328996  1531 layer_factory.hpp:77] Creating layer pool5
I0104 22:07:55.329015  1531 net.cpp:84] Creating Layer pool5
I0104 22:07:55.329028  1531 net.cpp:406] pool5 <- conv5
I0104 22:07:55.329044  1531 net.cpp:380] pool5 -> pool5
I0104 22:07:55.329128  1531 net.cpp:122] Setting up pool5
I0104 22:07:55.329144  1531 net.cpp:129] Top shape: 10 256 6 6 (92160)
I0104 22:07:55.329161  1531 net.cpp:137] Memory required for data: 82169400
I0104 22:07:55.329174  1531 layer_factory.hpp:77] Creating layer fc6
I0104 22:07:55.329198  1531 net.cpp:84] Creating Layer fc6
I0104 22:07:55.329212  1531 net.cpp:406] fc6 <- pool5
I0104 22:07:55.329231  1531 net.cpp:380] fc6 -> fc6
I0104 22:07:55.489984  1531 net.cpp:122] Setting up fc6
I0104 22:07:55.490037  1531 net.cpp:129] Top shape: 10 4096 (40960)
I0104 22:07:55.490062  1531 net.cpp:137] Memory required for data: 82333240
I0104 22:07:55.490092  1531 layer_factory.hpp:77] Creating layer relu6
I0104 22:07:55.490119  1531 net.cpp:84] Creating Layer relu6
I0104 22:07:55.490137  1531 net.cpp:406] relu6 <- fc6
I0104 22:07:55.490160  1531 net.cpp:367] relu6 -> fc6 (in-place)
I0104 22:07:55.490188  1531 net.cpp:122] Setting up relu6
I0104 22:07:55.490201  1531 net.cpp:129] Top shape: 10 4096 (40960)
I0104 22:07:55.490217  1531 net.cpp:137] Memory required for data: 82497080
I0104 22:07:55.490231  1531 layer_factory.hpp:77] Creating layer drop6
I0104 22:07:55.490252  1531 net.cpp:84] Creating Layer drop6
I0104 22:07:55.490264  1531 net.cpp:406] drop6 <- fc6
I0104 22:07:55.490281  1531 net.cpp:367] drop6 -> fc6 (in-place)
I0104 22:07:55.490360  1531 net.cpp:122] Setting up drop6
I0104 22:07:55.490376  1531 net.cpp:129] Top shape: 10 4096 (40960)
I0104 22:07:55.490392  1531 net.cpp:137] Memory required for data: 82660920
I0104 22:07:55.490450  1531 layer_factory.hpp:77] Creating layer fc7
I0104 22:07:55.490473  1531 net.cpp:84] Creating Layer fc7
I0104 22:07:55.490487  1531 net.cpp:406] fc7 <- fc6
I0104 22:07:55.490504  1531 net.cpp:380] fc7 -> fc7
I0104 22:07:55.562058  1531 net.cpp:122] Setting up fc7
I0104 22:07:55.562108  1531 net.cpp:129] Top shape: 10 4096 (40960)
I0104 22:07:55.562131  1531 net.cpp:137] Memory required for data: 82824760
I0104 22:07:55.562162  1531 layer_factory.hpp:77] Creating layer relu7
I0104 22:07:55.562191  1531 net.cpp:84] Creating Layer relu7
I0104 22:07:55.562209  1531 net.cpp:406] relu7 <- fc7
I0104 22:07:55.562229  1531 net.cpp:367] relu7 -> fc7 (in-place)
I0104 22:07:55.562249  1531 net.cpp:122] Setting up relu7
I0104 22:07:55.562265  1531 net.cpp:129] Top shape: 10 4096 (40960)
I0104 22:07:55.562281  1531 net.cpp:137] Memory required for data: 82988600
I0104 22:07:55.562295  1531 layer_factory.hpp:77] Creating layer drop7
I0104 22:07:55.562315  1531 net.cpp:84] Creating Layer drop7
I0104 22:07:55.562328  1531 net.cpp:406] drop7 <- fc7
I0104 22:07:55.562345  1531 net.cpp:367] drop7 -> fc7 (in-place)
I0104 22:07:55.562409  1531 net.cpp:122] Setting up drop7
I0104 22:07:55.562425  1531 net.cpp:129] Top shape: 10 4096 (40960)
I0104 22:07:55.562441  1531 net.cpp:137] Memory required for data: 83152440
I0104 22:07:55.562454  1531 layer_factory.hpp:77] Creating layer fc8
I0104 22:07:55.562474  1531 net.cpp:84] Creating Layer fc8
I0104 22:07:55.562489  1531 net.cpp:406] fc8 <- fc7
I0104 22:07:55.562505  1531 net.cpp:380] fc8 -> fc8
I0104 22:07:55.580344  1531 net.cpp:122] Setting up fc8
I0104 22:07:55.580386  1531 net.cpp:129] Top shape: 10 1000 (10000)
I0104 22:07:55.580409  1531 net.cpp:137] Memory required for data: 83192440
I0104 22:07:55.580435  1531 layer_factory.hpp:77] Creating layer prob
I0104 22:07:55.580459  1531 net.cpp:84] Creating Layer prob
I0104 22:07:55.580476  1531 net.cpp:406] prob <- fc8
I0104 22:07:55.580497  1531 net.cpp:380] prob -> prob
I0104 22:07:55.580648  1531 net.cpp:122] Setting up prob
I0104 22:07:55.580667  1531 net.cpp:129] Top shape: 10 1000 (10000)
I0104 22:07:55.580682  1531 net.cpp:137] Memory required for data: 83232440
I0104 22:07:55.580698  1531 net.cpp:200] prob does not need backward computation.
I0104 22:07:55.580729  1531 net.cpp:200] fc8 does not need backward computation.
I0104 22:07:55.580744  1531 net.cpp:200] drop7 does not need backward computation.
I0104 22:07:55.580756  1531 net.cpp:200] relu7 does not need backward computation.
…
I0104 22:08:29.120031  1531 caffe.cpp:423] Total Time: 33099.1 ms.
I0104 22:08:29.120054  1531 caffe.cpp:424] *** Benchmark ends ***
$ caffe/build/tools/caffe time --model=caffe/models/bvlc_googlenet/deploy.prototxt -gpu 0 -iterations 200
I0104 22:08:29.283790  1533 caffe.cpp:348] Use GPU with device ID 0
I0104 22:08:29.702752  1533 net.cpp:51] Initializing net from parameters: 
name: "GoogleNet"
state {
  phase: TRAIN
  level: 0
  stage: ""
}
layer {
  name: "data"
  type: "Input"
  top: "data"
  input_param {
    shape {
      dim: 10
      dim: 3
      dim: 224
      dim: 224
    }
  }
}
layer {
  name: "conv1/7x7_s2"
  type: "Convolution"
  bottom: "data"
  top: "conv1/7x7_s2"
  param {
    lr_mult: 1
    decay_mult: 1
  }
  param {
    lr_mult: 2
    decay_mult: 0
  }
  convolution_param {
    num_output: 64
    pad: 3
    kernel_size: 7
    stride: 2
    weight_filler {
      type: "xavier"
      std: 0.1
    }
    bias_filler {
      type: "constant"
      value: 0.2
    }
  }
}
layer {
  name: "conv1/relu_7x7"
  type: "ReLU"
  bottom: "conv1/7x7_s2"
  top: "conv1/7x7_s2"
}
layer {
  name: "pool1/3x3_s2"
  type: "Pooling"
  bottom: "conv1/7x7_s2"
  top: "pool1/3x3_s2"
  pooling_param {
    pool: MAX
    kernel_size: 3
    stride: 2
  }
}
layer {
  name: "pool1/norm1"
  type: "LRN"
  bottom: "pool1/3x3_s2"
  top: "pool1/norm1"
  lrn_param {
    local_size: 5
    alpha: 0.0001
    beta: 0.75
  }
}
layer {
  name: "conv2/3x3_reduce"
  type: "Convolution"
  bottom: "pool1/norm1"
  top: "conv2/3x3_reduce"
  param {
    lr_mult: 1
    decay_mult: 1
  }
  param {
    lr_mult: 2
    decay_mult: 0
  }
  convolution_param {
    num_output: 64
    kernel_size: 1
    weight_filler {
      type: "xavier"
      std: 0.1
    }
    bias_filler {
      type: "constant"
      value: 0.2
    }
  }
}
layer {
  name: "conv2/relu_3x3_reduce"
  type: "ReLU"
  bottom: "conv2/3x3_reduce"
  top: "conv2/3x3_reduce"
}
layer {
  name: "conv2/3x3"
  type: "Convolution"
  bottom: "conv2/3x3_reduce"
  top: "conv2/3x3"
  param {
    lr_mult: 1
    decay_mult: 1
  }
  param {
    lr_mult: 2
    decay_mult: 0
  }
  convolution_param {
    num_output: 192
    pad: 1
    kernel_size: 3
    weight_filler {
      type: "xavier"
      std: 0.03
    }
    bias_filler {
      type: "constant"
      value: 0.2
    }
  }
}
layer {
  name: "conv2/relu_3x3"
  type: "ReLU"
  bottom: "conv2/3x3"
  top: "conv2/3x3"
}
layer {
  name: "conv2/norm2"
  type: "LRN"
  bottom: "conv2/3x3"
  top: "conv2/norm2"
  lrn_param {
    local_size: 5
    alpha: 0.0001
    beta: 0.75
  }
}
layer {
  name: "pool2/3x3_s2"
  type: "Pooling"
  bottom: "conv2/norm2"
  top: "pool2/3x3_s2"
  pooling_param {
    pool: MAX
    kernel_size: 3
    stride: 2
  }
}
layer {
  name: "inception_3a/1x1"
  type: "Convolution"
  bottom: "pool2/3x3_s2"
  top: "inception_3a/1x1"
  param {
    lr_mult: 1
    decay_mult: 1
  }
  param {
    lr_mult: 2
    decay_mult: 0
  }
  convolution_param {
    num_output: 64
    kernel_size: 1
    weight_filler {
      type: "xavier"
      std: 0.03
    }
    bias_filler {
      type: "constant"
      value: 0.2
    }
  }
}
layer {
  name: "inception_3a/relu_1x1"
  type: "ReLU"
  bottom: "inception_3a/1x1"
  top: "inception_3a/1x1"
}
layer {
  name: "inception_3a/3x3_reduce"
  type: "Convolution"
  bottom: "pool2/3x3_s2"
  top: "inception_3a/3x3_reduce"
  param {
    lr_mult: 1
    decay_mult: 1
  }
  param {
    lr_mult: 2
    decay_mult: 0
  }
  convolution_param {
    num_output: 96
    kernel_size: 1
    weight_filler {
      type: "xavier"
      std: 0.09
    }
    bias_filler {
      type: "constant"
      value: 0.2
    }
  }
}
layer {
  name: "inception_3a/relu_3x3_reduce"
  type: "ReLU"
  bottom: "inception_3a/3x3_reduce"
  top: "inception_3a/3x3_reduce"
}
layer {
  name: "inception_3a/3x3"
  type: "Convolution"
  bottom: "inception_3a/3x3_reduce"
  top: "inception_3a/3x3"
  param {
    lr_mult: 1
    decay_mult: 1
  }
  param {
    lr_mult: 2
    decay_mult: 0
  }
  convolution_param {
    num_output: 128
    pad: 1
    kernel_size: 3
    weight_filler {
      type: "xavier"
      std: 0.03
    }
    bias_filler {
      type: "constant"
      value: 0.2
    }
  }
}
layer {
  name: "inception_3a/relu_3x3"
  type: "ReLU"
  bottom: "inception_3a/3x3"
  top: "inception_3a/3x3"
}
layer {
  name: "inception_3a/5x5_reduce"
  type: "Convolution"
  bottom: "pool2/3x3_s2"
  top: "inception_3a/5x5_reduce"
  param {
    lr_mult: 1
    decay_mult: 1
  }
  param {
    lr_mult: 2
    decay_mult: 0
  }
  convolution_param {
    num_output: 16
    kernel_size: 1
    weight_filler {
      type: "xavier"
      std: 0.2
    }
    bias_filler {
      type: "constant"
      value: 0.2
    }
  }
}
layer {
  name: "inception_3a/relu_5x5_reduce"
  type: "ReLU"
  bottom: "inception_3a/5x5_reduce"
  top: "inception_3a/5x5_reduce"
}
layer {
  name: "inception_3a/5x5"
  type: "Convolution"
  bottom: "inception_3a/5x5_reduce"
  top: "inception_3a/5x5"
  param {
    lr_mult: 1
    decay_mult: 1
  }
  param {
    lr_mult: 2
    decay_mult: 0
  }
  convolution_param {
    num_output: 32
    pad: 2
    kernel_size: 5
    weight_filler {
      type: "xavier"
      std: 0.03
    }
    bias_filler {
      type: "constant"
      value: 0.2
    }
  }
}
layer {
  name: "inception_3a/relu_5x5"
  type: "ReLU"
  bottom: "inception_3a/5x5"
  top: "inception_3a/5x5"
}
layer {
  name: "inception_3a/pool"
  type: "Pooling"
  bottom: "pool2/3x3_s2"
  top: "inception_3a/pool"
  pooling_param {
    pool: MAX
    kernel_size: 3
    stride: 1
    pad: 1
  }
}
layer {
  name: "inception_3a/pool_proj"
  type: "Convolution"
  bottom: "inception_3a/pool"
  top: "inception_3a/pool_proj"
  param {
    lr_mult: 1
    decay_mult: 1
  }
  param {
    lr_mult: 2
    decay_mult: 0
  }
  convolution_param {
    num_output: 32
    kernel_size: 1
    weight_filler {
      type: "xavier"
      std: 0.1
    }
    bias_filler {
      type: "constant"
      value: 0.2
    }
  }
}
layer {
  name: "inception_3a/relu_pool_proj"
  type: "ReLU"
  bottom: "inception_3a/pool_proj"
  top: "inception_3a/pool_proj"
}
layer {
  name: "inception_3a/output"
  type: "Concat"
  bottom: "inception_3a/1x1"
  bottom: "inception_3a/3x3"
  bottom: "inception_3a/5x5"
  bottom: "inception_3a/pool_proj"
  top: "inception_3a/output"
}
layer {
  name: "inception_3b/1x1"
  type: "Convolution"
  bottom: "inception_3a/output"
  top: "inception_3b/1x1"
  param {
    lr_mult: 1
    decay_mult: 1
  }
  param {
    lr_mult: 2
    decay_mult: 0
  }
  convolution_param {
    num_output: 128
    kernel_size: 1
    weight_filler {
      type: "xavier"
      std: 0.03
    }
    bias_filler {
      type: "constant"
      value: 0.2
    }
  }
}
layer {
  name: "inception_3b/relu_1x1"
  type: "ReLU"
  bottom: "inception_3b/1x1"
  top: "inception_3b/1x1"
}
layer {
  name: "inception_3b/3x3_reduce"
  type: "Convolution"
  bottom: "inception_3a/output"
  top: "inception_3b/3x3_reduce"
  param {
    lr_mult: 1
    decay_mult: 1
  }
  param {
    lr_mult: 2
    decay_mult: 0
  }
  convolution_param {
    num_output: 128
    kernel_size: 1
    weight_filler {
      type: "xavier"
      std: 0.09
    }
    bias_filler {
      type: "constant"
      value: 0.2
    }
  }
}
layer {
  name: "inception_3b/relu_3x3_reduce"
  type: "ReLU"
  bottom: "inception_3b/3x3_reduce"
  top: "inception_3b/3x3_reduce"
}
layer {
  name: "inception_3b/3x3"
  type: "Convolution"
  bottom: "inception_3b/3x3_reduce"
  top: "inception_3b/3x3"
  param {
    lr_mult: 1
    decay_mult: 1
  }
  param {
    lr_mult: 2
    decay_mult: 0
  }
  convolution_param {
    num_output: 192
    pad: 1
    kernel_size: 3
    weight_filler {
      type: "xavier"
      std: 0.03
    }
    bias_filler {
      type: "constant"
      value: 0.2
    }
  }
}
layer {
  name: "inception_3b/relu_3x3"
  type: "ReLU"
  bottom: "inception_3b/3x3"
  top: "inception_3b/3x3"
}
layer {
  name: "inception_3b/5x5_reduce"
  type: "Convolution"
  bottom: "inception_3a/output"
  top: "inception_3b/5x5_reduce"
  param {
    lr_mult: 1
    decay_mult: 1
  }
  param {
    lr_mult: 2
    decay_mult: 0
  }
  convolution_param {
    num_output: 32
    kernel_size: 1
    weight_filler {
      type: "xavier"
      std: 0.2
    }
    bias_filler {
      type: "constant"
      value: 0.2
    }
  }
}
layer {
  name: "inception_3b/relu_5x5_reduce"
  type: "ReLU"
  bottom: "inception_3b/5x5_reduce"
  top: "inception_3b/5x5_reduce"
}
layer {
  name: "inception_3b/5x5"
  type: "Convolution"
  bottom: "inception_3b/5x5_reduce"
  top: "inception_3b/5x5"
  param {
    lr_mult: 1
    decay_mult: 1
  }
  param {
    lr_mult: 2
    decay_mult: 0
  }
  convolution_param {
    num_output: 96
    pad: 2
    kernel_size: 5
    weight_filler {
      type: "xavier"
      std: 0.03
    }
    bias_filler {
      type: "constant"
      value: 0.2
    }
  }
}
layer {
  name: "inception_3b/relu_5x5"
  type: "ReLU"
  bottom: "inception_3b/5x5"
  top: "inception_3b/5x5"
}
layer {
  name: "inception_3b/pool"
  type: "Pooling"
  bottom: "inception_3a/output"
  top: "inception_3b/pool"
  pooling_param {
    pool: MAX
    kernel_size: 3
    stride: 1
    pad: 1
  }
}
layer {
  name: "inception_3b/pool_proj"
  type: "Convolution"
  bottom: "inception_3b/pool"
  top: "inception_3b/pool_proj"
  param {
    lr_mult: 1
    decay_mult: 1
  }
  param {
    lr_mult: 2
    decay_mult: 0
  }
  convolution_param {
    num_output: 64
    kernel_size: 1
    weight_filler {
      type: "xavier"
      std: 0.1
    }
    bias_filler {
      type: "constant"
      value: 0.2
    }
  }
}
layer {
  name: "inception_3b/relu_pool_proj"
  type: "ReLU"
  bottom: "inception_3b/pool_proj"
  top: "inception_3b/pool_proj"
}
layer {
  name: "inception_3b/output"
  type: "Concat"
  bottom: "inception_3b/1x1"
  bottom: "inception_3b/3x3"
  bottom: "inception_3b/5x5"
  bottom: "inception_3b/pool_proj"
  top: "inception_3b/output"
}
layer {
  name: "pool3/3x3_s2"
  type: "Pooling"
  bottom: "inception_3b/output"
  top: "pool3/3x3_s2"
  pooling_param {
    pool: MAX
    kernel_size: 3
    stride: 2
  }
}
layer {
  name: "inception_4a/1x1"
  type: "Convolution"
  bottom: "pool3/3x3_s2"
  top: "inception_4a/1x1"
  param {
    lr_mult: 1
    decay_mult: 1
  }
  param {
    lr_mult: 2
    decay_mult: 0
  }
  convolution_param {
    num_output: 192
    kernel_size: 1
    weight_filler {
      type: "xavier"
      std: 0.03
    }
    bias_filler {
      type: "constant"
      value: 0.2
    }
  }
}
layer {
  name: "inception_4a/relu_1x1"
  type: "ReLU"
  bottom: "inception_4a/1x1"
  top: "inception_4a/1x1"
}
layer {
  name: "inception_4a/3x3_reduce"
  type: "Convolution"
  bottom: "pool3/3x3_s2"
  top: "inception_4a/3x3_reduce"
  param {
    lr_mult: 1
    decay_mult: 1
  }
  param {
    lr_mult: 2
    decay_mult: 0
  }
  convolution_param {
    num_output: 96
    kernel_size: 1
    weight_filler {
      type: "xavier"
      std: 0.09
    }
    bias_filler {
      type: "constant"
      value: 0.2
    }
  }
}
layer {
  name: "inception_4a/relu_3x3_reduce"
  type: "ReLU"
  bottom: "inception_4a/3x3_reduce"
  top: "inception_4a/3x3_reduce"
}
layer {
  name: "inception_4a/3x3"
  type: "Convolution"
  bottom: "inception_4a/3x3_reduce"
  top: "inception_4a/3x3"
  param {
    lr_mult: 1
    decay_mult: 1
  }
  param {
    lr_mult: 2
    decay_mult: 0
  }
  convolution_param {
    num_output: 208
    pad: 1
    kernel_size: 3
    weight_filler {
      type: "xavier"
      std: 0.03
    }
    bias_filler {
      type: "constant"
      value: 0.2
    }
  }
}
layer {
  name: "inception_4a/relu_3x3"
  type: "ReLU"
  bottom: "inception_4a/3x3"
  top: "inception_4a/3x3"
}
layer {
  name: "inception_4a/5x5_reduce"
  type: "Convolution"
  bottom: "pool3/3x3_s2"
  top: "inception_4a/5x5_reduce"
  param {
    lr_mult: 1
    decay_mult: 1
  }
  param {
    lr_mult: 2
    decay_mult: 0
  }
  convolution_param {
    num_output: 16
    kernel_size: 1
    weight_filler {
      type: "xavier"
      std: 0.2
    }
    bias_filler {
      type: "constant"
      value: 0.2
    }
  }
}
layer {
  name: "inception_4a/relu_5x5_reduce"
  type: "ReLU"
  bottom: "inception_4a/5x5_reduce"
  top: "inception_4a/5x5_reduce"
}
layer {
  name: "inception_4a/5x5"
  type: "Convolution"
  bottom: "inception_4a/5x5_reduce"
  top: "inception_4a/5x5"
  param {
    lr_mult: 1
    decay_mult: 1
  }
  param {
    lr_mult: 2
    decay_mult: 0
  }
  convolution_param {
    num_output: 48
    pad: 2
    kernel_size: 5
    weight_filler {
      type: "xavier"
      std: 0.03
    }
    bias_filler {
      type: "constant"
      value: 0.2
    }
  }
}
layer {
  name: "inception_4a/relu_5x5"
  type: "ReLU"
  bottom: "inception_4a/5x5"
  top: "inception_4a/5x5"
}
layer {
  name: "inception_4a/pool"
  type: "Pooling"
  bottom: "pool3/3x3_s2"
  top: "inception_4a/pool"
  pooling_param {
    pool: MAX
    kernel_size: 3
    stride: 1
    pad: 1
  }
}
layer {
  name: "inception_4a/pool_proj"
  type: "Convolution"
  bottom: "inception_4a/pool"
  top: "inception_4a/pool_proj"
  param {
    lr_mult: 1
    decay_mult: 1
  }
  param {
    lr_mult: 2
    decay_mult: 0
  }
  convolution_param {
    num_output: 64
    kernel_size: 1
    weight_filler {
      type: "xavier"
      std: 0.1
    }
    bias_filler {
      type: "constant"
      value: 0.2
    }
  }
}
layer {
  name: "inception_4a/relu_pool_proj"
  type: "ReLU"
  bottom: "inception_4a/pool_proj"
  top: "inception_4a/pool_proj"
}
layer {
  name: "inception_4a/output"
  type: "Concat"
  bottom: "inception_4a/1x1"
  bottom: "inception_4a/3x3"
  bottom: "inception_4a/5x5"
  bottom: "inception_4a/pool_proj"
  top: "inception_4a/output"
}
layer {
  name: "inception_4b/1x1"
  type: "Convolution"
  bottom: "inception_4a/output"
  top: "inception_4b/1x1"
  param {
    lr_mult: 1
    decay_mult: 1
  }
  param {
    lr_mult: 2
    decay_mult: 0
  }
  convolution_param {
    num_output: 160
    kernel_size: 1
    weight_filler {
      type: "xavier"
      std: 0.03
    }
    bias_filler {
      type: "constant"
      value: 0.2
    }
  }
}
layer {
  name: "inception_4b/relu_1x1"
  type: "ReLU"
  bottom: "inception_4b/1x1"
  top: "inception_4b/1x1"
}
layer {
  name: "inception_4b/3x3_reduce"
  type: "Convolution"
  bottom: "inception_4a/output"
  top: "inception_4b/3x3_reduce"
  param {
    lr_mult: 1
    decay_mult: 1
  }
  param {
    lr_mult: 2
    decay_mult: 0
  }
  convolution_param {
    num_output: 112
    kernel_size: 1
    weight_filler {
      type: "xavier"
      std: 0.09
    }
    bias_filler {
      type: "constant"
      value: 0.2
    }
  }
}
layer {
  name: "inception_4b/relu_3x3_reduce"
  type: "ReLU"
  bottom: "inception_4b/3x3_reduce"
  top: "inception_4b/3x3_reduce"
}
layer {
  name: "inception_4b/3x3"
  type: "Convolution"
  bottom: "inception_4b/3x3_reduce"
  top: "inception_4b/3x3"
  param {
    lr_mult: 1
    decay_mult: 1
  }
  param {
    lr_mult: 2
    decay_mult: 0
  }
  convolution_param {
    num_output: 224
    pad: 1
    kernel_size: 3
    weight_filler {
      type: "xavier"
      std: 0.03
    }
    bias_filler {
      type: "constant"
      value: 0.2
    }
  }
}
layer {
  name: "inception_4b/relu_3x3"
  type: "ReLU"
  bottom: "inception_4b/3x3"
  top: "inception_4b/3x3"
}
layer {
  name: "inception_4b/5x5_reduce"
  type: "Convolution"
  bottom: "inception_4a/output"
  top: "inception_4b/5x5_reduce"
  param {
    lr_mult: 1
    decay_mult: 1
  }
  param {
    lr_mult: 2
    decay_mult: 0
  }
  convolution_param {
    num_output: 24
    kernel_size: 1
    weight_filler {
      type: "xavier"
      std: 0.2
    }
    bias_filler {
      type: "constant"
      value: 0.2
    }
  }
}
layer {
  name: "inception_4b/relu_5x5_reduce"
  type: "ReLU"
  bottom: "inception_4b/5x5_reduce"
  top: "inception_4b/5x5_reduce"
}
layer {
  name: "inception_4b/5x5"
  type: "Convolution"
  bottom: "inception_4b/5x5_reduce"
  top: "inception_4b/5x5"
  param {
    lr_mult: 1
    decay_mult: 1
  }
  param {
    lr_mult: 2
    decay_mult: 0
  }
  convolution_param {
    num_output: 64
    pad: 2
    kernel_size: 5
    weight_filler {
      type: "xavier"
      std: 0.03
    }
    bias_filler {
      type: "constant"
      value: 0.2
    }
  }
}
layer {
  name: "inception_4b/relu_5x5"
  type: "ReLU"
  bottom: "inception_4b/5x5"
  top: "inception_4b/5x5"
}
layer {
  name: "inception_4b/pool"
  type: "Pooling"
  bottom: "inception_4a/output"
  top: "inception_4b/pool"
  pooling_param {
    pool: MAX
    kernel_size: 3
    stride: 1
    pad: 1
  }
}
layer {
  name: "inception_4b/pool_proj"
  type: "Convolution"
  bottom: "inception_4b/pool"
  top: "inception_4b/pool_proj"
  param {
    lr_mult: 1
    decay_mult: 1
  }
  param {
    lr_mult: 2
    decay_mult: 0
  }
  convolution_param {
    num_output: 64
    kernel_size: 1
    weight_filler {
      type: "xavier"
      std: 0.1
    }
    bias_filler {
      type: "constant"
      value: 0.2
    }
  }
}
layer {
  name: "inception_4b/relu_pool_proj"
  type: "ReLU"
  bottom: "inception_4b/pool_proj"
  top: "inception_4b/pool_proj"
}
layer {
  name: "inception_4b/output"
  type: "Concat"
  bottom: "inception_4b/1x1"
  bottom: "inception_4b/3x3"
  bottom: "inception_4b/5x5"
  bottom: "inception_4b/pool_proj"
  top: "inception_4b/output"
}
layer {
  name: "inception_4c/1x1"
  type: "Convolution"
  bottom: "inception_4b/output"
  top: "inception_4c/1x1"
  param {
    lr_mult: 1
    decay_mult: 1
  }
  param {
    lr_mult: 2
    decay_mult: 0
  }
  convolution_param {
    num_output: 128
    kernel_size: 1
    weight_filler {
      type: "xavier"
      std: 0.03
    }
    bias_filler {
      type: "constant"
      value: 0.2
    }
  }
}
layer {
  name: "inception_4c/relu_1x1"
  type: "ReLU"
  bottom: "inception_4c/1x1"
  top: "inception_4c/1x1"
}
layer {
  name: "inception_4c/3x3_reduce"
  type: "Convolution"
  bottom: "inception_4b/output"
  top: "inception_4c/3x3_reduce"
  param {
    lr_mult: 1
    decay_mult: 1
  }
  param {
    lr_mult: 2
    decay_mult: 0
  }
  convolution_param {
    num_output: 128
    kernel_size: 1
    weight_filler {
      type: "xavier"
      std: 0.09
    }
    bias_filler {
      type: "constant"
      value: 0.2
    }
  }
}
layer {
  name: "inception_4c/relu_3x3_reduce"
  type: "ReLU"
  bottom: "inception_4c/3x3_reduce"
  top: "inception_4c/3x3_reduce"
}
layer {
  name: "inception_4c/3x3"
  type: "Convolution"
  bottom: "inception_4c/3x3_reduce"
  top: "inception_4c/3x3"
  param {
    lr_mult: 1
    decay_mult: 1
  }
  param {
    lr_mult: 2
    decay_mult: 0
  }
  convolution_param {
    num_output: 256
    pad: 1
    kernel_size: 3
    weight_filler {
      type: "xavier"
      std: 0.03
    }
    bias_filler {
      type: "constant"
      value: 0.2
    }
  }
}
layer {
  name: "inception_4c/relu_3x3"
  type: "ReLU"
  bottom: "inception_4c/3x3"
  top: "inception_4c/3x3"
}
layer {
  name: "inception_4c/5x5_reduce"
  type: "Convolution"
  bottom: "inception_4b/output"
  top: "inception_4c/5x5_reduce"
  param {
    lr_mult: 1
    decay_mult: 1
  }
  param {
    lr_mult: 2
    decay_mult: 0
  }
  convolution_param {
    num_output: 24
    kernel_size: 1
    weight_filler {
      type: "xavier"
      std: 0.2
    }
    bias_filler {
      type: "constant"
      value: 0.2
    }
  }
}
layer {
  name: "inception_4c/relu_5x5_reduce"
  type: "ReLU"
  bottom: "inception_4c/5x5_reduce"
  top: "inception_4c/5x5_reduce"
}
layer {
  name: "inception_4c/5x5"
  type: "Convolution"
  bottom: "inception_4c/5x5_reduce"
  top: "inception_4c/5x5"
  param {
    lr_mult: 1
    decay_mult: 1
  }
  param {
    lr_mult: 2
    decay_mult: 0
  }
  convolution_param {
    num_output: 64
    pad: 2
    kernel_size: 5
    weight_filler {
      type: "xavier"
      std: 0.03
    }
    bias_filler {
      type: "constant"
      value: 0.2
    }
  }
}
layer {
  name: "inception_4c/relu_5x5"
  type: "ReLU"
  bottom: "inception_4c/5x5"
  top: "inception_4c/5x5"
}
layer {
  name: "inception_4c/pool"
  type: "Pooling"
  bottom: "inception_4b/output"
  top: "inception_4c/pool"
  pooling_param {
    pool: MAX
    kernel_size: 3
    stride: 1
    pad: 1
  }
}
layer {
  name: "inception_4c/pool_proj"
  type: "Convolution"
  bottom: "inception_4c/pool"
  top: "inception_4c/pool_proj"
  param {
    lr_mult: 1
    decay_mult: 1
  }
  param {
    lr_mult: 2
    decay_mult: 0
  }
  convolution_param {
    num_output: 64
    kernel_size: 1
    weight_filler {
      type: "xavier"
      std: 0.1
    }
    bias_filler {
      type: "constant"
      value: 0.2
    }
  }
}
layer {
  name: "inception_4c/relu_pool_proj"
  type: "ReLU"
  bottom: "inception_4c/pool_proj"
  top: "inception_4c/pool_proj"
}
layer {
  name: "inception_4c/output"
  type: "Concat"
  bottom: "inception_4c/1x1"
  bottom: "inception_4c/3x3"
  bottom: "inception_4c/5x5"
  bottom: "inception_4c/pool_proj"
  top: "inception_4c/output"
}
layer {
  name: "inception_4d/1x1"
  type: "Convolution"
  bottom: "inception_4c/output"
  top: "inception_4d/1x1"
  param {
    lr_mult: 1
    decay_mult: 1
  }
  param {
    lr_mult: 2
    decay_mult: 0
  }
  convolution_param {
    num_output: 112
    kernel_size: 1
    weight_filler {
      type: "xavier"
      std: 0.03
    }
    bias_filler {
      type: "constant"
      value: 0.2
    }
  }
}
layer {
  name: "inception_4d/relu_1x1"
  type: "ReLU"
  bottom: "inception_4d/1x1"
  top: "inception_4d/1x1"
}
layer {
  name: "inception_4d/3x3_reduce"
  type: "Convolution"
  bottom: "inception_4c/output"
  top: "inception_4d/3x3_reduce"
  param {
    lr_mult: 1
    decay_mult: 1
  }
  param {
    lr_mult: 2
    decay_mult: 0
  }
  convolution_param {
    num_output: 144
    kernel_size: 1
    weight_filler {
      type: "xavier"
      std: 0.09
    }
    bias_filler {
      type: "constant"
      value: 0.2
    }
  }
}
layer {
  name: "inception_4d/relu_3x3_reduce"
  type: "ReLU"
  bottom: "inception_4d/3x3_reduce"
  top: "inception_4d/3x3_reduce"
}
layer {
  name: "inception_4d/3x3"
  type: "Convolution"
  bottom: "inception_4d/3x3_reduce"
  top: "inception_4d/3x3"
  param {
    lr_mult: 1
    decay_mult: 1
  }
  param {
    lr_mult: 2
    decay_mult: 0
  }
  convolution_param {
    num_output: 288
    pad: 1
    kernel_size: 3
    weight_filler {
      type: "xavier"
      std: 0.03
    }
    bias_filler {
      type: "constant"
      value: 0.2
    }
  }
}
layer {
  name: "inception_4d/relu_3x3"
  type: "ReLU"
  bottom: "inception_4d/3x3"
  top: "inception_4d/3x3"
}
layer {
  name: "inception_4d/5x5_reduce"
  type: "Convolution"
  bottom: "inception_4c/output"
  top: "inception_4d/5x5_reduce"
  param {
    lr_mult: 1
    decay_mult: 1
  }
  param {
    lr_mult: 2
    decay_mult: 0
  }
  convolution_param {
    num_output: 32
    kernel_size: 1
    weight_filler {
      type: "xavier"
      std: 0.2
    }
    bias_filler {
      type: "constant"
      value: 0.2
    }
  }
}
layer {
  name: "inception_4d/relu_5x5_reduce"
  type: "ReLU"
  bottom: "inception_4d/5x5_reduce"
  top: "inception_4d/5x5_reduce"
}
layer {
  name: "inception_4d/5x5"
  type: "Convolution"
  bottom: "inception_4d/5x5_reduce"
  top: "inception_4d/5x5"
  param {
    lr_mult: 1
    decay_mult: 1
  }
  param {
    lr_mult: 2
    decay_mult: 0
  }
  convolution_param {
    num_output: 64
    pad: 2
    kernel_size: 5
    weight_filler {
      type: "xavier"
      std: 0.03
    }
    bias_filler {
      type: "constant"
      value: 0.2
    }
  }
}
layer {
  name: "inception_4d/relu_5x5"
  type: "ReLU"
  bottom: "inception_4d/5x5"
  top: "inception_4d/5x5"
}
layer {
  name: "inception_4d/pool"
  type: "Pooling"
  bottom: "inception_4c/output"
  top: "inception_4d/pool"
  pooling_param {
    pool: MAX
    kernel_size: 3
    stride: 1
    pad: 1
  }
}
layer {
  name: "inception_4d/pool_proj"
  type: "Convolution"
  bottom: "inception_4d/pool"
  top: "inception_4d/pool_proj"
  param {
    lr_mult: 1
    decay_mult: 1
  }
  param {
    lr_mult: 2
    decay_mult: 0
  }
  convolution_param {
    num_output: 64
    kernel_size: 1
    weight_filler {
      type: "xavier"
      std: 0.1
    }
    bias_filler {
      type: "constant"
      value: 0.2
    }
  }
}
layer {
  name: "inception_4d/relu_pool_proj"
  type: "ReLU"
  bottom: "inception_4d/pool_proj"
  top: "inception_4d/pool_proj"
}
layer {
  name: "inception_4d/output"
  type: "Concat"
  bottom: "inception_4d/1x1"
  bottom: "inception_4d/3x3"
  bottom: "inception_4d/5x5"
  bottom: "inception_4d/pool_proj"
  top: "inception_4d/output"
}
layer {
  name: "inception_4e/1x1"
  type: "Convolution"
  bottom: "inception_4d/output"
  top: "inception_4e/1x1"
  param {
    lr_mult: 1
    decay_mult: 1
  }
  param {
    lr_mult: 2
    decay_mult: 0
  }
  convolution_param {
    num_output: 256
    kernel_size: 1
    weight_filler {
      type: "xavier"
      std: 0.03
    }
    bias_filler {
      type: "constant"
      value: 0.2
    }
  }
}
layer {
  name: "inception_4e/relu_1x1"
  type: "ReLU"
  bottom: "inception_4e/1x1"
  top: "inception_4e/1x1"
}
layer {
  name: "inception_4e/3x3_reduce"
  type: "Convolution"
  bottom: "inception_4d/output"
  top: "inception_4e/3x3_reduce"
  param {
    lr_mult: 1
    decay_mult: 1
  }
  param {
    lr_mult: 2
    decay_mult: 0
  }
  convolution_param {
    num_output: 160
    kernel_size: 1
    weight_filler {
      type: "xavier"
      std: 0.09
    }
    bias_filler {
      type: "constant"
      value: 0.2
    }
  }
}
layer {
  name: "inception_4e/relu_3x3_reduce"
  type: "ReLU"
  bottom: "inception_4e/3x3_reduce"
  top: "inception_4e/3x3_reduce"
}
layer {
  name: "inception_4e/3x3"
  type: "Convolution"
  bottom: "inception_4e/3x3_reduce"
  top: "inception_4e/3x3"
  param {
    lr_mult: 1
    decay_mult: 1
  }
  param {
    lr_mult: 2
    decay_mult: 0
  }
  convolution_param {
    num_output: 320
    pad: 1
    kernel_size: 3
    weight_filler {
      type: "xavier"
      std: 0.03
    }
    bias_filler {
      type: "constant"
      value: 0.2
    }
  }
}
layer {
  name: "inception_4e/relu_3x3"
  type: "ReLU"
  bottom: "inception_4e/3x3"
  top: "inception_4e/3x3"
}
layer {
  name: "inception_4e/5x5_reduce"
  type: "Convolution"
  bottom: "inception_4d/output"
  top: "inception_4e/5x5_reduce"
  param {
    lr_mult: 1
    decay_mult: 1
  }
  param {
    lr_mult: 2
    decay_mult: 0
  }
  convolution_param {
    num_output: 32
    kernel_size: 1
    weight_filler {
      type: "xavier"
      std: 0.2
    }
    bias_filler {
      type: "constant"
      value: 0.2
    }
  }
}
layer {
  name: "inception_4e/relu_5x5_reduce"
  type: "ReLU"
  bottom: "inception_4e/5x5_reduce"
  top: "inception_4e/5x5_reduce"
}
layer {
  name: "inception_4e/5x5"
  type: "Convolution"
  bottom: "inception_4e/5x5_reduce"
  top: "inception_4e/5x5"
  param {
    lr_mult: 1
    decay_mult: 1
  }
  param {
    lr_mult: 2
    decay_mult: 0
  }
  convolution_param {
    num_output: 128
    pad: 2
    kernel_size: 5
    weight_filler {
      type: "xavier"
      std: 0.03
    }
    bias_filler {
      type: "constant"
      value: 0.2
    }
  }
}
layer {
  name: "inception_4e/relu_5x5"
  type: "ReLU"
  bottom: "inception_4e/5x5"
  top: "inception_4e/5x5"
}
layer {
  name: "inception_4e/pool"
  type: "Pooling"
  bottom: "inception_4d/output"
  top: "inception_4e/pool"
  pooling_param {
    pool: MAX
    kernel_size: 3
    stride: 1
    pad: 1
  }
}
layer {
  name: "inception_4e/pool_proj"
  type: "Convolution"
  bottom: "inception_4e/pool"
  top: "inception_4e/pool_proj"
  param {
    lr_mult: 1
    decay_mult: 1
  }
  param {
    lr_mult: 2
    decay_mult: 0
  }
  convolution_param {
    num_output: 128
    kernel_size: 1
    weight_filler {
      type: "xavier"
      std: 0.1
    }
    bias_filler {
      type: "constant"
      value: 0.2
    }
  }
}
layer {
  name: "inception_4e/relu_pool_proj"
  type: "ReLU"
  bottom: "inception_4e/pool_proj"
  top: "inception_4e/pool_proj"
}
layer {
  name: "inception_4e/output"
  type: "Concat"
  bottom: "inception_4e/1x1"
  bottom: "inception_4e/3x3"
  bottom: "inception_4e/5x5"
  bottom: "inception_4e/pool_proj"
  top: "inception_4e/output"
}
layer {
  name: "pool4/3x3_s2"
  type: "Pooling"
  bottom: "inception_4e/output"
  top: "pool4/3x3_s2"
  pooling_param {
    pool: MAX
    kernel_size: 3
    stride: 2
  }
}
layer {
  name: "inception_5a/1x1"
  type: "Convolution"
  bottom: "pool4/3x3_s2"
  top: "inception_5a/1x1"
  param {
    lr_mult: 1
    decay_mult: 1
  }
  param {
    lr_mult: 2
    decay_mult: 0
  }
  convolution_param {
    num_output: 256
    kernel_size: 1
    weight_filler {
      type: "xavier"
      std: 0.03
    }
    bias_filler {
      type: "constant"
      value: 0.2
    }
  }
}
layer {
  name: "inception_5a/relu_1x1"
  type: "ReLU"
  bottom: "inception_5a/1x1"
  top: "inception_5a/1x1"
}
layer {
  name: "inception_5a/3x3_reduce"
  type: "Convolution"
  bottom: "pool4/3x3_s2"
  top: "inception_5a/3x3_reduce"
  param {
    lr_mult: 1
    decay_mult: 1
  }
  param {
    lr_mult: 2
    decay_mult: 0
  }
  convolution_param {
    num_output: 160
    kernel_size: 1
    weight_filler {
      type: "xavier"
      std: 0.09
    }
    bias_filler {
      type: "constant"
      value: 0.2
    }
  }
}
layer {
  name: "inception_5a/relu_3x3_reduce"
  type: "ReLU"
  bottom: "inception_5a/3x3_reduce"
  top: "inception_5a/3x3_reduce"
}
layer {
  name: "inception_5a/3x3"
  type: "Convolution"
  bottom: "inception_5a/3x3_reduce"
  top: "inception_5a/3x3"
  param {
    lr_mult: 1
    decay_mult: 1
  }
  param {
    lr_mult: 2
    decay_mult: 0
  }
  convolution_param {
    num_output: 320
    pad: 1
    kernel_size: 3
    weight_filler {
      type: "xavier"
      std: 0.03
    }
    bias_filler {
      type: "constant"
      value: 0.2
    }
  }
}
layer {
  name: "inception_5a/relu_3x3"
  type: "ReLU"
  bottom: "inception_5a/3x3"
  top: "inception_5a/3x3"
}
layer {
  name: "inception_5a/5x5_reduce"
  type: "Convolution"
  bottom: "pool4/3x3_s2"
  top: "inception_5a/5x5_reduce"
  param {
    lr_mult: 1
    decay_mult: 1
  }
  param {
    lr_mult: 2
    decay_mult: 0
  }
  convolution_param {
    num_output: 32
    kernel_size: 1
    weight_filler {
      type: "xavier"
      std: 0.2
    }
    bias_filler {
      type: "constant"
I0104 22:08:29.709105  1533 layer_factory.hpp:77] Creating layer data
I0104 22:08:29.709159  1533 net.cpp:84] Creating Layer data
I0104 22:08:29.709183  1533 net.cpp:380] data -> data
I0104 22:08:29.751843  1533 net.cpp:122] Setting up data
I0104 22:08:29.751894  1533 net.cpp:129] Top shape: 10 3 224 224 (1505280)
I0104 22:08:29.751926  1533 net.cpp:137] Memory required for data: 6021120
I0104 22:08:29.751956  1533 layer_factory.hpp:77] Creating layer conv1/7x7_s2
I0104 22:08:29.752055  1533 net.cpp:84] Creating Layer conv1/7x7_s2
I0104 22:08:29.752106  1533 net.cpp:406] conv1/7x7_s2 <- data
I0104 22:08:29.752136  1533 net.cpp:380] conv1/7x7_s2 -> conv1/7x7_s2
I0104 22:08:29.753718  1533 net.cpp:122] Setting up conv1/7x7_s2
I0104 22:08:29.753748  1533 net.cpp:129] Top shape: 10 64 112 112 (8028160)
I0104 22:08:29.753768  1533 net.cpp:137] Memory required for data: 38133760
I0104 22:08:29.753859  1533 layer_factory.hpp:77] Creating layer conv1/relu_7x7
I0104 22:08:29.753921  1533 net.cpp:84] Creating Layer conv1/relu_7x7
I0104 22:08:29.753962  1533 net.cpp:406] conv1/relu_7x7 <- conv1/7x7_s2
I0104 22:08:29.753981  1533 net.cpp:367] conv1/relu_7x7 -> conv1/7x7_s2 (in-place)
I0104 22:08:29.754004  1533 net.cpp:122] Setting up conv1/relu_7x7
I0104 22:08:29.754019  1533 net.cpp:129] Top shape: 10 64 112 112 (8028160)
I0104 22:08:29.754078  1533 net.cpp:137] Memory required for data: 70246400
I0104 22:08:29.754092  1533 layer_factory.hpp:77] Creating layer pool1/3x3_s2
I0104 22:08:29.754284  1533 net.cpp:84] Creating Layer pool1/3x3_s2
I0104 22:08:29.754300  1533 net.cpp:406] pool1/3x3_s2 <- conv1/7x7_s2
I0104 22:08:29.754379  1533 net.cpp:380] pool1/3x3_s2 -> pool1/3x3_s2
I0104 22:08:29.754729  1533 net.cpp:122] Setting up pool1/3x3_s2
I0104 22:08:29.754747  1533 net.cpp:129] Top shape: 10 64 56 56 (2007040)
I0104 22:08:29.754765  1533 net.cpp:137] Memory required for data: 78274560
I0104 22:08:29.754779  1533 layer_factory.hpp:77] Creating layer pool1/norm1
I0104 22:08:29.754801  1533 net.cpp:84] Creating Layer pool1/norm1
I0104 22:08:29.754853  1533 net.cpp:406] pool1/norm1 <- pool1/3x3_s2
I0104 22:08:29.754904  1533 net.cpp:380] pool1/norm1 -> pool1/norm1
I0104 22:08:29.755108  1533 net.cpp:122] Setting up pool1/norm1
I0104 22:08:29.755125  1533 net.cpp:129] Top shape: 10 64 56 56 (2007040)
I0104 22:08:29.755220  1533 net.cpp:137] Memory required for data: 86302720
I0104 22:08:29.755236  1533 layer_factory.hpp:77] Creating layer conv2/3x3_reduce
I0104 22:08:29.755262  1533 net.cpp:84] Creating Layer conv2/3x3_reduce
I0104 22:08:29.755321  1533 net.cpp:406] conv2/3x3_reduce <- pool1/norm1
I0104 22:08:29.755420  1533 net.cpp:380] conv2/3x3_reduce -> conv2/3x3_reduce
I0104 22:08:29.756229  1533 net.cpp:122] Setting up conv2/3x3_reduce
I0104 22:08:29.756289  1533 net.cpp:129] Top shape: 10 64 56 56 (2007040)
I0104 22:08:29.756309  1533 net.cpp:137] Memory required for data: 94330880
I0104 22:08:29.756335  1533 layer_factory.hpp:77] Creating layer conv2/relu_3x3_reduce
I0104 22:08:29.756395  1533 net.cpp:84] Creating Layer conv2/relu_3x3_reduce
I0104 22:08:29.756412  1533 net.cpp:406] conv2/relu_3x3_reduce <- conv2/3x3_reduce
I0104 22:08:29.756466  1533 net.cpp:367] conv2/relu_3x3_reduce -> conv2/3x3_reduce (in-place)
I0104 22:08:29.756522  1533 net.cpp:122] Setting up conv2/relu_3x3_reduce
I0104 22:08:29.756537  1533 net.cpp:129] Top shape: 10 64 56 56 (2007040)
I0104 22:08:29.756664  1533 net.cpp:137] Memory required for data: 102359040
I0104 22:08:29.756680  1533 layer_factory.hpp:77] Creating layer conv2/3x3
I0104 22:08:29.756832  1533 net.cpp:84] Creating Layer conv2/3x3
I0104 22:08:29.756847  1533 net.cpp:406] conv2/3x3 <- conv2/3x3_reduce
I0104 22:08:29.756908  1533 net.cpp:380] conv2/3x3 -> conv2/3x3
I0104 22:08:29.760308  1533 net.cpp:122] Setting up conv2/3x3
I0104 22:08:29.760331  1533 net.cpp:129] Top shape: 10 192 56 56 (6021120)
I0104 22:08:29.760349  1533 net.cpp:137] Memory required for data: 126443520
I0104 22:08:29.760375  1533 layer_factory.hpp:77] Creating layer conv2/relu_3x3
I0104 22:08:29.760397  1533 net.cpp:84] Creating Layer conv2/relu_3x3
I0104 22:08:29.760454  1533 net.cpp:406] conv2/relu_3x3 <- conv2/3x3
I0104 22:08:29.760509  1533 net.cpp:367] conv2/relu_3x3 -> conv2/3x3 (in-place)
I0104 22:08:29.760565  1533 net.cpp:122] Setting up conv2/relu_3x3
I0104 22:08:29.760614  1533 net.cpp:129] Top shape: 10 192 56 56 (6021120)
I0104 22:08:29.760666  1533 net.cpp:137] Memory required for data: 150528000
I0104 22:08:29.760828  1533 layer_factory.hpp:77] Creating layer conv2/norm2
I0104 22:08:29.760886  1533 net.cpp:84] Creating Layer conv2/norm2
I0104 22:08:29.760946  1533 net.cpp:406] conv2/norm2 <- conv2/3x3
I0104 22:08:29.760980  1533 net.cpp:380] conv2/norm2 -> conv2/norm2
I0104 22:08:29.761113  1533 net.cpp:122] Setting up conv2/norm2
I0104 22:08:29.761131  1533 net.cpp:129] Top shape: 10 192 56 56 (6021120)
I0104 22:08:29.761147  1533 net.cpp:137] Memory required for data: 174612480
I0104 22:08:29.761291  1533 layer_factory.hpp:77] Creating layer pool2/3x3_s2
I0104 22:08:29.761312  1533 net.cpp:84] Creating Layer pool2/3x3_s2
I0104 22:08:29.761327  1533 net.cpp:406] pool2/3x3_s2 <- conv2/norm2
I0104 22:08:29.761344  1533 net.cpp:380] pool2/3x3_s2 -> pool2/3x3_s2
I0104 22:08:29.761559  1533 net.cpp:122] Setting up pool2/3x3_s2
I0104 22:08:29.761695  1533 net.cpp:129] Top shape: 10 192 28 28 (1505280)
I0104 22:08:29.761714  1533 net.cpp:137] Memory required for data: 180633600
I0104 22:08:29.761754  1533 layer_factory.hpp:77] Creating layer pool2/3x3_s2_pool2/3x3_s2_0_split
I0104 22:08:29.761829  1533 net.cpp:84] Creating Layer pool2/3x3_s2_pool2/3x3_s2_0_split
I0104 22:08:29.761967  1533 net.cpp:406] pool2/3x3_s2_pool2/3x3_s2_0_split <- pool2/3x3_s2
I0104 22:08:29.762004  1533 net.cpp:380] pool2/3x3_s2_pool2/3x3_s2_0_split -> pool2/3x3_s2_pool2/3x3_s2_0_split_0
I0104 22:08:29.762192  1533 net.cpp:380] pool2/3x3_s2_pool2/3x3_s2_0_split -> pool2/3x3_s2_pool2/3x3_s2_0_split_1
I0104 22:08:29.762346  1533 net.cpp:380] pool2/3x3_s2_pool2/3x3_s2_0_split -> pool2/3x3_s2_pool2/3x3_s2_0_split_2
I0104 22:08:29.762392  1533 net.cpp:380] pool2/3x3_s2_pool2/3x3_s2_0_split -> pool2/3x3_s2_pool2/3x3_s2_0_split_3
I0104 22:08:29.762650  1533 net.cpp:122] Setting up pool2/3x3_s2_pool2/3x3_s2_0_split
I0104 22:08:29.762714  1533 net.cpp:129] Top shape: 10 192 28 28 (1505280)
I0104 22:08:29.762732  1533 net.cpp:129] Top shape: 10 192 28 28 (1505280)
I0104 22:08:29.762748  1533 net.cpp:129] Top shape: 10 192 28 28 (1505280)
I0104 22:08:29.762763  1533 net.cpp:129] Top shape: 10 192 28 28 (1505280)
I0104 22:08:29.762815  1533 net.cpp:137] Memory required for data: 204718080
I0104 22:08:29.762830  1533 layer_factory.hpp:77] Creating layer inception_3a/1x1
I0104 22:08:29.762893  1533 net.cpp:84] Creating Layer inception_3a/1x1
I0104 22:08:29.762948  1533 net.cpp:406] inception_3a/1x1 <- pool2/3x3_s2_pool2/3x3_s2_0_split_0
I0104 22:08:29.763195  1533 net.cpp:380] inception_3a/1x1 -> inception_3a/1x1
I0104 22:08:29.764133  1533 net.cpp:122] Setting up inception_3a/1x1
I0104 22:08:29.764155  1533 net.cpp:129] Top shape: 10 64 28 28 (501760)
I0104 22:08:29.764173  1533 net.cpp:137] Memory required for data: 206725120
I0104 22:08:29.764194  1533 layer_factory.hpp:77] Creating layer inception_3a/relu_1x1
I0104 22:08:29.764251  1533 net.cpp:84] Creating Layer inception_3a/relu_1x1
I0104 22:08:29.764268  1533 net.cpp:406] inception_3a/relu_1x1 <- inception_3a/1x1
I0104 22:08:29.764320  1533 net.cpp:367] inception_3a/relu_1x1 -> inception_3a/1x1 (in-place)
I0104 22:08:29.764375  1533 net.cpp:122] Setting up inception_3a/relu_1x1
I0104 22:08:29.764425  1533 net.cpp:129] Top shape: 10 64 28 28 (501760)
I0104 22:08:29.764506  1533 net.cpp:137] Memory required for data: 208732160
I0104 22:08:29.764526  1533 layer_factory.hpp:77] Creating layer inception_3a/3x3_reduce
I0104 22:08:29.764685  1533 net.cpp:84] Creating Layer inception_3a/3x3_reduce
I0104 22:08:29.764708  1533 net.cpp:406] inception_3a/3x3_reduce <- pool2/3x3_s2_pool2/3x3_s2_0_split_1
I0104 22:08:29.764850  1533 net.cpp:380] inception_3a/3x3_reduce -> inception_3a/3x3_reduce
I0104 22:08:29.765980  1533 net.cpp:122] Setting up inception_3a/3x3_reduce
I0104 22:08:29.766003  1533 net.cpp:129] Top shape: 10 96 28 28 (752640)
I0104 22:08:29.766021  1533 net.cpp:137] Memory required for data: 211742720
I0104 22:08:29.766047  1533 layer_factory.hpp:77] Creating layer inception_3a/relu_3x3_reduce
I0104 22:08:29.766108  1533 net.cpp:84] Creating Layer inception_3a/relu_3x3_reduce
I0104 22:08:29.766160  1533 net.cpp:406] inception_3a/relu_3x3_reduce <- inception_3a/3x3_reduce
I0104 22:08:29.766214  1533 net.cpp:367] inception_3a/relu_3x3_reduce -> inception_3a/3x3_reduce (in-place)
I0104 22:08:29.766299  1533 net.cpp:122] Setting up inception_3a/relu_3x3_reduce
I0104 22:08:29.766389  1533 net.cpp:129] Top shape: 10 96 28 28 (752640)
I0104 22:08:29.766468  1533 net.cpp:137] Memory required for data: 214753280
I0104 22:08:29.766489  1533 layer_factory.hpp:77] Creating layer inception_3a/3x3
I0104 22:08:29.766520  1533 net.cpp:84] Creating Layer inception_3a/3x3
I0104 22:08:29.766739  1533 net.cpp:406] inception_3a/3x3 <- inception_3a/3x3_reduce
I0104 22:08:29.766763  1533 net.cpp:380] inception_3a/3x3 -> inception_3a/3x3
I0104 22:08:29.770045  1533 net.cpp:122] Setting up inception_3a/3x3
I0104 22:08:29.770066  1533 net.cpp:129] Top shape: 10 128 28 28 (1003520)
I0104 22:08:29.770082  1533 net.cpp:137] Memory required for data: 218767360
I0104 22:08:29.770102  1533 layer_factory.hpp:77] Creating layer inception_3a/relu_3x3
I0104 22:08:29.770119  1533 net.cpp:84] Creating Layer inception_3a/relu_3x3
I0104 22:08:29.770172  1533 net.cpp:406] inception_3a/relu_3x3 <- inception_3a/3x3
I0104 22:08:29.770191  1533 net.cpp:367] inception_3a/relu_3x3 -> inception_3a/3x3 (in-place)
I0104 22:08:29.770247  1533 net.cpp:122] Setting up inception_3a/relu_3x3
I0104 22:08:29.770294  1533 net.cpp:129] Top shape: 10 128 28 28 (1003520)
I0104 22:08:29.770354  1533 net.cpp:137] Memory required for data: 222781440
I0104 22:08:29.770484  1533 layer_factory.hpp:77] Creating layer inception_3a/5x5_reduce
I0104 22:08:29.770640  1533 net.cpp:84] Creating Layer inception_3a/5x5_reduce
I0104 22:08:29.770658  1533 net.cpp:406] inception_3a/5x5_reduce <- pool2/3x3_s2_pool2/3x3_s2_0_split_2
I0104 22:08:29.770678  1533 net.cpp:380] inception_3a/5x5_reduce -> inception_3a/5x5_reduce
I0104 22:08:29.771409  1533 net.cpp:122] Setting up inception_3a/5x5_reduce
I0104 22:08:29.771426  1533 net.cpp:129] Top shape: 10 16 28 28 (125440)
I0104 22:08:29.771442  1533 net.cpp:137] Memory required for data: 223283200
I0104 22:08:29.771462  1533 layer_factory.hpp:77] Creating layer inception_3a/relu_5x5_reduce
I0104 22:08:29.771481  1533 net.cpp:84] Creating Layer inception_3a/relu_5x5_reduce
I0104 22:08:29.771534  1533 net.cpp:406] inception_3a/relu_5x5_reduce <- inception_3a/5x5_reduce
I0104 22:08:29.771638  1533 net.cpp:367] inception_3a/relu_5x5_reduce -> inception_3a/5x5_reduce (in-place)
I0104 22:08:29.771716  1533 net.cpp:122] Setting up inception_3a/relu_5x5_reduce
I0104 22:08:29.771790  1533 net.cpp:129] Top shape: 10 16 28 28 (125440)
I0104 22:08:29.771920  1533 net.cpp:137] Memory required for data: 223784960
I0104 22:08:29.771934  1533 layer_factory.hpp:77] Creating layer inception_3a/5x5
I0104 22:08:29.772157  1533 net.cpp:84] Creating Layer inception_3a/5x5
I0104 22:08:29.772192  1533 net.cpp:406] inception_3a/5x5 <- inception_3a/5x5_reduce
I0104 22:08:29.772320  1533 net.cpp:380] inception_3a/5x5 -> inception_3a/5x5
I0104 22:08:29.773241  1533 net.cpp:122] Setting up inception_3a/5x5
I0104 22:08:29.773262  1533 net.cpp:129] Top shape: 10 32 28 28 (250880)
I0104 22:08:29.773278  1533 net.cpp:137] Memory required for data: 224788480
I0104 22:08:29.773298  1533 layer_factory.hpp:77] Creating layer inception_3a/relu_5x5
I0104 22:08:29.773317  1533 net.cpp:84] Creating Layer inception_3a/relu_5x5
I0104 22:08:29.773368  1533 net.cpp:406] inception_3a/relu_5x5 <- inception_3a/5x5
I0104 22:08:29.773421  1533 net.cpp:367] inception_3a/relu_5x5 -> inception_3a/5x5 (in-place)
I0104 22:08:29.773442  1533 net.cpp:122] Setting up inception_3a/relu_5x5
I0104 22:08:29.773488  1533 net.cpp:129] Top shape: 10 32 28 28 (250880)
I0104 22:08:29.773545  1533 net.cpp:137] Memory required for data: 225792000
I0104 22:08:29.773669  1533 layer_factory.hpp:77] Creating layer inception_3a/pool
I0104 22:08:29.773823  1533 net.cpp:84] Creating Layer inception_3a/pool
I0104 22:08:29.773840  1533 net.cpp:406] inception_3a/pool <- pool2/3x3_s2_pool2/3x3_s2_0_split_3
I0104 22:08:29.773876  1533 net.cpp:380] inception_3a/pool -> inception_3a/pool
I0104 22:08:29.774135  1533 net.cpp:122] Setting up inception_3a/pool
I0104 22:08:29.774152  1533 net.cpp:129] Top shape: 10 192 28 28 (1505280)
I0104 22:08:29.774255  1533 net.cpp:137] Memory required for data: 231813120
I0104 22:08:29.774303  1533 layer_factory.hpp:77] Creating layer inception_3a/pool_proj
I0104 22:08:29.774410  1533 net.cpp:84] Creating Layer inception_3a/pool_proj
I0104 22:08:29.774457  1533 net.cpp:406] inception_3a/pool_proj <- inception_3a/pool
I0104 22:08:29.774478  1533 net.cpp:380] inception_3a/pool_proj -> inception_3a/pool_proj
I0104 22:08:29.775264  1533 net.cpp:122] Setting up inception_3a/pool_proj
I0104 22:08:29.775283  1533 net.cpp:129] Top shape: 10 32 28 28 (250880)
I0104 22:08:29.775300  1533 net.cpp:137] Memory required for data: 232816640
I0104 22:08:29.775326  1533 layer_factory.hpp:77] Creating layer inception_3a/relu_pool_proj
I0104 22:08:29.775382  1533 net.cpp:84] Creating Layer inception_3a/relu_pool_proj
I0104 22:08:29.775432  1533 net.cpp:406] inception_3a/relu_pool_proj <- inception_3a/pool_proj
I0104 22:08:29.775488  1533 net.cpp:367] inception_3a/relu_pool_proj -> inception_3a/pool_proj (in-place)
I0104 22:08:29.775542  1533 net.cpp:122] Setting up inception_3a/relu_pool_proj
I0104 22:08:29.775702  1533 net.cpp:129] Top shape: 10 32 28 28 (250880)
I0104 22:08:29.775781  1533 net.cpp:137] Memory required for data: 233820160
I0104 22:08:29.775800  1533 layer_factory.hpp:77] Creating layer inception_3a/output
I0104 22:08:29.775820  1533 net.cpp:84] Creating Layer inception_3a/output
I0104 22:08:29.775928  1533 net.cpp:406] inception_3a/output <- inception_3a/1x1
I0104 22:08:29.776036  1533 net.cpp:406] inception_3a/output <- inception_3a/3x3
I0104 22:08:29.776053  1533 net.cpp:406] inception_3a/output <- inception_3a/5x5
I0104 22:08:29.776075  1533 net.cpp:406] inception_3a/output <- inception_3a/pool_proj
I0104 22:08:29.776094  1533 net.cpp:380] inception_3a/output -> inception_3a/output
I0104 22:08:29.776376  1533 net.cpp:122] Setting up inception_3a/output
I0104 22:08:29.776392  1533 net.cpp:129] Top shape: 10 256 28 28 (2007040)
I0104 22:08:29.776408  1533 net.cpp:137] Memory required for data: 241848320
I0104 22:08:29.776422  1533 layer_factory.hpp:77] Creating layer inception_3a/output_inception_3a/output_0_split
I0104 22:08:29.776561  1533 net.cpp:84] Creating Layer inception_3a/output_inception_3a/output_0_split
I0104 22:08:29.776576  1533 net.cpp:406] inception_3a/output_inception_3a/output_0_split <- inception_3a/output
I0104 22:08:29.776594  1533 net.cpp:380] inception_3a/output_inception_3a/output_0_split -> inception_3a/output_inception_3a/output_0_split_0
I0104 22:08:29.776796  1533 net.cpp:380] inception_3a/output_inception_3a/output_0_split -> inception_3a/output_inception_3a/output_0_split_1
I0104 22:08:29.776820  1533 net.cpp:380] inception_3a/output_inception_3a/output_0_split -> inception_3a/output_inception_3a/output_0_split_2
I0104 22:08:29.776842  1533 net.cpp:380] inception_3a/output_inception_3a/output_0_split -> inception_3a/output_inception_3a/output_0_split_3
I0104 22:08:29.777117  1533 net.cpp:122] Setting up inception_3a/output_inception_3a/output_0_split
I0104 22:08:29.777139  1533 net.cpp:129] Top shape: 10 256 28 28 (2007040)
I0104 22:08:29.777155  1533 net.cpp:129] Top shape: 10 256 28 28 (2007040)
I0104 22:08:29.777171  1533 net.cpp:129] Top shape: 10 256 28 28 (2007040)
I0104 22:08:29.777185  1533 net.cpp:129] Top shape: 10 256 28 28 (2007040)
I0104 22:08:29.777292  1533 net.cpp:137] Memory required for data: 273960960
I0104 22:08:29.777305  1533 layer_factory.hpp:77] Creating layer inception_3b/1x1
I0104 22:08:29.777330  1533 net.cpp:84] Creating Layer inception_3b/1x1
I0104 22:08:29.777402  1533 net.cpp:406] inception_3b/1x1 <- inception_3a/output_inception_3a/output_0_split_0
I0104 22:08:29.777531  1533 net.cpp:380] inception_3b/1x1 -> inception_3b/1x1
I0104 22:08:29.778976  1533 net.cpp:122] Setting up inception_3b/1x1
I0104 22:08:29.778995  1533 net.cpp:129] Top shape: 10 128 28 28 (1003520)
I0104 22:08:29.779012  1533 net.cpp:137] Memory required for data: 277975040
I0104 22:08:29.779032  1533 layer_factory.hpp:77] Creating layer inception_3b/relu_1x1
I0104 22:08:29.779050  1533 net.cpp:84] Creating Layer inception_3b/relu_1x1
I0104 22:08:29.779103  1533 net.cpp:406] inception_3b/relu_1x1 <- inception_3b/1x1
I0104 22:08:29.779120  1533 net.cpp:367] inception_3b/relu_1x1 -> inception_3b/1x1 (in-place)
I0104 22:08:29.779176  1533 net.cpp:122] Setting up inception_3b/relu_1x1
I0104 22:08:29.779225  1533 net.cpp:129] Top shape: 10 128 28 28 (1003520)
I0104 22:08:29.779243  1533 net.cpp:137] Memory required for data: 281989120
I0104 22:08:29.779297  1533 layer_factory.hpp:77] Creating layer inception_3b/3x3_reduce
I0104 22:08:29.779512  1533 net.cpp:84] Creating Layer inception_3b/3x3_reduce
I0104 22:08:29.779536  1533 net.cpp:406] inception_3b/3x3_reduce <- inception_3a/output_inception_3a/output_0_split_1
I0104 22:08:29.779556  1533 net.cpp:380] inception_3b/3x3_reduce -> inception_3b/3x3_reduce
I0104 22:08:29.781006  1533 net.cpp:122] Setting up inception_3b/3x3_reduce
I0104 22:08:29.781024  1533 net.cpp:129] Top shape: 10 128 28 28 (1003520)
I0104 22:08:29.781040  1533 net.cpp:137] Memory required for data: 286003200
I0104 22:08:29.781061  1533 layer_factory.hpp:77] Creating layer inception_3b/relu_3x3_reduce
I0104 22:08:29.781080  1533 net.cpp:84] Creating Layer inception_3b/relu_3x3_reduce
I0104 22:08:29.781121  1533 net.cpp:406] inception_3b/relu_3x3_reduce <- inception_3b/3x3_reduce
I0104 22:08:29.781142  1533 net.cpp:367] inception_3b/relu_3x3_reduce -> inception_3b/3x3_reduce (in-place)
I0104 22:08:29.781162  1533 net.cpp:122] Setting up inception_3b/relu_3x3_reduce
I0104 22:08:29.781213  1533 net.cpp:129] Top shape: 10 128 28 28 (1003520)
I0104 22:08:29.781229  1533 net.cpp:137] Memory required for data: 290017280
I0104 22:08:29.781277  1533 layer_factory.hpp:77] Creating layer inception_3b/3x3
I0104 22:08:29.781445  1533 net.cpp:84] Creating Layer inception_3b/3x3
I0104 22:08:29.781462  1533 net.cpp:406] inception_3b/3x3 <- inception_3b/3x3_reduce
I0104 22:08:29.781483  1533 net.cpp:380] inception_3b/3x3 -> inception_3b/3x3
I0104 22:08:29.787451  1533 net.cpp:122] Setting up inception_3b/3x3
I0104 22:08:29.787470  1533 net.cpp:129] Top shape: 10 192 28 28 (1505280)
I0104 22:08:29.787487  1533 net.cpp:137] Memory required for data: 296038400
I0104 22:08:29.787569  1533 layer_factory.hpp:77] Creating layer inception_3b/relu_3x3
I0104 22:08:29.787667  1533 net.cpp:84] Creating Layer inception_3b/relu_3x3
I0104 22:08:29.787683  1533 net.cpp:406] inception_3b/relu_3x3 <- inception_3b/3x3
I0104 22:08:29.787703  1533 net.cpp:367] inception_3b/relu_3x3 -> inception_3b/3x3 (in-place)
I0104 22:08:29.787722  1533 net.cpp:122] Setting up inception_3b/relu_3x3
I0104 22:08:29.787735  1533 net.cpp:129] Top shape: 10 192 28 28 (1505280)
I0104 22:08:29.787788  1533 net.cpp:137] Memory required for data: 302059520
I0104 22:08:29.787801  1533 layer_factory.hpp:77] Creating layer inception_3b/5x5_reduce
I0104 22:08:29.787974  1533 net.cpp:84] Creating Layer inception_3b/5x5_reduce
I0104 22:08:29.788086  1533 net.cpp:406] inception_3b/5x5_reduce <- inception_3a/output_inception_3a/output_0_split_2
I0104 22:08:29.788204  1533 net.cpp:380] inception_3b/5x5_reduce -> inception_3b/5x5_reduce
I0104 22:08:29.788991  1533 net.cpp:122] Setting up inception_3b/5x5_reduce
I0104 22:08:29.789011  1533 net.cpp:129] Top shape: 10 32 28 28 (250880)
I0104 22:08:29.789027  1533 net.cpp:137] Memory required for data: 303063040
I0104 22:08:29.789047  1533 layer_factory.hpp:77] Creating layer inception_3b/relu_5x5_reduce
I0104 22:08:29.789101  1533 net.cpp:84] Creating Layer inception_3b/relu_5x5_reduce
I0104 22:08:29.789119  1533 net.cpp:406] inception_3b/relu_5x5_reduce <- inception_3b/5x5_reduce
I0104 22:08:29.789175  1533 net.cpp:367] inception_3b/relu_5x5_reduce -> inception_3b/5x5_reduce (in-place)
I0104 22:08:29.789196  1533 net.cpp:122] Setting up inception_3b/relu_5x5_reduce
I0104 22:08:29.789243  1533 net.cpp:129] Top shape: 10 32 28 28 (250880)
I0104 22:08:29.789299  1533 net.cpp:137] Memory required for data: 304066560
I0104 22:08:29.789474  1533 layer_factory.hpp:77] Creating layer inception_3b/5x5
I0104 22:08:29.789501  1533 net.cpp:84] Creating Layer inception_3b/5x5
I0104 22:08:29.789516  1533 net.cpp:406] inception_3b/5x5 <- inception_3b/5x5_reduce
I0104 22:08:29.789650  1533 net.cpp:380] inception_3b/5x5 -> inception_3b/5x5
I0104 22:08:29.792140  1533 net.cpp:122] Setting up inception_3b/5x5
I0104 22:08:29.792158  1533 net.cpp:129] Top shape: 10 96 28 28 (752640)
I0104 22:08:29.792176  1533 net.cpp:137] Memory required for data: 307077120
I0104 22:08:29.792193  1533 layer_factory.hpp:77] Creating layer inception_3b/relu_5x5
I0104 22:08:29.792251  1533 net.cpp:84] Creating Layer inception_3b/relu_5x5
I0104 22:08:29.792268  1533 net.cpp:406] inception_3b/relu_5x5 <- inception_3b/5x5
I0104 22:08:29.792320  1533 net.cpp:367] inception_3b/relu_5x5 -> inception_3b/5x5 (in-place)
I0104 22:08:29.792376  1533 net.cpp:122] Setting up inception_3b/relu_5x5
I0104 22:08:29.792390  1533 net.cpp:129] Top shape: 10 96 28 28 (752640)
I0104 22:08:29.792440  1533 net.cpp:137] Memory required for data: 310087680
I0104 22:08:29.792590  1533 layer_factory.hpp:77] Creating layer inception_3b/pool
I0104 22:08:29.792613  1533 net.cpp:84] Creating Layer inception_3b/pool
I0104 22:08:29.792763  1533 net.cpp:406] inception_3b/pool <- inception_3a/output_inception_3a/output_0_split_3
I0104 22:08:29.792788  1533 net.cpp:380] inception_3b/pool -> inception_3b/pool
I0104 22:08:29.792984  1533 net.cpp:122] Setting up inception_3b/pool
I0104 22:08:29.793006  1533 net.cpp:129] Top shape: 10 256 28 28 (2007040)
I0104 22:08:29.793026  1533 net.cpp:137] Memory required for data: 318115840
I0104 22:08:29.793040  1533 layer_factory.hpp:77] Creating layer inception_3b/pool_proj
I0104 22:08:29.793159  1533 net.cpp:84] Creating Layer inception_3b/pool_proj
I0104 22:08:29.793174  1533 net.cpp:406] inception_3b/pool_proj <- inception_3b/pool
I0104 22:08:29.793195  1533 net.cpp:380] inception_3b/pool_proj -> inception_3b/pool_proj
I0104 22:08:29.794277  1533 net.cpp:122] Setting up inception_3b/pool_proj
I0104 22:08:29.794296  1533 net.cpp:129] Top shape: 10 64 28 28 (501760)
I0104 22:08:29.794312  1533 net.cpp:137] Memory required for data: 320122880
I0104 22:08:29.794333  1533 layer_factory.hpp:77] Creating layer inception_3b/relu_pool_proj
I0104 22:08:29.794447  1533 net.cpp:84] Creating Layer inception_3b/relu_pool_proj
I0104 22:08:29.794464  1533 net.cpp:406] inception_3b/relu_pool_proj <- inception_3b/pool_proj
I0104 22:08:29.794574  1533 net.cpp:367] inception_3b/relu_pool_proj -> inception_3b/pool_proj (in-place)
I0104 22:08:29.794724  1533 net.cpp:122] Setting up inception_3b/relu_pool_proj
I0104 22:08:29.794821  1533 net.cpp:129] Top shape: 10 64 28 28 (501760)
I0104 22:08:29.794838  1533 net.cpp:137] Memory required for data: 322129920
I0104 22:08:29.794958  1533 layer_factory.hpp:77] Creating layer inception_3b/output
I0104 22:08:29.794996  1533 net.cpp:84] Creating Layer inception_3b/output
I0104 22:08:29.795123  1533 net.cpp:406] inception_3b/output <- inception_3b/1x1
I0104 22:08:29.795141  1533 net.cpp:406] inception_3b/output <- inception_3b/3x3
I0104 22:08:29.795179  1533 net.cpp:406] inception_3b/output <- inception_3b/5x5
I0104 22:08:29.795286  1533 net.cpp:406] inception_3b/output <- inception_3b/pool_proj
I0104 22:08:29.795308  1533 net.cpp:380] inception_3b/output -> inception_3b/output
I0104 22:08:29.795501  1533 net.cpp:122] Setting up inception_3b/output
I0104 22:08:29.795517  1533 net.cpp:129] Top shape: 10 480 28 28 (3763200)
I0104 22:08:29.795534  1533 net.cpp:137] Memory required for data: 337182720
I0104 22:08:29.795547  1533 layer_factory.hpp:77] Creating layer pool3/3x3_s2
I0104 22:08:29.795677  1533 net.cpp:84] Creating Layer pool3/3x3_s2
I0104 22:08:29.795692  1533 net.cpp:406] pool3/3x3_s2 <- inception_3b/output
I0104 22:08:29.795712  1533 net.cpp:380] pool3/3x3_s2 -> pool3/3x3_s2
I0104 22:08:29.795989  1533 net.cpp:122] Setting up pool3/3x3_s2
I0104 22:08:29.796007  1533 net.cpp:129] Top shape: 10 480 14 14 (940800)
I0104 22:08:29.796022  1533 net.cpp:137] Memory required for data: 340945920
I0104 22:08:29.796161  1533 layer_factory.hpp:77] Creating layer pool3/3x3_s2_pool3/3x3_s2_0_split
I0104 22:08:29.796186  1533 net.cpp:84] Creating Layer pool3/3x3_s2_pool3/3x3_s2_0_split
I0104 22:08:29.796200  1533 net.cpp:406] pool3/3x3_s2_pool3/3x3_s2_0_split <- pool3/3x3_s2
I0104 22:08:29.796330  1533 net.cpp:380] pool3/3x3_s2_pool3/3x3_s2_0_split -> pool3/3x3_s2_pool3/3x3_s2_0_split_0
I0104 22:08:29.796492  1533 net.cpp:380] pool3/3x3_s2_pool3/3x3_s2_0_split -> pool3/3x3_s2_pool3/3x3_s2_0_split_1
I0104 22:08:29.796586  1533 net.cpp:380] pool3/3x3_s2_pool3/3x3_s2_0_split -> pool3/3x3_s2_pool3/3x3_s2_0_split_2
I0104 22:08:29.796607  1533 net.cpp:380] pool3/3x3_s2_pool3/3x3_s2_0_split -> pool3/3x3_s2_pool3/3x3_s2_0_split_3
I0104 22:08:29.796831  1533 net.cpp:122] Setting up pool3/3x3_s2_pool3/3x3_s2_0_split
I0104 22:08:29.796847  1533 net.cpp:129] Top shape: 10 480 14 14 (940800)
I0104 22:08:29.796972  1533 net.cpp:129] Top shape: 10 480 14 14 (940800)
I0104 22:08:29.796990  1533 net.cpp:129] Top shape: 10 480 14 14 (940800)
I0104 22:08:29.797005  1533 net.cpp:129] Top shape: 10 480 14 14 (940800)
I0104 22:08:29.797020  1533 net.cpp:137] Memory required for data: 355998720
I0104 22:08:29.797034  1533 layer_factory.hpp:77] Creating layer inception_4a/1x1
I0104 22:08:29.797101  1533 net.cpp:84] Creating Layer inception_4a/1x1
I0104 22:08:29.797222  1533 net.cpp:406] inception_4a/1x1 <- pool3/3x3_s2_pool3/3x3_s2_0_split_0
I0104 22:08:29.797245  1533 net.cpp:380] inception_4a/1x1 -> inception_4a/1x1
I0104 22:08:29.800262  1533 net.cpp:122] Setting up inception_4a/1x1
I0104 22:08:29.800287  1533 net.cpp:129] Top shape: 10 192 14 14 (376320)
I0104 22:08:29.800304  1533 net.cpp:137] Memory required for data: 357504000
I0104 22:08:29.800323  1533 layer_factory.hpp:77] Creating layer inception_4a/relu_1x1
I0104 22:08:29.800384  1533 net.cpp:84] Creating Layer inception_4a/relu_1x1
I0104 22:08:29.800401  1533 net.cpp:406] inception_4a/relu_1x1 <- inception_4a/1x1
I0104 22:08:29.800453  1533 net.cpp:367] inception_4a/relu_1x1 -> inception_4a/1x1 (in-place)
I0104 22:08:29.800474  1533 net.cpp:122] Setting up inception_4a/relu_1x1
I0104 22:08:29.800523  1533 net.cpp:129] Top shape: 10 192 14 14 (376320)
I0104 22:08:29.800742  1533 net.cpp:137] Memory required for data: 359009280
I0104 22:08:29.800758  1533 layer_factory.hpp:77] Creating layer inception_4a/3x3_reduce
I0104 22:08:29.800909  1533 net.cpp:84] Creating Layer inception_4a/3x3_reduce
I0104 22:08:29.800925  1533 net.cpp:406] inception_4a/3x3_reduce <- pool3/3x3_s2_pool3/3x3_s2_0_split_1
I0104 22:08:29.800954  1533 net.cpp:380] inception_4a/3x3_reduce -> inception_4a/3x3_reduce
I0104 22:08:29.802767  1533 net.cpp:122] Setting up inception_4a/3x3_reduce
I0104 22:08:29.802788  1533 net.cpp:129] Top shape: 10 96 14 14 (188160)
I0104 22:08:29.802804  1533 net.cpp:137] Memory required for data: 359761920
I0104 22:08:29.802837  1533 layer_factory.hpp:77] Creating layer inception_4a/relu_3x3_reduce
I0104 22:08:29.802897  1533 net.cpp:84] Creating Layer inception_4a/relu_3x3_reduce
I0104 22:08:29.802947  1533 net.cpp:406] inception_4a/relu_3x3_reduce <- inception_4a/3x3_reduce
I0104 22:08:29.803001  1533 net.cpp:367] inception_4a/relu_3x3_reduce -> inception_4a/3x3_reduce (in-place)
I0104 22:08:29.803088  1533 net.cpp:122] Setting up inception_4a/relu_3x3_reduce
I0104 22:08:29.803102  1533 net.cpp:129] Top shape: 10 96 14 14 (188160)
I0104 22:08:29.803308  1533 net.cpp:137] Memory required for data: 360514560
I0104 22:08:29.803321  1533 layer_factory.hpp:77] Creating layer inception_4a/3x3
I0104 22:08:29.803449  1533 net.cpp:84] Creating Layer inception_4a/3x3
I0104 22:08:29.803467  1533 net.cpp:406] inception_4a/3x3 <- inception_4a/3x3_reduce
I0104 22:08:29.803488  1533 net.cpp:380] inception_4a/3x3 -> inception_4a/3x3
I0104 22:08:29.808696  1533 net.cpp:122] Setting up inception_4a/3x3
I0104 22:08:29.808719  1533 net.cpp:129] Top shape: 10 208 14 14 (407680)
I0104 22:08:29.808745  1533 net.cpp:137] Memory required for data: 362145280
I0104 22:08:29.808765  1533 layer_factory.hpp:77] Creating layer inception_4a/relu_3x3
I0104 22:08:29.808785  1533 net.cpp:84] Creating Layer inception_4a/relu_3x3
I0104 22:08:29.808840  1533 net.cpp:406] inception_4a/relu_3x3 <- inception_4a/3x3
I0104 22:08:29.808893  1533 net.cpp:367] inception_4a/relu_3x3 -> inception_4a/3x3 (in-place)
I0104 22:08:29.808915  1533 net.cpp:122] Setting up inception_4a/relu_3x3
I0104 22:08:29.808964  1533 net.cpp:129] Top shape: 10 208 14 14 (407680)
I0104 22:08:29.809039  1533 net.cpp:137] Memory required for data: 363776000
I0104 22:08:29.809156  1533 layer_factory.hpp:77] Creating layer inception_4a/5x5_reduce
I0104 22:08:29.809185  1533 net.cpp:84] Creating Layer inception_4a/5x5_reduce
I0104 22:08:29.809200  1533 net.cpp:406] inception_4a/5x5_reduce <- pool3/3x3_s2_pool3/3x3_s2_0_split_2
I0104 22:08:29.809346  1533 net.cpp:380] inception_4a/5x5_reduce -> inception_4a/5x5_reduce
I0104 22:08:29.810219  1533 net.cpp:122] Setting up inception_4a/5x5_reduce
I0104 22:08:29.810237  1533 net.cpp:129] Top shape: 10 16 14 14 (31360)
I0104 22:08:29.810253  1533 net.cpp:137] Memory required for data: 363901440
I0104 22:08:29.810272  1533 layer_factory.hpp:77] Creating layer inception_4a/relu_5x5_reduce
I0104 22:08:29.810328  1533 net.cpp:84] Creating Layer inception_4a/relu_5x5_reduce
I0104 22:08:29.810345  1533 net.cpp:406] inception_4a/relu_5x5_reduce <- inception_4a/5x5_reduce
I0104 22:08:29.810401  1533 net.cpp:367] inception_4a/relu_5x5_reduce -> inception_4a/5x5_reduce (in-place)
I0104 22:08:29.810457  1533 net.cpp:122] Setting up inception_4a/relu_5x5_reduce
I0104 22:08:29.810472  1533 net.cpp:129] Top shape: 10 16 14 14 (31360)
I0104 22:08:29.810585  1533 net.cpp:137] Memory required for data: 364026880
I0104 22:08:29.810696  1533 layer_factory.hpp:77] Creating layer inception_4a/5x5
I0104 22:08:29.810837  1533 net.cpp:84] Creating Layer inception_4a/5x5
I0104 22:08:29.810853  1533 net.cpp:406] inception_4a/5x5 <- inception_4a/5x5_reduce
I0104 22:08:29.810890  1533 net.cpp:380] inception_4a/5x5 -> inception_4a/5x5
I0104 22:08:29.812026  1533 net.cpp:122] Setting up inception_4a/5x5
I0104 22:08:29.812045  1533 net.cpp:129] Top shape: 10 48 14 14 (94080)
I0104 22:08:29.812062  1533 net.cpp:137] Memory required for data: 364403200
I0104 22:08:29.812186  1533 layer_factory.hpp:77] Creating layer inception_4a/relu_5x5
I0104 22:08:29.812286  1533 net.cpp:84] Creating Layer inception_4a/relu_5x5
I0104 22:08:29.812407  1533 net.cpp:406] inception_4a/relu_5x5 <- inception_4a/5x5
I0104 22:08:29.812458  1533 net.cpp:367] inception_4a/relu_5x5 -> inception_4a/5x5 (in-place)
I0104 22:08:29.812479  1533 net.cpp:122] Setting up inception_4a/relu_5x5
I0104 22:08:29.812646  1533 net.cpp:129] Top shape: 10 48 14 14 (94080)
I0104 22:08:29.812666  1533 net.cpp:137] Memory required for data: 364779520
I0104 22:08:29.812680  1533 layer_factory.hpp:77] Creating layer inception_4a/pool
I0104 22:08:29.812749  1533 net.cpp:84] Creating Layer inception_4a/pool
I0104 22:08:29.812770  1533 net.cpp:406] inception_4a/pool <- pool3/3x3_s2_pool3/3x3_s2_0_split_3
I0104 22:08:29.812885  1533 net.cpp:380] inception_4a/pool -> inception_4a/pool
I0104 22:08:29.813187  1533 net.cpp:122] Setting up inception_4a/pool
I0104 22:08:29.813204  1533 net.cpp:129] Top shape: 10 480 14 14 (940800)
I0104 22:08:29.813223  1533 net.cpp:137] Memory required for data: 368542720
I0104 22:08:29.813237  1533 layer_factory.hpp:77] Creating layer inception_4a/pool_proj
I0104 22:08:29.813298  1533 net.cpp:84] Creating Layer inception_4a/pool_proj
I0104 22:08:29.813314  1533 net.cpp:406] inception_4a/pool_proj <- inception_4a/pool
I0104 22:08:29.813369  1533 net.cpp:380] inception_4a/pool_proj -> inception_4a/pool_proj
I0104 22:08:29.814792  1533 net.cpp:122] Setting up inception_4a/pool_proj
I0104 22:08:29.814812  1533 net.cpp:129] Top shape: 10 64 14 14 (125440)
I0104 22:08:29.814828  1533 net.cpp:137] Memory required for data: 369044480
I0104 22:08:29.814849  1533 layer_factory.hpp:77] Creating layer inception_4a/relu_pool_proj
I0104 22:08:29.814868  1533 net.cpp:84] Creating Layer inception_4a/relu_pool_proj
I0104 22:08:29.814921  1533 net.cpp:406] inception_4a/relu_pool_proj <- inception_4a/pool_proj
I0104 22:08:29.814975  1533 net.cpp:367] inception_4a/relu_pool_proj -> inception_4a/pool_proj (in-place)
I0104 22:08:29.814996  1533 net.cpp:122] Setting up inception_4a/relu_pool_proj
I0104 22:08:29.815043  1533 net.cpp:129] Top shape: 10 64 14 14 (125440)
I0104 22:08:29.815120  1533 net.cpp:137] Memory required for data: 369546240
I0104 22:08:29.815248  1533 layer_factory.hpp:77] Creating layer inception_4a/output
I0104 22:08:29.815376  1533 net.cpp:84] Creating Layer inception_4a/output
I0104 22:08:29.815392  1533 net.cpp:406] inception_4a/output <- inception_4a/1x1
I0104 22:08:29.815407  1533 net.cpp:406] inception_4a/output <- inception_4a/3x3
I0104 22:08:29.815423  1533 net.cpp:406] inception_4a/output <- inception_4a/5x5
I0104 22:08:29.815476  1533 net.cpp:406] inception_4a/output <- inception_4a/pool_proj
I0104 22:08:29.815496  1533 net.cpp:380] inception_4a/output -> inception_4a/output
I0104 22:08:29.815716  1533 net.cpp:122] Setting up inception_4a/output
I0104 22:08:29.815732  1533 net.cpp:129] Top shape: 10 512 14 14 (1003520)
I0104 22:08:29.815748  1533 net.cpp:137] Memory required for data: 373560320
I0104 22:08:29.815853  1533 layer_factory.hpp:77] Creating layer inception_4a/output_inception_4a/output_0_split
I0104 22:08:29.815873  1533 net.cpp:84] Creating Layer inception_4a/output_inception_4a/output_0_split
I0104 22:08:29.815887  1533 net.cpp:406] inception_4a/output_inception_4a/output_0_split <- inception_4a/output
I0104 22:08:29.816059  1533 net.cpp:380] inception_4a/output_inception_4a/output_0_split -> inception_4a/output_inception_4a/output_0_split_0
I0104 22:08:29.816118  1533 net.cpp:380] inception_4a/output_inception_4a/output_0_split -> inception_4a/output_inception_4a/output_0_split_1
I0104 22:08:29.816148  1533 net.cpp:380] inception_4a/output_inception_4a/output_0_split -> inception_4a/output_inception_4a/output_0_split_2
I0104 22:08:29.816273  1533 net.cpp:380] inception_4a/output_inception_4a/output_0_split -> inception_4a/output_inception_4a/output_0_split_3
I0104 22:08:29.816504  1533 net.cpp:122] Setting up inception_4a/output_inception_4a/output_0_split
I0104 22:08:29.816622  1533 net.cpp:129] Top shape: 10 512 14 14 (1003520)
I0104 22:08:29.816640  1533 net.cpp:129] Top shape: 10 512 14 14 (1003520)
I0104 22:08:29.816656  1533 net.cpp:129] Top shape: 10 512 14 14 (1003520)
I0104 22:08:29.816671  1533 net.cpp:129] Top shape: 10 512 14 14 (1003520)
I0104 22:08:29.816723  1533 net.cpp:137] Memory required for data: 389616640
I0104 22:08:29.816738  1533 layer_factory.hpp:77] Creating layer inception_4b/1x1
I0104 22:08:29.816788  1533 net.cpp:84] Creating Layer inception_4b/1x1
I0104 22:08:29.816803  1533 net.cpp:406] inception_4b/1x1 <- inception_4a/output_inception_4a/output_0_split_0
I0104 22:08:29.816867  1533 net.cpp:380] inception_4b/1x1 -> inception_4b/1x1
I0104 22:08:29.819556  1533 net.cpp:122] Setting up inception_4b/1x1
I0104 22:08:29.819574  1533 net.cpp:129] Top shape: 10 160 14 14 (313600)
I0104 22:08:29.819591  1533 net.cpp:137] Memory required for data: 390871040
I0104 22:08:29.819610  1533 layer_factory.hpp:77] Creating layer inception_4b/relu_1x1
I0104 22:08:29.819667  1533 net.cpp:84] Creating Layer inception_4b/relu_1x1
I0104 22:08:29.819684  1533 net.cpp:406] inception_4b/relu_1x1 <- inception_4b/1x1
I0104 22:08:29.819737  1533 net.cpp:367] inception_4b/relu_1x1 -> inception_4b/1x1 (in-place)
I0104 22:08:29.819793  1533 net.cpp:122] Setting up inception_4b/relu_1x1
I0104 22:08:29.819842  1533 net.cpp:129] Top shape: 10 160 14 14 (313600)
I0104 22:08:29.819946  1533 net.cpp:137] Memory required for data: 392125440
I0104 22:08:29.820020  1533 layer_factory.hpp:77] Creating layer inception_4b/3x3_reduce
I0104 22:08:29.820052  1533 net.cpp:84] Creating Layer inception_4b/3x3_reduce
I0104 22:08:29.820067  1533 net.cpp:406] inception_4b/3x3_reduce <- inception_4a/output_inception_4a/output_0_split_1
I0104 22:08:29.820210  1533 net.cpp:380] inception_4b/3x3_reduce -> inception_4b/3x3_reduce
I0104 22:08:29.822311  1533 net.cpp:122] Setting up inception_4b/3x3_reduce
I0104 22:08:29.822335  1533 net.cpp:129] Top shape: 10 112 14 14 (219520)
I0104 22:08:29.822351  1533 net.cpp:137] Memory required for data: 393003520
I0104 22:08:29.822371  1533 layer_factory.hpp:77] Creating layer inception_4b/relu_3x3_reduce
I0104 22:08:29.822388  1533 net.cpp:84] Creating Layer inception_4b/relu_3x3_reduce
I0104 22:08:29.822441  1533 net.cpp:406] inception_4b/relu_3x3_reduce <- inception_4b/3x3_reduce
I0104 22:08:29.822460  1533 net.cpp:367] inception_4b/relu_3x3_reduce -> inception_4b/3x3_reduce (in-place)
I0104 22:08:29.822516  1533 net.cpp:122] Setting up inception_4b/relu_3x3_reduce
I0104 22:08:29.822566  1533 net.cpp:129] Top shape: 10 112 14 14 (219520)
I0104 22:08:29.822616  1533 net.cpp:137] Memory required for data: 393881600
I0104 22:08:29.822813  1533 layer_factory.hpp:77] Creating layer inception_4b/3x3
I0104 22:08:29.822923  1533 net.cpp:84] Creating Layer inception_4b/3x3
I0104 22:08:29.822973  1533 net.cpp:406] inception_4b/3x3 <- inception_4b/3x3_reduce
I0104 22:08:29.822998  1533 net.cpp:380] inception_4b/3x3 -> inception_4b/3x3
I0104 22:08:29.829231  1533 net.cpp:122] Setting up inception_4b/3x3
I0104 22:08:29.829255  1533 net.cpp:129] Top shape: 10 224 14 14 (439040)
I0104 22:08:29.829273  1533 net.cpp:137] Memory required for data: 395637760
I0104 22:08:29.829294  1533 layer_factory.hpp:77] Creating layer inception_4b/relu_3x3
I0104 22:08:29.829354  1533 net.cpp:84] Creating Layer inception_4b/relu_3x3
I0104 22:08:29.829371  1533 net.cpp:406] inception_4b/relu_3x3 <- inception_4b/3x3
I0104 22:08:29.829416  1533 net.cpp:367] inception_4b/relu_3x3 -> inception_4b/3x3 (in-place)
I0104 22:08:29.829438  1533 net.cpp:122] Setting up inception_4b/relu_3x3
I0104 22:08:29.829488  1533 net.cpp:129] Top shape: 10 224 14 14 (439040)
I0104 22:08:29.829506  1533 net.cpp:137] Memory required for data: 397393920
I0104 22:08:29.829555  1533 layer_factory.hpp:77] Creating layer inception_4b/5x5_reduce
I0104 22:08:29.829928  1533 net.cpp:84] Creating Layer inception_4b/5x5_reduce
I0104 22:08:29.829946  1533 net.cpp:406] inception_4b/5x5_reduce <- inception_4a/output_inception_4a/output_0_split_2
I0104 22:08:29.830088  1533 net.cpp:380] inception_4b/5x5_reduce -> inception_4b/5x5_reduce
I0104 22:08:29.831046  1533 net.cpp:122] Setting up inception_4b/5x5_reduce
I0104 22:08:29.831069  1533 net.cpp:129] Top shape: 10 24 14 14 (47040)
I0104 22:08:29.831086  1533 net.cpp:137] Memory required for data: 397582080
I0104 22:08:29.831107  1533 layer_factory.hpp:77] Creating layer inception_4b/relu_5x5_reduce
I0104 22:08:29.831164  1533 net.cpp:84] Creating Layer inception_4b/relu_5x5_reduce
I0104 22:08:29.831181  1533 net.cpp:406] inception_4b/relu_5x5_reduce <- inception_4b/5x5_reduce
I0104 22:08:29.831231  1533 net.cpp:367] inception_4b/relu_5x5_reduce -> inception_4b/5x5_reduce (in-place)
I0104 22:08:29.831254  1533 net.cpp:122] Setting up inception_4b/relu_5x5_reduce
I0104 22:08:29.831300  1533 net.cpp:129] Top shape: 10 24 14 14 (47040)
I0104 22:08:29.831429  1533 net.cpp:137] Memory required for data: 397770240
I0104 22:08:29.831542  1533 layer_factory.hpp:77] Creating layer inception_4b/5x5
I0104 22:08:29.831578  1533 net.cpp:84] Creating Layer inception_4b/5x5
I0104 22:08:29.831704  1533 net.cpp:406] inception_4b/5x5 <- inception_4b/5x5_reduce
I0104 22:08:29.831840  1533 net.cpp:380] inception_4b/5x5 -> inception_4b/5x5
I0104 22:08:29.833412  1533 net.cpp:122] Setting up inception_4b/5x5
I0104 22:08:29.833432  1533 net.cpp:129] Top shape: 10 64 14 14 (125440)
I0104 22:08:29.833448  1533 net.cpp:137] Memory required for data: 398272000
I0104 22:08:29.833467  1533 layer_factory.hpp:77] Creating layer inception_4b/relu_5x5
I0104 22:08:29.833489  1533 net.cpp:84] Creating Layer inception_4b/relu_5x5
I0104 22:08:29.833541  1533 net.cpp:406] inception_4b/relu_5x5 <- inception_4b/5x5
I0104 22:08:29.833595  1533 net.cpp:367] inception_4b/relu_5x5 -> inception_4b/5x5 (in-place)
I0104 22:08:29.833616  1533 net.cpp:122] Setting up inception_4b/relu_5x5
I0104 22:08:29.833662  1533 net.cpp:129] Top shape: 10 64 14 14 (125440)
I0104 22:08:29.833730  1533 net.cpp:137] Memory required for data: 398773760
I0104 22:08:29.833784  1533 layer_factory.hpp:77] Creating layer inception_4b/pool
I0104 22:08:29.833955  1533 net.cpp:84] Creating Layer inception_4b/pool
I0104 22:08:29.833969  1533 net.cpp:406] inception_4b/pool <- inception_4a/output_inception_4a/output_0_split_3
I0104 22:08:29.833992  1533 net.cpp:380] inception_4b/pool -> inception_4b/pool
I0104 22:08:29.834247  1533 net.cpp:122] Setting up inception_4b/pool
I0104 22:08:29.834264  1533 net.cpp:129] Top shape: 10 512 14 14 (1003520)
I0104 22:08:29.834286  1533 net.cpp:137] Memory required for data: 402787840
I0104 22:08:29.834300  1533 layer_factory.hpp:77] Creating layer inception_4b/pool_proj
I0104 22:08:29.834424  1533 net.cpp:84] Creating Layer inception_4b/pool_proj
I0104 22:08:29.834440  1533 net.cpp:406] inception_4b/pool_proj <- inception_4b/pool
I0104 22:08:29.834463  1533 net.cpp:380] inception_4b/pool_proj -> inception_4b/pool_proj
I0104 22:08:29.835919  1533 net.cpp:122] Setting up inception_4b/pool_proj
I0104 22:08:29.835938  1533 net.cpp:129] Top shape: 10 64 14 14 (125440)
I0104 22:08:29.835958  1533 net.cpp:137] Memory required for data: 403289600
I0104 22:08:29.835978  1533 layer_factory.hpp:77] Creating layer inception_4b/relu_pool_proj
I0104 22:08:29.835995  1533 net.cpp:84] Creating Layer inception_4b/relu_pool_proj
I0104 22:08:29.836047  1533 net.cpp:406] inception_4b/relu_pool_proj <- inception_4b/pool_proj
I0104 22:08:29.836099  1533 net.cpp:367] inception_4b/relu_pool_proj -> inception_4b/pool_proj (in-place)
I0104 22:08:29.836122  1533 net.cpp:122] Setting up inception_4b/relu_pool_proj
I0104 22:08:29.836169  1533 net.cpp:129] Top shape: 10 64 14 14 (125440)
I0104 22:08:29.836220  1533 net.cpp:137] Memory required for data: 403791360
I0104 22:08:29.836289  1533 layer_factory.hpp:77] Creating layer inception_4b/output
I0104 22:08:29.836500  1533 net.cpp:84] Creating Layer inception_4b/output
I0104 22:08:29.836520  1533 net.cpp:406] inception_4b/output <- inception_4b/1x1
I0104 22:08:29.836536  1533 net.cpp:406] inception_4b/output <- inception_4b/3x3
I0104 22:08:29.836666  1533 net.cpp:406] inception_4b/output <- inception_4b/5x5
I0104 22:08:29.836683  1533 net.cpp:406] inception_4b/output <- inception_4b/pool_proj
I0104 22:08:29.836699  1533 net.cpp:380] inception_4b/output -> inception_4b/output
I0104 22:08:29.836930  1533 net.cpp:122] Setting up inception_4b/output
I0104 22:08:29.836947  1533 net.cpp:129] Top shape: 10 512 14 14 (1003520)
I0104 22:08:29.836963  1533 net.cpp:137] Memory required for data: 407805440
I0104 22:08:29.836977  1533 layer_factory.hpp:77] Creating layer inception_4b/output_inception_4b/output_0_split
I0104 22:08:29.836995  1533 net.cpp:84] Creating Layer inception_4b/output_inception_4b/output_0_split
I0104 22:08:29.837121  1533 net.cpp:406] inception_4b/output_inception_4b/output_0_split <- inception_4b/output
I0104 22:08:29.837198  1533 net.cpp:380] inception_4b/output_inception_4b/output_0_split -> inception_4b/output_inception_4b/output_0_split_0
I0104 22:08:29.837316  1533 net.cpp:380] inception_4b/output_inception_4b/output_0_split -> inception_4b/output_inception_4b/output_0_split_1
I0104 22:08:29.837388  1533 net.cpp:380] inception_4b/output_inception_4b/output_0_split -> inception_4b/output_inception_4b/output_0_split_2
I0104 22:08:29.837530  1533 net.cpp:380] inception_4b/output_inception_4b/output_0_split -> inception_4b/output_inception_4b/output_0_split_3
I0104 22:08:29.837707  1533 net.cpp:122] Setting up inception_4b/output_inception_4b/output_0_split
I0104 22:08:29.837774  1533 net.cpp:129] Top shape: 10 512 14 14 (1003520)
I0104 22:08:29.837798  1533 net.cpp:129] Top shape: 10 512 14 14 (1003520)
I0104 22:08:29.837813  1533 net.cpp:129] Top shape: 10 512 14 14 (1003520)
I0104 22:08:29.837920  1533 net.cpp:129] Top shape: 10 512 14 14 (1003520)
I0104 22:08:29.837937  1533 net.cpp:137] Memory required for data: 423861760
I0104 22:08:29.838007  1533 layer_factory.hpp:77] Creating layer inception_4c/1x1
I0104 22:08:29.838160  1533 net.cpp:84] Creating Layer inception_4c/1x1
I0104 22:08:29.838181  1533 net.cpp:406] inception_4c/1x1 <- inception_4b/output_inception_4b/output_0_split_0
I0104 22:08:29.838309  1533 net.cpp:380] inception_4c/1x1 -> inception_4c/1x1
I0104 22:08:29.840472  1533 net.cpp:122] Setting up inception_4c/1x1
I0104 22:08:29.840490  1533 net.cpp:129] Top shape: 10 128 14 14 (250880)
I0104 22:08:29.840507  1533 net.cpp:137] Memory required for data: 424865280
I0104 22:08:29.840526  1533 layer_factory.hpp:77] Creating layer inception_4c/relu_1x1
I0104 22:08:29.840544  1533 net.cpp:84] Creating Layer inception_4c/relu_1x1
I0104 22:08:29.840595  1533 net.cpp:406] inception_4c/relu_1x1 <- inception_4c/1x1
I0104 22:08:29.840618  1533 net.cpp:367] inception_4c/relu_1x1 -> inception_4c/1x1 (in-place)
I0104 22:08:29.840672  1533 net.cpp:122] Setting up inception_4c/relu_1x1
I0104 22:08:29.840719  1533 net.cpp:129] Top shape: 10 128 14 14 (250880)
I0104 22:08:29.840770  1533 net.cpp:137] Memory required for data: 425868800
I0104 22:08:29.840847  1533 layer_factory.hpp:77] Creating layer inception_4c/3x3_reduce
I0104 22:08:29.841090  1533 net.cpp:84] Creating Layer inception_4c/3x3_reduce
I0104 22:08:29.841107  1533 net.cpp:406] inception_4c/3x3_reduce <- inception_4b/output_inception_4b/output_0_split_1
I0104 22:08:29.841130  1533 net.cpp:380] inception_4c/3x3_reduce -> inception_4c/3x3_reduce
I0104 22:08:29.843372  1533 net.cpp:122] Setting up inception_4c/3x3_reduce
I0104 22:08:29.843391  1533 net.cpp:129] Top shape: 10 128 14 14 (250880)
I0104 22:08:29.843408  1533 net.cpp:137] Memory required for data: 426872320
I0104 22:08:29.843427  1533 layer_factory.hpp:77] Creating layer inception_4c/relu_3x3_reduce
I0104 22:08:29.843446  1533 net.cpp:84] Creating Layer inception_4c/relu_3x3_reduce
I0104 22:08:29.843487  1533 net.cpp:406] inception_4c/relu_3x3_reduce <- inception_4c/3x3_reduce
I0104 22:08:29.843508  1533 net.cpp:367] inception_4c/relu_3x3_reduce -> inception_4c/3x3_reduce (in-place)
I0104 22:08:29.843528  1533 net.cpp:122] Setting up inception_4c/relu_3x3_reduce
I0104 22:08:29.843600  1533 net.cpp:129] Top shape: 10 128 14 14 (250880)
I0104 22:08:29.843711  1533 net.cpp:137] Memory required for data: 427875840
I0104 22:08:29.843787  1533 layer_factory.hpp:77] Creating layer inception_4c/3x3
I0104 22:08:29.843940  1533 net.cpp:84] Creating Layer inception_4c/3x3
I0104 22:08:29.843955  1533 net.cpp:406] inception_4c/3x3 <- inception_4c/3x3_reduce
I0104 22:08:29.843981  1533 net.cpp:380] inception_4c/3x3 -> inception_4c/3x3
I0104 22:08:29.851809  1533 net.cpp:122] Setting up inception_4c/3x3
I0104 22:08:29.851830  1533 net.cpp:129] Top shape: 10 256 14 14 (501760)
I0104 22:08:29.851846  1533 net.cpp:137] Memory required for data: 429882880
I0104 22:08:29.851866  1533 layer_factory.hpp:77] Creating layer inception_4c/relu_3x3
I0104 22:08:29.851922  1533 net.cpp:84] Creating Layer inception_4c/relu_3x3
I0104 22:08:29.851941  1533 net.cpp:406] inception_4c/relu_3x3 <- inception_4c/3x3
I0104 22:08:29.851992  1533 net.cpp:367] inception_4c/relu_3x3 -> inception_4c/3x3 (in-place)
I0104 22:08:29.852047  1533 net.cpp:122] Setting up inception_4c/relu_3x3
I0104 22:08:29.852061  1533 net.cpp:129] Top shape: 10 256 14 14 (501760)
I0104 22:08:29.852111  1533 net.cpp:137] Memory required for data: 431889920
I0104 22:08:29.852319  1533 layer_factory.hpp:77] Creating layer inception_4c/5x5_reduce
I0104 22:08:29.852461  1533 net.cpp:84] Creating Layer inception_4c/5x5_reduce
I0104 22:08:29.852483  1533 net.cpp:406] inception_4c/5x5_reduce <- inception_4b/output_inception_4b/output_0_split_2
I0104 22:08:29.852645  1533 net.cpp:380] inception_4c/5x5_reduce -> inception_4c/5x5_reduce
I0104 22:08:29.853667  1533 net.cpp:122] Setting up inception_4c/5x5_reduce
I0104 22:08:29.853701  1533 net.cpp:129] Top shape: 10 24 14 14 (47040)
I0104 22:08:29.853719  1533 net.cpp:137] Memory required for data: 432078080
I0104 22:08:29.853773  1533 layer_factory.hpp:77] Creating layer inception_4c/relu_5x5_reduce
I0104 22:08:29.853794  1533 net.cpp:84] Creating Layer inception_4c/relu_5x5_reduce
I0104 22:08:29.853845  1533 net.cpp:406] inception_4c/relu_5x5_reduce <- inception_4c/5x5_reduce
I0104 22:08:29.853931  1533 net.cpp:367] inception_4c/relu_5x5_reduce -> inception_4c/5x5_reduce (in-place)
I0104 22:08:29.854066  1533 net.cpp:122] Setting up inception_4c/relu_5x5_reduce
I0104 22:08:29.854122  1533 net.cpp:129] Top shape: 10 24 14 14 (47040)
I0104 22:08:29.854249  1533 net.cpp:137] Memory required for data: 432266240
I0104 22:08:29.854262  1533 layer_factory.hpp:77] Creating layer inception_4c/5x5
I0104 22:08:29.854343  1533 net.cpp:84] Creating Layer inception_4c/5x5
I0104 22:08:29.854414  1533 net.cpp:406] inception_4c/5x5 <- inception_4c/5x5_reduce
I0104 22:08:29.854444  1533 net.cpp:380] inception_4c/5x5 -> inception_4c/5x5
I0104 22:08:29.856053  1533 net.cpp:122] Setting up inception_4c/5x5
I0104 22:08:29.856072  1533 net.cpp:129] Top shape: 10 64 14 14 (125440)
I0104 22:08:29.856089  1533 net.cpp:137] Memory required for data: 432768000
I0104 22:08:29.856108  1533 layer_factory.hpp:77] Creating layer inception_4c/relu_5x5
I0104 22:08:29.856164  1533 net.cpp:84] Creating Layer inception_4c/relu_5x5
I0104 22:08:29.856180  1533 net.cpp:406] inception_4c/relu_5x5 <- inception_4c/5x5
I0104 22:08:29.856232  1533 net.cpp:367] inception_4c/relu_5x5 -> inception_4c/5x5 (in-place)
I0104 22:08:29.856254  1533 net.cpp:122] Setting up inception_4c/relu_5x5
I0104 22:08:29.856302  1533 net.cpp:129] Top shape: 10 64 14 14 (125440)
I0104 22:08:29.856359  1533 net.cpp:137] Memory required for data: 433269760
I0104 22:08:29.856533  1533 layer_factory.hpp:77] Creating layer inception_4c/pool
I0104 22:08:29.856691  1533 net.cpp:84] Creating Layer inception_4c/pool
I0104 22:08:29.856737  1533 net.cpp:406] inception_4c/pool <- inception_4b/output_inception_4b/output_0_split_3
I0104 22:08:29.856757  1533 net.cpp:380] inception_4c/pool -> inception_4c/pool
I0104 22:08:29.856974  1533 net.cpp:122] Setting up inception_4c/pool
I0104 22:08:29.857026  1533 net.cpp:129] Top shape: 10 512 14 14 (1003520)
I0104 22:08:29.857125  1533 net.cpp:137] Memory required for data: 437283840
I0104 22:08:29.857275  1533 layer_factory.hpp:77] Creating layer inception_4c/pool_proj
I0104 22:08:29.857305  1533 net.cpp:84] Creating Layer inception_4c/pool_proj
I0104 22:08:29.857324  1533 net.cpp:406] inception_4c/pool_proj <- inception_4c/pool
I0104 22:08:29.857441  1533 net.cpp:380] inception_4c/pool_proj -> inception_4c/pool_proj
I0104 22:08:29.858872  1533 net.cpp:122] Setting up inception_4c/pool_proj
I0104 22:08:29.858891  1533 net.cpp:129] Top shape: 10 64 14 14 (125440)
I0104 22:08:29.858907  1533 net.cpp:137] Memory required for data: 437785600
I0104 22:08:29.858989  1533 layer_factory.hpp:77] Creating layer inception_4c/relu_pool_proj
I0104 22:08:29.859046  1533 net.cpp:84] Creating Layer inception_4c/relu_pool_proj
I0104 22:08:29.859086  1533 net.cpp:406] inception_4c/relu_pool_proj <- inception_4c/pool_proj
I0104 22:08:29.859104  1533 net.cpp:367] inception_4c/relu_pool_proj -> inception_4c/pool_proj (in-place)
I0104 22:08:29.859266  1533 net.cpp:122] Setting up inception_4c/relu_pool_proj
I0104 22:08:29.859403  1533 net.cpp:129] Top shape: 10 64 14 14 (125440)
I0104 22:08:29.859421  1533 net.cpp:137] Memory required for data: 438287360
I0104 22:08:29.859450  1533 layer_factory.hpp:77] Creating layer inception_4c/output
I0104 22:08:29.859524  1533 net.cpp:84] Creating Layer inception_4c/output
I0104 22:08:29.859588  1533 net.cpp:406] inception_4c/output <- inception_4c/1x1
I0104 22:08:29.859644  1533 net.cpp:406] inception_4c/output <- inception_4c/3x3
I0104 22:08:29.859758  1533 net.cpp:406] inception_4c/output <- inception_4c/5x5
I0104 22:08:29.859776  1533 net.cpp:406] inception_4c/output <- inception_4c/pool_proj
I0104 22:08:29.859915  1533 net.cpp:380] inception_4c/output -> inception_4c/output
I0104 22:08:29.860028  1533 net.cpp:122] Setting up inception_4c/output
I0104 22:08:29.860082  1533 net.cpp:129] Top shape: 10 512 14 14 (1003520)
I0104 22:08:29.860100  1533 net.cpp:137] Memory required for data: 442301440
I0104 22:08:29.860113  1533 layer_factory.hpp:77] Creating layer inception_4c/output_inception_4c/output_0_split
I0104 22:08:29.860132  1533 net.cpp:84] Creating Layer inception_4c/output_inception_4c/output_0_split
I0104 22:08:29.860220  1533 net.cpp:406] inception_4c/output_inception_4c/output_0_split <- inception_4c/output
I0104 22:08:29.860409  1533 net.cpp:380] inception_4c/output_inception_4c/output_0_split -> inception_4c/output_inception_4c/output_0_split_0
I0104 22:08:29.860433  1533 net.cpp:380] inception_4c/output_inception_4c/output_0_split -> inception_4c/output_inception_4c/output_0_split_1
I0104 22:08:29.860455  1533 net.cpp:380] inception_4c/output_inception_4c/output_0_split -> inception_4c/output_inception_4c/output_0_split_2
I0104 22:08:29.860549  1533 net.cpp:380] inception_4c/output_inception_4c/output_0_split -> inception_4c/output_inception_4c/output_0_split_3
I0104 22:08:29.860836  1533 net.cpp:122] Setting up inception_4c/output_inception_4c/output_0_split
I0104 22:08:29.860853  1533 net.cpp:129] Top shape: 10 512 14 14 (1003520)
I0104 22:08:29.860870  1533 net.cpp:129] Top shape: 10 512 14 14 (1003520)
I0104 22:08:29.860978  1533 net.cpp:129] Top shape: 10 512 14 14 (1003520)
I0104 22:08:29.860996  1533 net.cpp:129] Top shape: 10 512 14 14 (1003520)
I0104 22:08:29.861011  1533 net.cpp:137] Memory required for data: 458357760
I0104 22:08:29.861024  1533 layer_factory.hpp:77] Creating layer inception_4d/1x1
I0104 22:08:29.861222  1533 net.cpp:84] Creating Layer inception_4d/1x1
I0104 22:08:29.861238  1533 net.cpp:406] inception_4d/1x1 <- inception_4c/output_inception_4c/output_0_split_0
I0104 22:08:29.861266  1533 net.cpp:380] inception_4d/1x1 -> inception_4d/1x1
I0104 22:08:29.863431  1533 net.cpp:122] Setting up inception_4d/1x1
I0104 22:08:29.863456  1533 net.cpp:129] Top shape: 10 112 14 14 (219520)
I0104 22:08:29.863473  1533 net.cpp:137] Memory required for data: 459235840
I0104 22:08:29.863494  1533 layer_factory.hpp:77] Creating layer inception_4d/relu_1x1
I0104 22:08:29.863554  1533 net.cpp:84] Creating Layer inception_4d/relu_1x1
I0104 22:08:29.863617  1533 net.cpp:406] inception_4d/relu_1x1 <- inception_4d/1x1
I0104 22:08:29.863641  1533 net.cpp:367] inception_4d/relu_1x1 -> inception_4d/1x1 (in-place)
I0104 22:08:29.863662  1533 net.cpp:122] Setting up inception_4d/relu_1x1
I0104 22:08:29.863709  1533 net.cpp:129] Top shape: 10 112 14 14 (219520)
I0104 22:08:29.863849  1533 net.cpp:137] Memory required for data: 460113920
I0104 22:08:29.863867  1533 layer_factory.hpp:77] Creating layer inception_4d/3x3_reduce
I0104 22:08:29.864001  1533 net.cpp:84] Creating Layer inception_4d/3x3_reduce
I0104 22:08:29.864017  1533 net.cpp:406] inception_4d/3x3_reduce <- inception_4c/output_inception_4c/output_0_split_1
I0104 22:08:29.864054  1533 net.cpp:380] inception_4d/3x3_reduce -> inception_4d/3x3_reduce
I0104 22:08:29.866612  1533 net.cpp:122] Setting up inception_4d/3x3_reduce
I0104 22:08:29.866633  1533 net.cpp:129] Top shape: 10 144 14 14 (282240)
I0104 22:08:29.866649  1533 net.cpp:137] Memory required for data: 461242880
I0104 22:08:29.866672  1533 layer_factory.hpp:77] Creating layer inception_4d/relu_3x3_reduce
I0104 22:08:29.866729  1533 net.cpp:84] Creating Layer inception_4d/relu_3x3_reduce
I0104 22:08:29.866744  1533 net.cpp:406] inception_4d/relu_3x3_reduce <- inception_4d/3x3_reduce
I0104 22:08:29.866797  1533 net.cpp:367] inception_4d/relu_3x3_reduce -> inception_4d/3x3_reduce (in-place)
I0104 22:08:29.866818  1533 net.cpp:122] Setting up inception_4d/relu_3x3_reduce
I0104 22:08:29.866868  1533 net.cpp:129] Top shape: 10 144 14 14 (282240)
I0104 22:08:29.866917  1533 net.cpp:137] Memory required for data: 462371840
I0104 22:08:29.867101  1533 layer_factory.hpp:77] Creating layer inception_4d/3x3
I0104 22:08:29.867244  1533 net.cpp:84] Creating Layer inception_4d/3x3
I0104 22:08:29.867260  1533 net.cpp:406] inception_4d/3x3 <- inception_4d/3x3_reduce
I0104 22:08:29.867285  1533 net.cpp:380] inception_4d/3x3 -> inception_4d/3x3
I0104 22:08:29.877073  1533 net.cpp:122] Setting up inception_4d/3x3
I0104 22:08:29.877097  1533 net.cpp:129] Top shape: 10 288 14 14 (564480)
I0104 22:08:29.877115  1533 net.cpp:137] Memory required for data: 464629760
I0104 22:08:29.877135  1533 layer_factory.hpp:77] Creating layer inception_4d/relu_3x3
I0104 22:08:29.877194  1533 net.cpp:84] Creating Layer inception_4d/relu_3x3
I0104 22:08:29.877212  1533 net.cpp:406] inception_4d/relu_3x3 <- inception_4d/3x3
I0104 22:08:29.877267  1533 net.cpp:367] inception_4d/relu_3x3 -> inception_4d/3x3 (in-place)
I0104 22:08:29.877322  1533 net.cpp:122] Setting up inception_4d/relu_3x3
I0104 22:08:29.877370  1533 net.cpp:129] Top shape: 10 288 14 14 (564480)
I0104 22:08:29.877423  1533 net.cpp:137] Memory required for data: 466887680
I0104 22:08:29.877437  1533 layer_factory.hpp:77] Creating layer inception_4d/5x5_reduce
I0104 22:08:29.877607  1533 net.cpp:84] Creating Layer inception_4d/5x5_reduce
I0104 22:08:29.877718  1533 net.cpp:406] inception_4d/5x5_reduce <- inception_4c/output_inception_4c/output_0_split_2
I0104 22:08:29.877758  1533 net.cpp:380] inception_4d/5x5_reduce -> inception_4d/5x5_reduce
I0104 22:08:29.878888  1533 net.cpp:122] Setting up inception_4d/5x5_reduce
I0104 22:08:29.878908  1533 net.cpp:129] Top shape: 10 32 14 14 (62720)
I0104 22:08:29.878924  1533 net.cpp:137] Memory required for data: 467138560
I0104 22:08:29.878947  1533 layer_factory.hpp:77] Creating layer inception_4d/relu_5x5_reduce
I0104 22:08:29.878965  1533 net.cpp:84] Creating Layer inception_4d/relu_5x5_reduce
I0104 22:08:29.879017  1533 net.cpp:406] inception_4d/relu_5x5_reduce <- inception_4d/5x5_reduce
I0104 22:08:29.879070  1533 net.cpp:367] inception_4d/relu_5x5_reduce -> inception_4d/5x5_reduce (in-place)
I0104 22:08:29.879091  1533 net.cpp:122] Setting up inception_4d/relu_5x5_reduce
I0104 22:08:29.879139  1533 net.cpp:129] Top shape: 10 32 14 14 (62720)
I0104 22:08:29.879191  1533 net.cpp:137] Memory required for data: 467389440
I0104 22:08:29.879333  1533 layer_factory.hpp:77] Creating layer inception_4d/5x5
I0104 22:08:29.879359  1533 net.cpp:84] Creating Layer inception_4d/5x5
I0104 22:08:29.879488  1533 net.cpp:406] inception_4d/5x5 <- inception_4d/5x5_reduce
I0104 22:08:29.879532  1533 net.cpp:380] inception_4d/5x5 -> inception_4d/5x5
I0104 22:08:29.881533  1533 net.cpp:122] Setting up inception_4d/5x5
I0104 22:08:29.881551  1533 net.cpp:129] Top shape: 10 64 14 14 (125440)
I0104 22:08:29.881568  1533 net.cpp:137] Memory required for data: 467891200
I0104 22:08:29.881587  1533 layer_factory.hpp:77] Creating layer inception_4d/relu_5x5
I0104 22:08:29.881606  1533 net.cpp:84] Creating Layer inception_4d/relu_5x5
I0104 22:08:29.881659  1533 net.cpp:406] inception_4d/relu_5x5 <- inception_4d/5x5
I0104 22:08:29.881724  1533 net.cpp:367] inception_4d/relu_5x5 -> inception_4d/5x5 (in-place)
I0104 22:08:29.881779  1533 net.cpp:122] Setting up inception_4d/relu_5x5
I0104 22:08:29.881794  1533 net.cpp:129] Top shape: 10 64 14 14 (125440)
I0104 22:08:29.881845  1533 net.cpp:137] Memory required for data: 468392960
I0104 22:08:29.881989  1533 layer_factory.hpp:77] Creating layer inception_4d/pool
I0104 22:08:29.882123  1533 net.cpp:84] Creating Layer inception_4d/pool
I0104 22:08:29.882153  1533 net.cpp:406] inception_4d/pool <- inception_4c/output_inception_4c/output_0_split_3
I0104 22:08:29.882174  1533 net.cpp:380] inception_4d/pool -> inception_4d/pool
I0104 22:08:29.882390  1533 net.cpp:122] Setting up inception_4d/pool
I0104 22:08:29.882406  1533 net.cpp:129] Top shape: 10 512 14 14 (1003520)
I0104 22:08:29.882537  1533 net.cpp:137] Memory required for data: 472407040
I0104 22:08:29.882551  1533 layer_factory.hpp:77] Creating layer inception_4d/pool_proj
I0104 22:08:29.882578  1533 net.cpp:84] Creating Layer inception_4d/pool_proj
I0104 22:08:29.882650  1533 net.cpp:406] inception_4d/pool_proj <- inception_4d/pool
I0104 22:08:29.882803  1533 net.cpp:380] inception_4d/pool_proj -> inception_4d/pool_proj
I0104 22:08:29.884236  1533 net.cpp:122] Setting up inception_4d/pool_proj
I0104 22:08:29.884255  1533 net.cpp:129] Top shape: 10 64 14 14 (125440)
I0104 22:08:29.884272  1533 net.cpp:137] Memory required for data: 472908800
I0104 22:08:29.884290  1533 layer_factory.hpp:77] Creating layer inception_4d/relu_pool_proj
I0104 22:08:29.884346  1533 net.cpp:84] Creating Layer inception_4d/relu_pool_proj
I0104 22:08:29.884363  1533 net.cpp:406] inception_4d/relu_pool_proj <- inception_4d/pool_proj
I0104 22:08:29.884418  1533 net.cpp:367] inception_4d/relu_pool_proj -> inception_4d/pool_proj (in-place)
I0104 22:08:29.884439  1533 net.cpp:122] Setting up inception_4d/relu_pool_proj
I0104 22:08:29.884487  1533 net.cpp:129] Top shape: 10 64 14 14 (125440)
I0104 22:08:29.884621  1533 net.cpp:137] Memory required for data: 473410560
I0104 22:08:29.884641  1533 layer_factory.hpp:77] Creating layer inception_4d/output
I0104 22:08:29.884660  1533 net.cpp:84] Creating Layer inception_4d/output
I0104 22:08:29.884673  1533 net.cpp:406] inception_4d/output <- inception_4d/1x1
I0104 22:08:29.884821  1533 net.cpp:406] inception_4d/output <- inception_4d/3x3
I0104 22:08:29.884838  1533 net.cpp:406] inception_4d/output <- inception_4d/5x5
I0104 22:08:29.884961  1533 net.cpp:406] inception_4d/output <- inception_4d/pool_proj
I0104 22:08:29.885005  1533 net.cpp:380] inception_4d/output -> inception_4d/output
I0104 22:08:29.885215  1533 net.cpp:122] Setting up inception_4d/output
I0104 22:08:29.885232  1533 net.cpp:129] Top shape: 10 528 14 14 (1034880)
I0104 22:08:29.885248  1533 net.cpp:137] Memory required for data: 477550080
I0104 22:08:29.885269  1533 layer_factory.hpp:77] Creating layer inception_4d/output_inception_4d/output_0_split
I0104 22:08:29.885359  1533 net.cpp:84] Creating Layer inception_4d/output_inception_4d/output_0_split
I0104 22:08:29.885399  1533 net.cpp:406] inception_4d/output_inception_4d/output_0_split <- inception_4d/output
I0104 22:08:29.885418  1533 net.cpp:380] inception_4d/output_inception_4d/output_0_split -> inception_4d/output_inception_4d/output_0_split_0
I0104 22:08:29.885499  1533 net.cpp:380] inception_4d/output_inception_4d/output_0_split -> inception_4d/output_inception_4d/output_0_split_1
I0104 22:08:29.885644  1533 net.cpp:380] inception_4d/output_inception_4d/output_0_split -> inception_4d/output_inception_4d/output_0_split_2
I0104 22:08:29.885706  1533 net.cpp:380] inception_4d/output_inception_4d/output_0_split -> inception_4d/output_inception_4d/output_0_split_3
I0104 22:08:29.886026  1533 net.cpp:122] Setting up inception_4d/output_inception_4d/output_0_split
I0104 22:08:29.886044  1533 net.cpp:129] Top shape: 10 528 14 14 (1034880)
I0104 22:08:29.886063  1533 net.cpp:129] Top shape: 10 528 14 14 (1034880)
I0104 22:08:29.886080  1533 net.cpp:129] Top shape: 10 528 14 14 (1034880)
I0104 22:08:29.886095  1533 net.cpp:129] Top shape: 10 528 14 14 (1034880)
I0104 22:08:29.886147  1533 net.cpp:137] Memory required for data: 494108160
I0104 22:08:29.886163  1533 layer_factory.hpp:77] Creating layer inception_4e/1x1
I0104 22:08:29.886225  1533 net.cpp:84] Creating Layer inception_4e/1x1
I0104 22:08:29.886241  1533 net.cpp:406] inception_4e/1x1 <- inception_4d/output_inception_4d/output_0_split_0
I0104 22:08:29.886355  1533 net.cpp:380] inception_4e/1x1 -> inception_4e/1x1
I0104 22:08:29.890358  1533 net.cpp:122] Setting up inception_4e/1x1
I0104 22:08:29.890377  1533 net.cpp:129] Top shape: 10 256 14 14 (501760)
I0104 22:08:29.890394  1533 net.cpp:137] Memory required for data: 496115200
I0104 22:08:29.890414  1533 layer_factory.hpp:77] Creating layer inception_4e/relu_1x1
I0104 22:08:29.890436  1533 net.cpp:84] Creating Layer inception_4e/relu_1x1
I0104 22:08:29.890488  1533 net.cpp:406] inception_4e/relu_1x1 <- inception_4e/1x1
I0104 22:08:29.890508  1533 net.cpp:367] inception_4e/relu_1x1 -> inception_4e/1x1 (in-place)
I0104 22:08:29.890564  1533 net.cpp:122] Setting up inception_4e/relu_1x1
I0104 22:08:29.890611  1533 net.cpp:129] Top shape: 10 256 14 14 (501760)
I0104 22:08:29.890662  1533 net.cpp:137] Memory required for data: 498122240
I0104 22:08:29.890776  1533 layer_factory.hpp:77] Creating layer inception_4e/3x3_reduce
I0104 22:08:29.890805  1533 net.cpp:84] Creating Layer inception_4e/3x3_reduce
I0104 22:08:29.890964  1533 net.cpp:406] inception_4e/3x3_reduce <- inception_4d/output_inception_4d/output_0_split_1
I0104 22:08:29.890990  1533 net.cpp:380] inception_4e/3x3_reduce -> inception_4e/3x3_reduce
I0104 22:08:29.893811  1533 net.cpp:122] Setting up inception_4e/3x3_reduce
I0104 22:08:29.893832  1533 net.cpp:129] Top shape: 10 160 14 14 (313600)
I0104 22:08:29.893849  1533 net.cpp:137] Memory required for data: 499376640
I0104 22:08:29.893869  1533 layer_factory.hpp:77] Creating layer inception_4e/relu_3x3_reduce
I0104 22:08:29.893927  1533 net.cpp:84] Creating Layer inception_4e/relu_3x3_reduce
I0104 22:08:29.893944  1533 net.cpp:406] inception_4e/relu_3x3_reduce <- inception_4e/3x3_reduce
I0104 22:08:29.893999  1533 net.cpp:367] inception_4e/relu_3x3_reduce -> inception_4e/3x3_reduce (in-place)
I0104 22:08:29.894055  1533 net.cpp:122] Setting up inception_4e/relu_3x3_reduce
I0104 22:08:29.894070  1533 net.cpp:129] Top shape: 10 160 14 14 (313600)
I0104 22:08:29.894120  1533 net.cpp:137] Memory required for data: 500631040
I0104 22:08:29.894315  1533 layer_factory.hpp:77] Creating layer inception_4e/3x3
I0104 22:08:29.894341  1533 net.cpp:84] Creating Layer inception_4e/3x3
I0104 22:08:29.894361  1533 net.cpp:406] inception_4e/3x3 <- inception_4e/3x3_reduce
I0104 22:08:29.894505  1533 net.cpp:380] inception_4e/3x3 -> inception_4e/3x3
I0104 22:08:29.906394  1533 net.cpp:122] Setting up inception_4e/3x3
I0104 22:08:29.906420  1533 net.cpp:129] Top shape: 10 320 14 14 (627200)
I0104 22:08:29.906438  1533 net.cpp:137] Memory required for data: 503139840
I0104 22:08:29.906458  1533 layer_factory.hpp:77] Creating layer inception_4e/relu_3x3
I0104 22:08:29.906478  1533 net.cpp:84] Creating Layer inception_4e/relu_3x3
I0104 22:08:29.906538  1533 net.cpp:406] inception_4e/relu_3x3 <- inception_4e/3x3
I0104 22:08:29.906590  1533 net.cpp:367] inception_4e/relu_3x3 -> inception_4e/3x3 (in-place)
I0104 22:08:29.906646  1533 net.cpp:122] Setting up inception_4e/relu_3x3
I0104 22:08:29.906709  1533 net.cpp:129] Top shape: 10 320 14 14 (627200)
I0104 22:08:29.906726  1533 net.cpp:137] Memory required for data: 505648640
I0104 22:08:29.906739  1533 layer_factory.hpp:77] Creating layer inception_4e/5x5_reduce
I0104 22:08:29.906894  1533 net.cpp:84] Creating Layer inception_4e/5x5_reduce
I0104 22:08:29.906913  1533 net.cpp:406] inception_4e/5x5_reduce <- inception_4d/output_inception_4d/output_0_split_2
I0104 22:08:29.907006  1533 net.cpp:380] inception_4e/5x5_reduce -> inception_4e/5x5_reduce
I0104 22:08:29.908143  1533 net.cpp:122] Setting up inception_4e/5x5_reduce
I0104 22:08:29.908164  1533 net.cpp:129] Top shape: 10 32 14 14 (62720)
I0104 22:08:29.908182  1533 net.cpp:137] Memory required for data: 505899520
I0104 22:08:29.908201  1533 layer_factory.hpp:77] Creating layer inception_4e/relu_5x5_reduce
I0104 22:08:29.908257  1533 net.cpp:84] Creating Layer inception_4e/relu_5x5_reduce
I0104 22:08:29.908306  1533 net.cpp:406] inception_4e/relu_5x5_reduce <- inception_4e/5x5_reduce
I0104 22:08:29.908351  1533 net.cpp:367] inception_4e/relu_5x5_reduce -> inception_4e/5x5_reduce (in-place)
I0104 22:08:29.908372  1533 net.cpp:122] Setting up inception_4e/relu_5x5_reduce
I0104 22:08:29.908427  1533 net.cpp:129] Top shape: 10 32 14 14 (62720)
I0104 22:08:29.908583  1533 net.cpp:137] Memory required for data: 506150400
I0104 22:08:29.908602  1533 layer_factory.hpp:77] Creating layer inception_4e/5x5
I0104 22:08:29.908735  1533 net.cpp:84] Creating Layer inception_4e/5x5
I0104 22:08:29.908823  1533 net.cpp:406] inception_4e/5x5 <- inception_4e/5x5_reduce
I0104 22:08:29.908896  1533 net.cpp:380] inception_4e/5x5 -> inception_4e/5x5
I0104 22:08:29.912150  1533 net.cpp:122] Setting up inception_4e/5x5
I0104 22:08:29.912173  1533 net.cpp:129] Top shape: 10 128 14 14 (250880)
I0104 22:08:29.912189  1533 net.cpp:137] Memory required for data: 507153920
I0104 22:08:29.912210  1533 layer_factory.hpp:77] Creating layer inception_4e/relu_5x5
I0104 22:08:29.912268  1533 net.cpp:84] Creating Layer inception_4e/relu_5x5
I0104 22:08:29.912286  1533 net.cpp:406] inception_4e/relu_5x5 <- inception_4e/5x5
I0104 22:08:29.912341  1533 net.cpp:367] inception_4e/relu_5x5 -> inception_4e/5x5 (in-place)
I0104 22:08:29.912397  1533 net.cpp:122] Setting up inception_4e/relu_5x5
I0104 22:08:29.912411  1533 net.cpp:129] Top shape: 10 128 14 14 (250880)
I0104 22:08:29.912549  1533 net.cpp:137] Memory required for data: 508157440
I0104 22:08:29.912607  1533 layer_factory.hpp:77] Creating layer inception_4e/pool
I0104 22:08:29.912781  1533 net.cpp:84] Creating Layer inception_4e/pool
I0104 22:08:29.912796  1533 net.cpp:406] inception_4e/pool <- inception_4d/output_inception_4d/output_0_split_3
I0104 22:08:29.912816  1533 net.cpp:380] inception_4e/pool -> inception_4e/pool
I0104 22:08:29.913041  1533 net.cpp:122] Setting up inception_4e/pool
I0104 22:08:29.913066  1533 net.cpp:129] Top shape: 10 528 14 14 (1034880)
I0104 22:08:29.913082  1533 net.cpp:137] Memory required for data: 512296960
I0104 22:08:29.913096  1533 layer_factory.hpp:77] Creating layer inception_4e/pool_proj
I0104 22:08:29.913260  1533 net.cpp:84] Creating Layer inception_4e/pool_proj
I0104 22:08:29.913333  1533 net.cpp:406] inception_4e/pool_proj <- inception_4e/pool
I0104 22:08:29.913543  1533 net.cpp:380] inception_4e/pool_proj -> inception_4e/pool_proj
I0104 22:08:29.915794  1533 net.cpp:122] Setting up inception_4e/pool_proj
I0104 22:08:29.915815  1533 net.cpp:129] Top shape: 10 128 14 14 (250880)
I0104 22:08:29.915834  1533 net.cpp:137] Memory required for data: 513300480
I0104 22:08:29.915855  1533 layer_factory.hpp:77] Creating layer inception_4e/relu_pool_proj
I0104 22:08:29.915874  1533 net.cpp:84] Creating Layer inception_4e/relu_pool_proj
I0104 22:08:29.915927  1533 net.cpp:406] inception_4e/relu_pool_proj <- inception_4e/pool_proj
I0104 22:08:29.915987  1533 net.cpp:367] inception_4e/relu_pool_proj -> inception_4e/pool_proj (in-place)
I0104 22:08:29.916008  1533 net.cpp:122] Setting up inception_4e/relu_pool_proj
I0104 22:08:29.916056  1533 net.cpp:129] Top shape: 10 128 14 14 (250880)
I0104 22:08:29.916215  1533 net.cpp:137] Memory required for data: 514304000
I0104 22:08:29.916365  1533 layer_factory.hpp:77] Creating layer inception_4e/output
I0104 22:08:29.916388  1533 net.cpp:84] Creating Layer inception_4e/output
I0104 22:08:29.916402  1533 net.cpp:406] inception_4e/output <- inception_4e/1x1
I0104 22:08:29.916419  1533 net.cpp:406] inception_4e/output <- inception_4e/3x3
I0104 22:08:29.916434  1533 net.cpp:406] inception_4e/output <- inception_4e/5x5
I0104 22:08:29.916556  1533 net.cpp:406] inception_4e/output <- inception_4e/pool_proj
I0104 22:08:29.916576  1533 net.cpp:380] inception_4e/output -> inception_4e/output
I0104 22:08:29.916743  1533 net.cpp:122] Setting up inception_4e/output
I0104 22:08:29.916759  1533 net.cpp:129] Top shape: 10 832 14 14 (1630720)
I0104 22:08:29.916901  1533 net.cpp:137] Memory required for data: 520826880
I0104 22:08:29.916934  1533 layer_factory.hpp:77] Creating layer pool4/3x3_s2
I0104 22:08:29.916954  1533 net.cpp:84] Creating Layer pool4/3x3_s2
I0104 22:08:29.916967  1533 net.cpp:406] pool4/3x3_s2 <- inception_4e/output
I0104 22:08:29.917085  1533 net.cpp:380] pool4/3x3_s2 -> pool4/3x3_s2
I0104 22:08:29.917296  1533 net.cpp:122] Setting up pool4/3x3_s2
I0104 22:08:29.917408  1533 net.cpp:129] Top shape: 10 832 7 7 (407680)
I0104 22:08:29.917444  1533 net.cpp:137] Memory required for data: 522457600
I0104 22:08:29.917459  1533 layer_factory.hpp:77] Creating layer pool4/3x3_s2_pool4/3x3_s2_0_split
I0104 22:08:29.917479  1533 net.cpp:84] Creating Layer pool4/3x3_s2_pool4/3x3_s2_0_split
I0104 22:08:29.917563  1533 net.cpp:406] pool4/3x3_s2_pool4/3x3_s2_0_split <- pool4/3x3_s2
I0104 22:08:29.917620  1533 net.cpp:380] pool4/3x3_s2_pool4/3x3_s2_0_split -> pool4/3x3_s2_pool4/3x3_s2_0_split_0
I0104 22:08:29.917755  1533 net.cpp:380] pool4/3x3_s2_pool4/3x3_s2_0_split -> pool4/3x3_s2_pool4/3x3_s2_0_split_1
I0104 22:08:29.917779  1533 net.cpp:380] pool4/3x3_s2_pool4/3x3_s2_0_split -> pool4/3x3_s2_pool4/3x3_s2_0_split_2
I0104 22:08:29.917850  1533 net.cpp:380] pool4/3x3_s2_pool4/3x3_s2_0_split -> pool4/3x3_s2_pool4/3x3_s2_0_split_3
I0104 22:08:29.918190  1533 net.cpp:122] Setting up pool4/3x3_s2_pool4/3x3_s2_0_split
I0104 22:08:29.918212  1533 net.cpp:129] Top shape: 10 832 7 7 (407680)
I0104 22:08:29.918229  1533 net.cpp:129] Top shape: 10 832 7 7 (407680)
I0104 22:08:29.918244  1533 net.cpp:129] Top shape: 10 832 7 7 (407680)
I0104 22:08:29.918324  1533 net.cpp:129] Top shape: 10 832 7 7 (407680)
I0104 22:08:29.918365  1533 net.cpp:137] Memory required for data: 528980480
I0104 22:08:29.918378  1533 layer_factory.hpp:77] Creating layer inception_5a/1x1
I0104 22:08:29.918411  1533 net.cpp:84] Creating Layer inception_5a/1x1
I0104 22:08:29.918522  1533 net.cpp:406] inception_5a/1x1 <- pool4/3x3_s2_pool4/3x3_s2_0_split_0
I0104 22:08:29.918548  1533 net.cpp:380] inception_5a/1x1 -> inception_5a/1x1
I0104 22:08:29.924389  1533 net.cpp:122] Setting up inception_5a/1x1
I0104 22:08:29.924409  1533 net.cpp:129] Top shape: 10 256 7 7 (125440)
I0104 22:08:29.924427  1533 net.cpp:137] Memory required for data: 529482240
I0104 22:08:29.924448  1533 layer_factory.hpp:77] Creating layer inception_5a/relu_1x1
I0104 22:08:29.924465  1533 net.cpp:84] Creating Layer inception_5a/relu_1x1
I0104 22:08:29.924517  1533 net.cpp:406] inception_5a/relu_1x1 <- inception_5a/1x1
I0104 22:08:29.924571  1533 net.cpp:367] inception_5a/relu_1x1 -> inception_5a/1x1 (in-place)
I0104 22:08:29.924593  1533 net.cpp:122] Setting up inception_5a/relu_1x1
I0104 22:08:29.924640  1533 net.cpp:129] Top shape: 10 256 7 7 (125440)
I0104 22:08:29.924691  1533 net.cpp:137] Memory required for data: 529984000
I0104 22:08:29.924880  1533 layer_factory.hpp:77] Creating layer inception_5a/3x3_reduce
I0104 22:08:29.924944  1533 net.cpp:84] Creating Layer inception_5a/3x3_reduce
I0104 22:08:29.925065  1533 net.cpp:406] inception_5a/3x3_reduce <- pool4/3x3_s2_pool4/3x3_s2_0_split_1
I0104 22:08:29.925091  1533 net.cpp:380] inception_5a/3x3_reduce -> inception_5a/3x3_reduce
I0104 22:08:29.929047  1533 net.cpp:122] Setting up inception_5a/3x3_reduce
I0104 22:08:29.929066  1533 net.cpp:129] Top shape: 10 160 7 7 (78400)
I0104 22:08:29.929082  1533 net.cpp:137] Memory required for data: 530297600
I0104 22:08:29.929103  1533 layer_factory.hpp:77] Creating layer inception_5a/relu_3x3_reduce
I0104 22:08:29.929159  1533 net.cpp:84] Creating Layer inception_5a/relu_3x3_reduce
I0104 22:08:29.929177  1533 net.cpp:406] inception_5a/relu_3x3_reduce <- inception_5a/3x3_reduce
I0104 22:08:29.929230  1533 net.cpp:367] inception_5a/relu_3x3_reduce -> inception_5a/3x3_reduce (in-place)
I0104 22:08:29.929286  1533 net.cpp:122] Setting up inception_5a/relu_3x3_reduce
I0104 22:08:29.929299  1533 net.cpp:129] Top shape: 10 160 7 7 (78400)
I0104 22:08:29.929349  1533 net.cpp:137] Memory required for data: 530611200
I0104 22:08:29.929513  1533 layer_factory.hpp:77] Creating layer inception_5a/3x3
I0104 22:08:29.929643  1533 net.cpp:84] Creating Layer inception_5a/3x3
I0104 22:08:29.929666  1533 net.cpp:406] inception_5a/3x3 <- inception_5a/3x3_reduce
I0104 22:08:29.929698  1533 net.cpp:380] inception_5a/3x3 -> inception_5a/3x3
I0104 22:08:29.941634  1533 net.cpp:122] Setting up inception_5a/3x3
I0104 22:08:29.941661  1533 net.cpp:129] Top shape: 10 320 7 7 (156800)
I0104 22:08:29.941679  1533 net.cpp:137] Memory required for data: 531238400
I0104 22:08:29.941709  1533 layer_factory.hpp:77] Creating layer inception_5a/relu_3x3
I0104 22:08:29.941772  1533 net.cpp:84] Creating Layer inception_5a/relu_3x3
I0104 22:08:29.941792  1533 net.cpp:406] inception_5a/relu_3x3 <- inception_5a/3x3
I0104 22:08:29.941843  1533 net.cpp:367] inception_5a/relu_3x3 -> inception_5a/3x3 (in-place)
I0104 22:08:29.941900  1533 net.cpp:122] Setting up inception_5a/relu_3x3
I0104 22:08:29.941915  1533 net.cpp:129] Top shape: 10 320 7 7 (156800)
I0104 22:08:29.941987  1533 net.cpp:137] Memory required for data: 531865600
I0104 22:08:29.942001  1533 layer_factory.hpp:77] Creating layer inception_5a/5x5_reduce
I0104 22:08:29.942270  1533 net.cpp:84] Creating Layer inception_5a/5x5_reduce
I0104 22:08:29.942287  1533 net.cpp:406] inception_5a/5x5_reduce <- pool4/3x3_s2_pool4/3x3_s2_0_split_2
I0104 22:08:29.942312  1533 net.cpp:380] inception_5a/5x5_reduce -> inception_5a/5x5_reduce
I0104 22:08:29.943681  1533 net.cpp:122] Setting up inception_5a/5x5_reduce
I0104 22:08:29.943702  1533 net.cpp:129] Top shape: 10 32 7 7 (15680)
I0104 22:08:29.943718  1533 net.cpp:137] Memory required for data: 531928320
I0104 22:08:29.943740  1533 layer_factory.hpp:77] Creating layer inception_5a/relu_5x5_reduce
I0104 22:08:29.943759  1533 net.cpp:84] Creating Layer inception_5a/relu_5x5_reduce
I0104 22:08:29.943811  1533 net.cpp:406] inception_5a/relu_5x5_reduce <- inception_5a/5x5_reduce
I0104 22:08:29.943835  1533 net.cpp:367] inception_5a/relu_5x5_reduce -> inception_5a/5x5_reduce (in-place)
I0104 22:08:29.943891  1533 net.cpp:122] Setting up inception_5a/relu_5x5_reduce
I0104 22:08:29.943940  1533 net.cpp:129] Top shape: 10 32 7 7 (15680)
I0104 22:08:29.944135  1533 net.cpp:137] Memory required for data: 531991040
I0104 22:08:29.944157  1533 layer_factory.hpp:77] Creating layer inception_5a/5x5
I0104 22:08:29.944277  1533 net.cpp:84] Creating Layer inception_5a/5x5
I0104 22:08:29.944294  1533 net.cpp:406] inception_5a/5x5 <- inception_5a/5x5_reduce
I0104 22:08:29.944324  1533 net.cpp:380] inception_5a/5x5 -> inception_5a/5x5
I0104 22:08:29.947566  1533 net.cpp:122] Setting up inception_5a/5x5
I0104 22:08:29.947588  1533 net.cpp:129] Top shape: 10 128 7 7 (62720)
I0104 22:08:29.947605  1533 net.cpp:137] Memory required for data: 532241920
I0104 22:08:29.947625  1533 layer_factory.hpp:77] Creating layer inception_5a/relu_5x5
I0104 22:08:29.947773  1533 net.cpp:84] Creating Layer inception_5a/relu_5x5
I0104 22:08:29.947793  1533 net.cpp:406] inception_5a/relu_5x5 <- inception_5a/5x5
I0104 22:08:29.947811  1533 net.cpp:367] inception_5a/relu_5x5 -> inception_5a/5x5 (in-place)
I0104 22:08:29.947831  1533 net.cpp:122] Setting up inception_5a/relu_5x5
I0104 22:08:29.947882  1533 net.cpp:129] Top shape: 10 128 7 7 (62720)
I0104 22:08:29.948058  1533 net.cpp:137] Memory required for data: 532492800
I0104 22:08:29.948074  1533 layer_factory.hpp:77] Creating layer inception_5a/pool
I0104 22:08:29.948101  1533 net.cpp:84] Creating Layer inception_5a/pool
I0104 22:08:29.948221  1533 net.cpp:406] inception_5a/pool <- pool4/3x3_s2_pool4/3x3_s2_0_split_3
I0104 22:08:29.948249  1533 net.cpp:380] inception_5a/pool -> inception_5a/pool
I0104 22:08:29.948475  1533 net.cpp:122] Setting up inception_5a/pool
I0104 22:08:29.948580  1533 net.cpp:129] Top shape: 10 832 7 7 (407680)
I0104 22:08:29.948597  1533 net.cpp:137] Memory required for data: 534123520
I0104 22:08:29.948611  1533 layer_factory.hpp:77] Creating layer inception_5a/pool_proj
I0104 22:08:29.948638  1533 net.cpp:84] Creating Layer inception_5a/pool_proj
I0104 22:08:29.948696  1533 net.cpp:406] inception_5a/pool_proj <- inception_5a/pool
I0104 22:08:29.948829  1533 net.cpp:380] inception_5a/pool_proj -> inception_5a/pool_proj
I0104 22:08:29.952046  1533 net.cpp:122] Setting up inception_5a/pool_proj
I0104 22:08:29.952067  1533 net.cpp:129] Top shape: 10 128 7 7 (62720)
I0104 22:08:29.952083  1533 net.cpp:137] Memory required for data: 534374400
I0104 22:08:29.952103  1533 layer_factory.hpp:77] Creating layer inception_5a/relu_pool_proj
I0104 22:08:29.952160  1533 net.cpp:84] Creating Layer inception_5a/relu_pool_proj
I0104 22:08:29.952177  1533 net.cpp:406] inception_5a/relu_pool_proj <- inception_5a/pool_proj
I0104 22:08:29.952231  1533 net.cpp:367] inception_5a/relu_pool_proj -> inception_5a/pool_proj (in-place)
I0104 22:08:29.952287  1533 net.cpp:122] Setting up inception_5a/relu_pool_proj
I0104 22:08:29.952301  1533 net.cpp:129] Top shape: 10 128 7 7 (62720)
I0104 22:08:29.952353  1533 net.cpp:137] Memory required for data: 534625280
I0104 22:08:29.952407  1533 layer_factory.hpp:77] Creating layer inception_5a/output
I0104 22:08:29.952587  1533 net.cpp:84] Creating Layer inception_5a/output
I0104 22:08:29.952602  1533 net.cpp:406] inception_5a/output <- inception_5a/1x1
I0104 22:08:29.952618  1533 net.cpp:406] inception_5a/output <- inception_5a/3x3
I0104 22:08:29.952741  1533 net.cpp:406] inception_5a/output <- inception_5a/5x5
I0104 22:08:29.952757  1533 net.cpp:406] inception_5a/output <- inception_5a/pool_proj
I0104 22:08:29.952785  1533 net.cpp:380] inception_5a/output -> inception_5a/output
I0104 22:08:29.952955  1533 net.cpp:122] Setting up inception_5a/output
I0104 22:08:29.952970  1533 net.cpp:129] Top shape: 10 832 7 7 (407680)
I0104 22:08:29.952986  1533 net.cpp:137] Memory required for data: 536256000
I0104 22:08:29.952998  1533 layer_factory.hpp:77] Creating layer inception_5a/output_inception_5a/output_0_split
I0104 22:08:29.953131  1533 net.cpp:84] Creating Layer inception_5a/output_inception_5a/output_0_split
I0104 22:08:29.953146  1533 net.cpp:406] inception_5a/output_inception_5a/output_0_split <- inception_5a/output
I0104 22:08:29.953222  1533 net.cpp:380] inception_5a/output_inception_5a/output_0_split -> inception_5a/output_inception_5a/output_0_split_0
I0104 22:08:29.953335  1533 net.cpp:380] inception_5a/output_inception_5a/output_0_split -> inception_5a/output_inception_5a/output_0_split_1
I0104 22:08:29.953357  1533 net.cpp:380] inception_5a/output_inception_5a/output_0_split -> inception_5a/output_inception_5a/output_0_split_2
I0104 22:08:29.953481  1533 net.cpp:380] inception_5a/output_inception_5a/output_0_split -> inception_5a/output_inception_5a/output_0_split_3
I0104 22:08:29.953742  1533 net.cpp:122] Setting up inception_5a/output_inception_5a/output_0_split
I0104 22:08:29.953794  1533 net.cpp:129] Top shape: 10 832 7 7 (407680)
I0104 22:08:29.953811  1533 net.cpp:129] Top shape: 10 832 7 7 (407680)
I0104 22:08:29.953826  1533 net.cpp:129] Top shape: 10 832 7 7 (407680)
I0104 22:08:29.953841  1533 net.cpp:129] Top shape: 10 832 7 7 (407680)
I0104 22:08:29.953881  1533 net.cpp:137] Memory required for data: 542778880
I0104 22:08:29.953894  1533 layer_factory.hpp:77] Creating layer inception_5b/1x1
I0104 22:08:29.953925  1533 net.cpp:84] Creating Layer inception_5b/1x1
I0104 22:08:29.954021  1533 net.cpp:406] inception_5b/1x1 <- inception_5a/output_inception_5a/output_0_split_0
I0104 22:08:29.954051  1533 net.cpp:380] inception_5b/1x1 -> inception_5b/1x1
I0104 22:08:29.962565  1533 net.cpp:122] Setting up inception_5b/1x1
I0104 22:08:29.962592  1533 net.cpp:129] Top shape: 10 384 7 7 (188160)
I0104 22:08:29.962610  1533 net.cpp:137] Memory required for data: 543531520
I0104 22:08:29.962631  1533 layer_factory.hpp:77] Creating layer inception_5b/relu_1x1
I0104 22:08:29.962651  1533 net.cpp:84] Creating Layer inception_5b/relu_1x1
I0104 22:08:29.962704  1533 net.cpp:406] inception_5b/relu_1x1 <- inception_5b/1x1
I0104 22:08:29.962724  1533 net.cpp:367] inception_5b/relu_1x1 -> inception_5b/1x1 (in-place)
I0104 22:08:29.962779  1533 net.cpp:122] Setting up inception_5b/relu_1x1
I0104 22:08:29.962831  1533 net.cpp:129] Top shape: 10 384 7 7 (188160)
I0104 22:08:29.962883  1533 net.cpp:137] Memory required for data: 544284160
I0104 22:08:29.963027  1533 layer_factory.hpp:77] Creating layer inception_5b/3x3_reduce
I0104 22:08:29.963057  1533 net.cpp:84] Creating Layer inception_5b/3x3_reduce
I0104 22:08:29.963198  1533 net.cpp:406] inception_5b/3x3_reduce <- inception_5a/output_inception_5a/output_0_split_1
I0104 22:08:29.963240  1533 net.cpp:380] inception_5b/3x3_reduce -> inception_5b/3x3_reduce
I0104 22:08:29.967874  1533 net.cpp:122] Setting up inception_5b/3x3_reduce
I0104 22:08:29.967893  1533 net.cpp:129] Top shape: 10 192 7 7 (94080)
I0104 22:08:29.967911  1533 net.cpp:137] Memory required for data: 544660480
I0104 22:08:29.967931  1533 layer_factory.hpp:77] Creating layer inception_5b/relu_3x3_reduce
I0104 22:08:29.967949  1533 net.cpp:84] Creating Layer inception_5b/relu_3x3_reduce
I0104 22:08:29.968003  1533 net.cpp:406] inception_5b/relu_3x3_reduce <- inception_5b/3x3_reduce
I0104 22:08:29.968058  1533 net.cpp:367] inception_5b/relu_3x3_reduce -> inception_5b/3x3_reduce (in-place)
I0104 22:08:29.968080  1533 net.cpp:122] Setting up inception_5b/relu_3x3_reduce
I0104 22:08:29.968128  1533 net.cpp:129] Top shape: 10 192 7 7 (94080)
I0104 22:08:29.968179  1533 net.cpp:137] Memory required for data: 545036800
I0104 22:08:29.968235  1533 layer_factory.hpp:77] Creating layer inception_5b/3x3
I0104 22:08:29.968387  1533 net.cpp:84] Creating Layer inception_5b/3x3
I0104 22:08:29.968456  1533 net.cpp:406] inception_5b/3x3 <- inception_5b/3x3_reduce
I0104 22:08:29.968569  1533 net.cpp:380] inception_5b/3x3 -> inception_5b/3x3
I0104 22:08:29.985412  1533 net.cpp:122] Setting up inception_5b/3x3
I0104 22:08:29.985438  1533 net.cpp:129] Top shape: 10 384 7 7 (188160)
I0104 22:08:29.985456  1533 net.cpp:137] Memory required for data: 545789440
I0104 22:08:29.985477  1533 layer_factory.hpp:77] Creating layer inception_5b/relu_3x3
I0104 22:08:29.985497  1533 net.cpp:84] Creating Layer inception_5b/relu_3x3
I0104 22:08:29.985556  1533 net.cpp:406] inception_5b/relu_3x3 <- inception_5b/3x3
I0104 22:08:29.985613  1533 net.cpp:367] inception_5b/relu_3x3 -> inception_5b/3x3 (in-place)
I0104 22:08:29.985672  1533 net.cpp:122] Setting up inception_5b/relu_3x3
I0104 22:08:29.985733  1533 net.cpp:129] Top shape: 10 384 7 7 (188160)
I0104 22:08:29.985867  1533 net.cpp:137] Memory required for data: 546542080
I0104 22:08:29.986009  1533 layer_factory.hpp:77] Creating layer inception_5b/5x5_reduce
I0104 22:08:29.986039  1533 net.cpp:84] Creating Layer inception_5b/5x5_reduce
I0104 22:08:29.986054  1533 net.cpp:406] inception_5b/5x5_reduce <- inception_5a/output_inception_5a/output_0_split_2
I0104 22:08:29.986181  1533 net.cpp:380] inception_5b/5x5_reduce -> inception_5b/5x5_reduce
I0104 22:08:29.987843  1533 net.cpp:122] Setting up inception_5b/5x5_reduce
I0104 22:08:29.987864  1533 net.cpp:129] Top shape: 10 48 7 7 (23520)
I0104 22:08:29.987882  1533 net.cpp:137] Memory required for data: 546636160
I0104 22:08:29.987902  1533 layer_factory.hpp:77] Creating layer inception_5b/relu_5x5_reduce
I0104 22:08:29.987920  1533 net.cpp:84] Creating Layer inception_5b/relu_5x5_reduce
I0104 22:08:29.988020  1533 net.cpp:406] inception_5b/relu_5x5_reduce <- inception_5b/5x5_reduce
I0104 22:08:29.988041  1533 net.cpp:367] inception_5b/relu_5x5_reduce -> inception_5b/5x5_reduce (in-place)
I0104 22:08:29.988131  1533 net.cpp:122] Setting up inception_5b/relu_5x5_reduce
I0104 22:08:29.988145  1533 net.cpp:129] Top shape: 10 48 7 7 (23520)
I0104 22:08:29.988332  1533 net.cpp:137] Memory required for data: 546730240
I0104 22:08:29.988471  1533 layer_factory.hpp:77] Creating layer inception_5b/5x5
I0104 22:08:29.988507  1533 net.cpp:84] Creating Layer inception_5b/5x5
I0104 22:08:29.988523  1533 net.cpp:406] inception_5b/5x5 <- inception_5b/5x5_reduce
I0104 22:08:29.988654  1533 net.cpp:380] inception_5b/5x5 -> inception_5b/5x5
I0104 22:08:29.993052  1533 net.cpp:122] Setting up inception_5b/5x5
I0104 22:08:29.993072  1533 net.cpp:129] Top shape: 10 128 7 7 (62720)
I0104 22:08:29.993088  1533 net.cpp:137] Memory required for data: 546981120
I0104 22:08:29.993108  1533 layer_factory.hpp:77] Creating layer inception_5b/relu_5x5
I0104 22:08:29.993163  1533 net.cpp:84] Creating Layer inception_5b/relu_5x5
I0104 22:08:29.993180  1533 net.cpp:406] inception_5b/relu_5x5 <- inception_5b/5x5
I0104 22:08:29.993232  1533 net.cpp:367] inception_5b/relu_5x5 -> inception_5b/5x5 (in-place)
I0104 22:08:29.993254  1533 net.cpp:122] Setting up inception_5b/relu_5x5
I0104 22:08:29.993302  1533 net.cpp:129] Top shape: 10 128 7 7 (62720)
I0104 22:08:29.993353  1533 net.cpp:137] Memory required for data: 547232000
I0104 22:08:29.993563  1533 layer_factory.hpp:77] Creating layer inception_5b/pool
I0104 22:08:29.993657  1533 net.cpp:84] Creating Layer inception_5b/pool
I0104 22:08:29.993674  1533 net.cpp:406] inception_5b/pool <- inception_5a/output_inception_5a/output_0_split_3
I0104 22:08:29.993702  1533 net.cpp:380] inception_5b/pool -> inception_5b/pool
I0104 22:08:29.994050  1533 net.cpp:122] Setting up inception_5b/pool
I0104 22:08:29.994067  1533 net.cpp:129] Top shape: 10 832 7 7 (407680)
I0104 22:08:29.994101  1533 net.cpp:137] Memory required for data: 548862720
I0104 22:08:29.994114  1533 layer_factory.hpp:77] Creating layer inception_5b/pool_proj
I0104 22:08:29.994164  1533 net.cpp:84] Creating Layer inception_5b/pool_proj
I0104 22:08:29.994215  1533 net.cpp:406] inception_5b/pool_proj <- inception_5b/pool
I0104 22:08:29.994387  1533 net.cpp:380] inception_5b/pool_proj -> inception_5b/pool_proj
I0104 22:08:29.997664  1533 net.cpp:122] Setting up inception_5b/pool_proj
I0104 22:08:29.997691  1533 net.cpp:129] Top shape: 10 128 7 7 (62720)
I0104 22:08:29.997709  1533 net.cpp:137] Memory required for data: 549113600
I0104 22:08:29.997728  1533 layer_factory.hpp:77] Creating layer inception_5b/relu_pool_proj
I0104 22:08:29.997786  1533 net.cpp:84] Creating Layer inception_5b/relu_pool_proj
I0104 22:08:29.997838  1533 net.cpp:406] inception_5b/relu_pool_proj <- inception_5b/pool_proj
I0104 22:08:29.997890  1533 net.cpp:367] inception_5b/relu_pool_proj -> inception_5b/pool_proj (in-place)
I0104 22:08:29.997983  1533 net.cpp:122] Setting up inception_5b/relu_pool_proj
I0104 22:08:29.997997  1533 net.cpp:129] Top shape: 10 128 7 7 (62720)
I0104 22:08:29.998172  1533 net.cpp:137] Memory required for data: 549364480
I0104 22:08:29.998190  1533 layer_factory.hpp:77] Creating layer inception_5b/output
I0104 22:08:29.998338  1533 net.cpp:84] Creating Layer inception_5b/output
I0104 22:08:29.998354  1533 net.cpp:406] inception_5b/output <- inception_5b/1x1
I0104 22:08:29.998425  1533 net.cpp:406] inception_5b/output <- inception_5b/3x3
I0104 22:08:29.998569  1533 net.cpp:406] inception_5b/output <- inception_5b/5x5
I0104 22:08:29.998594  1533 net.cpp:406] inception_5b/output <- inception_5b/pool_proj
I0104 22:08:29.998612  1533 net.cpp:380] inception_5b/output -> inception_5b/output
I0104 22:08:29.998819  1533 net.cpp:122] Setting up inception_5b/output
I0104 22:08:29.998836  1533 net.cpp:129] Top shape: 10 1024 7 7 (501760)
I0104 22:08:29.998853  1533 net.cpp:137] Memory required for data: 551371520
I0104 22:08:29.998998  1533 layer_factory.hpp:77] Creating layer pool5/7x7_s1
I0104 22:08:29.999035  1533 net.cpp:84] Creating Layer pool5/7x7_s1
I0104 22:08:29.999106  1533 net.cpp:406] pool5/7x7_s1 <- inception_5b/output
I0104 22:08:29.999222  1533 net.cpp:380] pool5/7x7_s1 -> pool5/7x7_s1
I0104 22:08:29.999405  1533 net.cpp:122] Setting up pool5/7x7_s1
I0104 22:08:29.999424  1533 net.cpp:129] Top shape: 10 1024 1 1 (10240)
I0104 22:08:29.999440  1533 net.cpp:137] Memory required for data: 551412480
I0104 22:08:29.999560  1533 layer_factory.hpp:77] Creating layer pool5/drop_7x7_s1
I0104 22:08:29.999581  1533 net.cpp:84] Creating Layer pool5/drop_7x7_s1
I0104 22:08:29.999595  1533 net.cpp:406] pool5/drop_7x7_s1 <- pool5/7x7_s1
I0104 22:08:29.999747  1533 net.cpp:367] pool5/drop_7x7_s1 -> pool5/7x7_s1 (in-place)
I0104 22:08:29.999861  1533 net.cpp:122] Setting up pool5/drop_7x7_s1
I0104 22:08:29.999877  1533 net.cpp:129] Top shape: 10 1024 1 1 (10240)
I0104 22:08:29.999893  1533 net.cpp:137] Memory required for data: 551453440
I0104 22:08:29.999907  1533 layer_factory.hpp:77] Creating layer loss3/classifier
I0104 22:08:30.000057  1533 net.cpp:84] Creating Layer loss3/classifier
I0104 22:08:30.000078  1533 net.cpp:406] loss3/classifier <- pool5/7x7_s1
I0104 22:08:30.000182  1533 net.cpp:380] loss3/classifier -> loss3/classifier
I0104 22:08:30.025624  1533 net.cpp:122] Setting up loss3/classifier
I0104 22:08:30.025652  1533 net.cpp:129] Top shape: 10 1000 (10000)
I0104 22:08:30.025671  1533 net.cpp:137] Memory required for data: 551493440
I0104 22:08:30.025701  1533 layer_factory.hpp:77] Creating layer prob
I0104 22:08:30.025723  1533 net.cpp:84] Creating Layer prob
I0104 22:08:30.025779  1533 net.cpp:406] prob <- loss3/classifier
I0104 22:08:30.025833  1533 net.cpp:380] prob -> prob
I0104 22:08:30.026172  1533 net.cpp:122] Setting up prob
I0104 22:08:30.026192  1533 net.cpp:129] Top shape: 10 1000 (10000)
I0104 22:08:30.026207  1533 net.cpp:137] Memory required for data: 551533440
I0104 22:08:30.026224  1533 net.cpp:200] prob does not need backward computation.
I0104 22:08:30.026252  1533 net.cpp:200] loss3/classifier does not need backward computation.
I0104 22:08:30.026302  1533 net.cpp:200] pool5/drop_7x7_s1 does not need backward computation.
I0104 22:08:30.026317  1533 net.cpp:200] pool5/7x7_s1 does not need backward computation.
…
