…
I0104 23:05:28.758075  1656 common.cpp:199] Number of multiprocessors:     2
I0104 23:05:28.758087  1656 common.cpp:200] Kernel execution timeout:      No
$ caffe/build/tools/caffe time --model=caffe/models/bvlc_alexnet/deploy.prototxt -gpu 0 -iterations 200
I0104 23:05:28.828775  1657 caffe.cpp:348] Use GPU with device ID 0
I0104 23:05:29.624215  1657 net.cpp:51] Initializing net from parameters: 
name: "AlexNet"
state {
  phase: TRAIN
  level: 0
  stage: ""
}
layer {
  name: "data"
  type: "Input"
  top: "data"
  input_param {
    shape {
      dim: 10
      dim: 3
      dim: 227
      dim: 227
    }
  }
}
layer {
  name: "conv1"
  type: "Convolution"
  bottom: "data"
  top: "conv1"
  param {
    lr_mult: 1
    decay_mult: 1
  }
  param {
    lr_mult: 2
    decay_mult: 0
  }
  convolution_param {
    num_output: 96
    kernel_size: 11
    stride: 4
  }
}
layer {
  name: "relu1"
  type: "ReLU"
  bottom: "conv1"
  top: "conv1"
}
layer {
  name: "norm1"
  type: "LRN"
  bottom: "conv1"
  top: "norm1"
  lrn_param {
    local_size: 5
    alpha: 0.0001
    beta: 0.75
  }
}
layer {
  name: "pool1"
  type: "Pooling"
  bottom: "norm1"
  top: "pool1"
  pooling_param {
    pool: MAX
    kernel_size: 3
    stride: 2
  }
}
layer {
  name: "conv2"
  type: "Convolution"
  bottom: "pool1"
  top: "conv2"
  param {
    lr_mult: 1
    decay_mult: 1
  }
  param {
    lr_mult: 2
    decay_mult: 0
  }
  convolution_param {
    num_output: 256
    pad: 2
    kernel_size: 5
    group: 2
  }
}
layer {
  name: "relu2"
  type: "ReLU"
  bottom: "conv2"
  top: "conv2"
}
layer {
  name: "norm2"
  type: "LRN"
  bottom: "conv2"
  top: "norm2"
  lrn_param {
    local_size: 5
    alpha: 0.0001
    beta: 0.75
  }
}
layer {
  name: "pool2"
  type: "Pooling"
  bottom: "norm2"
  top: "pool2"
  pooling_param {
    pool: MAX
    kernel_size: 3
    stride: 2
  }
}
layer {
  name: "conv3"
  type: "Convolution"
  bottom: "pool2"
  top: "conv3"
  param {
    lr_mult: 1
    decay_mult: 1
  }
  param {
    lr_mult: 2
    decay_mult: 0
  }
  convolution_param {
    num_output: 384
    pad: 1
    kernel_size: 3
  }
}
layer {
  name: "relu3"
  type: "ReLU"
  bottom: "conv3"
  top: "conv3"
}
layer {
  name: "conv4"
  type: "Convolution"
  bottom: "conv3"
  top: "conv4"
  param {
    lr_mult: 1
    decay_mult: 1
  }
  param {
    lr_mult: 2
    decay_mult: 0
  }
  convolution_param {
    num_output: 384
    pad: 1
    kernel_size: 3
    group: 2
  }
}
layer {
  name: "relu4"
  type: "ReLU"
  bottom: "conv4"
  top: "conv4"
}
layer {
  name: "conv5"
  type: "Convolution"
  bottom: "conv4"
  top: "conv5"
  param {
    lr_mult: 1
    decay_mult: 1
  }
  param {
    lr_mult: 2
    decay_mult: 0
  }
  convolution_param {
    num_output: 256
    pad: 1
    kernel_size: 3
    group: 2
  }
}
layer {
  name: "relu5"
  type: "ReLU"
  bottom: "conv5"
  top: "conv5"
}
layer {
  name: "pool5"
  type: "Pooling"
  bottom: "conv5"
  top: "pool5"
  pooling_param {
    pool: MAX
    kernel_size: 3
    stride: 2
  }
}
layer {
  name: "fc6"
  type: "InnerProduct"
  bottom: "pool5"
  top: "fc6"
  param {
    lr_mult: 1
    decay_mult: 1
  }
  param {
    lr_mult: 2
    decay_mult: 0
  }
  inner_product_param {
    num_output: 4096
  }
}
layer {
  name: "relu6"
  type: "ReLU"
  bottom: "fc6"
  top: "fc6"
}
layer {
  name: "drop6"
  type: "Dropout"
  bottom: "fc6"
  top: "fc6"
  dropout_param {
    dropout_ratio: 0.5
  }
}
layer {
  name: "fc7"
  type: "InnerProduct"
  bottom: "fc6"
  top: "fc7"
  param {
    lr_mult: 1
    decay_mult: 1
  }
  param {
    lr_mult: 2
    decay_mult: 0
  }
  inner_product_param {
    num_output: 4096
  }
}
layer {
  name: "relu7"
  type: "ReLU"
  bottom: "fc7"
  top: "fc7"
}
layer {
  name: "drop7"
  type: "Dropout"
  bottom: "fc7"
  top: "fc7"
  dropout_param {
    dropout_ratio: 0.5
  }
}
layer {
  name: "fc8"
  type: "InnerProduct"
  bottom: "fc7"
  top: "fc8"
  param {
    lr_mult: 1
    decay_mult: 1
  }
  param {
    lr_mult: 2
    decay_mult: 0
  }
  inner_product_param {
    num_output: 1000
  }
}
layer {
  name: "prob"
  type: "Softmax"
  bottom: "fc8"
  top: "prob"
}
I0104 23:05:29.625188  1657 layer_factory.hpp:77] Creating layer data
I0104 23:05:29.625233  1657 net.cpp:84] Creating Layer data
I0104 23:05:29.625279  1657 net.cpp:380] data -> data
I0104 23:05:29.773710  1657 net.cpp:122] Setting up data
I0104 23:05:29.773763  1657 net.cpp:129] Top shape: 10 3 227 227 (1545870)
I0104 23:05:29.773934  1657 net.cpp:137] Memory required for data: 6183480
I0104 23:05:29.774001  1657 layer_factory.hpp:77] Creating layer conv1
I0104 23:05:29.774092  1657 net.cpp:84] Creating Layer conv1
I0104 23:05:29.774147  1657 net.cpp:406] conv1 <- data
I0104 23:05:29.774176  1657 net.cpp:380] conv1 -> conv1
I0104 23:05:29.777216  1657 net.cpp:122] Setting up conv1
I0104 23:05:29.777257  1657 net.cpp:129] Top shape: 10 96 55 55 (2904000)
I0104 23:05:29.777279  1657 net.cpp:137] Memory required for data: 17799480
I0104 23:05:29.777417  1657 layer_factory.hpp:77] Creating layer relu1
I0104 23:05:29.777483  1657 net.cpp:84] Creating Layer relu1
I0104 23:05:29.777500  1657 net.cpp:406] relu1 <- conv1
I0104 23:05:29.777519  1657 net.cpp:367] relu1 -> conv1 (in-place)
I0104 23:05:29.777631  1657 net.cpp:122] Setting up relu1
I0104 23:05:29.777678  1657 net.cpp:129] Top shape: 10 96 55 55 (2904000)
I0104 23:05:29.777698  1657 net.cpp:137] Memory required for data: 29415480
I0104 23:05:29.777712  1657 layer_factory.hpp:77] Creating layer norm1
I0104 23:05:29.777734  1657 net.cpp:84] Creating Layer norm1
I0104 23:05:29.777806  1657 net.cpp:406] norm1 <- conv1
I0104 23:05:29.777992  1657 net.cpp:380] norm1 -> norm1
I0104 23:05:29.778363  1657 net.cpp:122] Setting up norm1
I0104 23:05:29.778384  1657 net.cpp:129] Top shape: 10 96 55 55 (2904000)
I0104 23:05:29.778403  1657 net.cpp:137] Memory required for data: 41031480
I0104 23:05:29.778419  1657 layer_factory.hpp:77] Creating layer pool1
I0104 23:05:29.778487  1657 net.cpp:84] Creating Layer pool1
I0104 23:05:29.778506  1657 net.cpp:406] pool1 <- norm1
I0104 23:05:29.778559  1657 net.cpp:380] pool1 -> pool1
I0104 23:05:29.778903  1657 net.cpp:122] Setting up pool1
I0104 23:05:29.778924  1657 net.cpp:129] Top shape: 10 96 27 27 (699840)
I0104 23:05:29.778944  1657 net.cpp:137] Memory required for data: 43830840
I0104 23:05:29.778960  1657 layer_factory.hpp:77] Creating layer conv2
I0104 23:05:29.778983  1657 net.cpp:84] Creating Layer conv2
I0104 23:05:29.779047  1657 net.cpp:406] conv2 <- pool1
I0104 23:05:29.779101  1657 net.cpp:380] conv2 -> conv2
I0104 23:05:29.782896  1657 net.cpp:122] Setting up conv2
I0104 23:05:29.782934  1657 net.cpp:129] Top shape: 10 256 27 27 (1866240)
I0104 23:05:29.782956  1657 net.cpp:137] Memory required for data: 51295800
I0104 23:05:29.782987  1657 layer_factory.hpp:77] Creating layer relu2
I0104 23:05:29.783067  1657 net.cpp:84] Creating Layer relu2
I0104 23:05:29.783087  1657 net.cpp:406] relu2 <- conv2
I0104 23:05:29.783193  1657 net.cpp:367] relu2 -> conv2 (in-place)
I0104 23:05:29.783248  1657 net.cpp:122] Setting up relu2
I0104 23:05:29.783262  1657 net.cpp:129] Top shape: 10 256 27 27 (1866240)
I0104 23:05:29.783279  1657 net.cpp:137] Memory required for data: 58760760
I0104 23:05:29.783402  1657 layer_factory.hpp:77] Creating layer norm2
I0104 23:05:29.783460  1657 net.cpp:84] Creating Layer norm2
I0104 23:05:29.783638  1657 net.cpp:406] norm2 <- conv2
I0104 23:05:29.783663  1657 net.cpp:380] norm2 -> norm2
I0104 23:05:29.783951  1657 net.cpp:122] Setting up norm2
I0104 23:05:29.784075  1657 net.cpp:129] Top shape: 10 256 27 27 (1866240)
I0104 23:05:29.784095  1657 net.cpp:137] Memory required for data: 66225720
I0104 23:05:29.784109  1657 layer_factory.hpp:77] Creating layer pool2
I0104 23:05:29.784322  1657 net.cpp:84] Creating Layer pool2
I0104 23:05:29.784411  1657 net.cpp:406] pool2 <- norm2
I0104 23:05:29.784435  1657 net.cpp:380] pool2 -> pool2
I0104 23:05:29.784642  1657 net.cpp:122] Setting up pool2
I0104 23:05:29.784659  1657 net.cpp:129] Top shape: 10 256 13 13 (432640)
I0104 23:05:29.784677  1657 net.cpp:137] Memory required for data: 67956280
I0104 23:05:29.784824  1657 layer_factory.hpp:77] Creating layer conv3
I0104 23:05:29.784850  1657 net.cpp:84] Creating Layer conv3
I0104 23:05:29.784865  1657 net.cpp:406] conv3 <- pool2
I0104 23:05:29.784950  1657 net.cpp:380] conv3 -> conv3
I0104 23:05:29.790110  1657 net.cpp:122] Setting up conv3
I0104 23:05:29.790144  1657 net.cpp:129] Top shape: 10 384 13 13 (648960)
I0104 23:05:29.790165  1657 net.cpp:137] Memory required for data: 70552120
I0104 23:05:29.790385  1657 layer_factory.hpp:77] Creating layer relu3
I0104 23:05:29.790411  1657 net.cpp:84] Creating Layer relu3
I0104 23:05:29.790427  1657 net.cpp:406] relu3 <- conv3
I0104 23:05:29.790446  1657 net.cpp:367] relu3 -> conv3 (in-place)
I0104 23:05:29.790555  1657 net.cpp:122] Setting up relu3
I0104 23:05:29.790717  1657 net.cpp:129] Top shape: 10 384 13 13 (648960)
I0104 23:05:29.790740  1657 net.cpp:137] Memory required for data: 73147960
I0104 23:05:29.790755  1657 layer_factory.hpp:77] Creating layer conv4
I0104 23:05:29.790948  1657 net.cpp:84] Creating Layer conv4
I0104 23:05:29.790963  1657 net.cpp:406] conv4 <- conv3
I0104 23:05:29.791069  1657 net.cpp:380] conv4 -> conv4
I0104 23:05:29.795224  1657 net.cpp:122] Setting up conv4
I0104 23:05:29.795258  1657 net.cpp:129] Top shape: 10 384 13 13 (648960)
I0104 23:05:29.795277  1657 net.cpp:137] Memory required for data: 75743800
I0104 23:05:29.795320  1657 layer_factory.hpp:77] Creating layer relu4
I0104 23:05:29.795397  1657 net.cpp:84] Creating Layer relu4
I0104 23:05:29.795415  1657 net.cpp:406] relu4 <- conv4
I0104 23:05:29.795521  1657 net.cpp:367] relu4 -> conv4 (in-place)
I0104 23:05:29.795574  1657 net.cpp:122] Setting up relu4
I0104 23:05:29.795588  1657 net.cpp:129] Top shape: 10 384 13 13 (648960)
I0104 23:05:29.795604  1657 net.cpp:137] Memory required for data: 78339640
I0104 23:05:29.795663  1657 layer_factory.hpp:77] Creating layer conv5
I0104 23:05:29.795856  1657 net.cpp:84] Creating Layer conv5
I0104 23:05:29.795873  1657 net.cpp:406] conv5 <- conv4
I0104 23:05:29.795958  1657 net.cpp:380] conv5 -> conv5
I0104 23:05:29.799080  1657 net.cpp:122] Setting up conv5
I0104 23:05:29.799111  1657 net.cpp:129] Top shape: 10 256 13 13 (432640)
I0104 23:05:29.799134  1657 net.cpp:137] Memory required for data: 80070200
I0104 23:05:29.799161  1657 layer_factory.hpp:77] Creating layer relu5
I0104 23:05:29.799238  1657 net.cpp:84] Creating Layer relu5
I0104 23:05:29.799257  1657 net.cpp:406] relu5 <- conv5
I0104 23:05:29.799367  1657 net.cpp:367] relu5 -> conv5 (in-place)
I0104 23:05:29.799389  1657 net.cpp:122] Setting up relu5
I0104 23:05:29.799403  1657 net.cpp:129] Top shape: 10 256 13 13 (432640)
I0104 23:05:29.799468  1657 net.cpp:137] Memory required for data: 81800760
I0104 23:05:29.799572  1657 layer_factory.hpp:77] Creating layer pool5
I0104 23:05:29.799793  1657 net.cpp:84] Creating Layer pool5
I0104 23:05:29.799809  1657 net.cpp:406] pool5 <- conv5
I0104 23:05:29.799947  1657 net.cpp:380] pool5 -> pool5
I0104 23:05:29.800150  1657 net.cpp:122] Setting up pool5
I0104 23:05:29.800169  1657 net.cpp:129] Top shape: 10 256 6 6 (92160)
I0104 23:05:29.800187  1657 net.cpp:137] Memory required for data: 82169400
I0104 23:05:29.800202  1657 layer_factory.hpp:77] Creating layer fc6
I0104 23:05:29.800353  1657 net.cpp:84] Creating Layer fc6
I0104 23:05:29.800369  1657 net.cpp:406] fc6 <- pool5
I0104 23:05:29.800436  1657 net.cpp:380] fc6 -> fc6
I0104 23:05:29.978619  1657 net.cpp:122] Setting up fc6
I0104 23:05:29.978674  1657 net.cpp:129] Top shape: 10 4096 (40960)
I0104 23:05:29.978699  1657 net.cpp:137] Memory required for data: 82333240
I0104 23:05:29.978729  1657 layer_factory.hpp:77] Creating layer relu6
I0104 23:05:29.978760  1657 net.cpp:84] Creating Layer relu6
I0104 23:05:29.978847  1657 net.cpp:406] relu6 <- fc6
I0104 23:05:29.978919  1657 net.cpp:367] relu6 -> fc6 (in-place)
I0104 23:05:29.978976  1657 net.cpp:122] Setting up relu6
I0104 23:05:29.978991  1657 net.cpp:129] Top shape: 10 4096 (40960)
I0104 23:05:29.979009  1657 net.cpp:137] Memory required for data: 82497080
I0104 23:05:29.979070  1657 layer_factory.hpp:77] Creating layer drop6
I0104 23:05:29.979434  1657 net.cpp:84] Creating Layer drop6
I0104 23:05:29.979477  1657 net.cpp:406] drop6 <- fc6
I0104 23:05:29.979498  1657 net.cpp:367] drop6 -> fc6 (in-place)
I0104 23:05:29.979703  1657 net.cpp:122] Setting up drop6
I0104 23:05:29.979723  1657 net.cpp:129] Top shape: 10 4096 (40960)
I0104 23:05:29.979745  1657 net.cpp:137] Memory required for data: 82660920
I0104 23:05:29.979950  1657 layer_factory.hpp:77] Creating layer fc7
I0104 23:05:29.979977  1657 net.cpp:84] Creating Layer fc7
I0104 23:05:29.980135  1657 net.cpp:406] fc7 <- fc6
I0104 23:05:29.980159  1657 net.cpp:380] fc7 -> fc7
I0104 23:05:30.059183  1657 net.cpp:122] Setting up fc7
I0104 23:05:30.059234  1657 net.cpp:129] Top shape: 10 4096 (40960)
I0104 23:05:30.059258  1657 net.cpp:137] Memory required for data: 82824760
I0104 23:05:30.059288  1657 layer_factory.hpp:77] Creating layer relu7
I0104 23:05:30.059336  1657 net.cpp:84] Creating Layer relu7
I0104 23:05:30.059418  1657 net.cpp:406] relu7 <- fc7
I0104 23:05:30.059530  1657 net.cpp:367] relu7 -> fc7 (in-place)
I0104 23:05:30.059588  1657 net.cpp:122] Setting up relu7
I0104 23:05:30.059603  1657 net.cpp:129] Top shape: 10 4096 (40960)
I0104 23:05:30.059619  1657 net.cpp:137] Memory required for data: 82988600
I0104 23:05:30.059679  1657 layer_factory.hpp:77] Creating layer drop7
I0104 23:05:30.059787  1657 net.cpp:84] Creating Layer drop7
I0104 23:05:30.059834  1657 net.cpp:406] drop7 <- fc7
I0104 23:05:30.059854  1657 net.cpp:367] drop7 -> fc7 (in-place)
I0104 23:05:30.060122  1657 net.cpp:122] Setting up drop7
I0104 23:05:30.060142  1657 net.cpp:129] Top shape: 10 4096 (40960)
I0104 23:05:30.060163  1657 net.cpp:137] Memory required for data: 83152440
I0104 23:05:30.060178  1657 layer_factory.hpp:77] Creating layer fc8
I0104 23:05:30.060489  1657 net.cpp:84] Creating Layer fc8
I0104 23:05:30.060508  1657 net.cpp:406] fc8 <- fc7
I0104 23:05:30.060528  1657 net.cpp:380] fc8 -> fc8
I0104 23:05:30.080345  1657 net.cpp:122] Setting up fc8
I0104 23:05:30.080385  1657 net.cpp:129] Top shape: 10 1000 (10000)
I0104 23:05:30.080407  1657 net.cpp:137] Memory required for data: 83192440
I0104 23:05:30.080433  1657 layer_factory.hpp:77] Creating layer prob
I0104 23:05:30.080459  1657 net.cpp:84] Creating Layer prob
I0104 23:05:30.080540  1657 net.cpp:406] prob <- fc8
I0104 23:05:30.080659  1657 net.cpp:380] prob -> prob
I0104 23:05:30.081064  1657 net.cpp:122] Setting up prob
I0104 23:05:30.081086  1657 net.cpp:129] Top shape: 10 1000 (10000)
I0104 23:05:30.081107  1657 net.cpp:137] Memory required for data: 83232440
I0104 23:05:30.081123  1657 net.cpp:200] prob does not need backward computation.
I0104 23:05:30.081154  1657 net.cpp:200] fc8 does not need backward computation.
I0104 23:05:30.081217  1657 net.cpp:200] drop7 does not need backward computation.
I0104 23:05:30.081274  1657 net.cpp:200] relu7 does not need backward computation.
…
I0104 23:06:10.874881  1657 caffe.cpp:423] Total Time: 40547.5 ms.
I0104 23:06:10.874905  1657 caffe.cpp:424] *** Benchmark ends ***
$ caffe/build/tools/caffe time --model=caffe/models/bvlc_googlenet/deploy.prototxt -gpu 0 -iterations 200
I0104 23:06:11.062639  1659 caffe.cpp:348] Use GPU with device ID 0
I0104 23:06:11.602720  1659 net.cpp:51] Initializing net from parameters: 
name: "GoogleNet"
state {
  phase: TRAIN
  level: 0
  stage: ""
}
layer {
  name: "data"
  type: "Input"
  top: "data"
  input_param {
    shape {
      dim: 10
      dim: 3
      dim: 224
      dim: 224
    }
  }
}
layer {
  name: "conv1/7x7_s2"
  type: "Convolution"
  bottom: "data"
  top: "conv1/7x7_s2"
  param {
    lr_mult: 1
    decay_mult: 1
  }
  param {
    lr_mult: 2
    decay_mult: 0
  }
  convolution_param {
    num_output: 64
    pad: 3
    kernel_size: 7
    stride: 2
    weight_filler {
      type: "xavier"
      std: 0.1
    }
    bias_filler {
      type: "constant"
      value: 0.2
    }
  }
}
layer {
  name: "conv1/relu_7x7"
  type: "ReLU"
  bottom: "conv1/7x7_s2"
  top: "conv1/7x7_s2"
}
layer {
  name: "pool1/3x3_s2"
  type: "Pooling"
  bottom: "conv1/7x7_s2"
  top: "pool1/3x3_s2"
  pooling_param {
    pool: MAX
    kernel_size: 3
    stride: 2
  }
}
layer {
  name: "pool1/norm1"
  type: "LRN"
  bottom: "pool1/3x3_s2"
  top: "pool1/norm1"
  lrn_param {
    local_size: 5
    alpha: 0.0001
    beta: 0.75
  }
}
layer {
  name: "conv2/3x3_reduce"
  type: "Convolution"
  bottom: "pool1/norm1"
  top: "conv2/3x3_reduce"
  param {
    lr_mult: 1
    decay_mult: 1
  }
  param {
    lr_mult: 2
    decay_mult: 0
  }
  convolution_param {
    num_output: 64
    kernel_size: 1
    weight_filler {
      type: "xavier"
      std: 0.1
    }
    bias_filler {
      type: "constant"
      value: 0.2
    }
  }
}
layer {
  name: "conv2/relu_3x3_reduce"
  type: "ReLU"
  bottom: "conv2/3x3_reduce"
  top: "conv2/3x3_reduce"
}
layer {
  name: "conv2/3x3"
  type: "Convolution"
  bottom: "conv2/3x3_reduce"
  top: "conv2/3x3"
  param {
    lr_mult: 1
    decay_mult: 1
  }
  param {
    lr_mult: 2
    decay_mult: 0
  }
  convolution_param {
    num_output: 192
    pad: 1
    kernel_size: 3
    weight_filler {
      type: "xavier"
      std: 0.03
    }
    bias_filler {
      type: "constant"
      value: 0.2
    }
  }
}
layer {
  name: "conv2/relu_3x3"
  type: "ReLU"
  bottom: "conv2/3x3"
  top: "conv2/3x3"
}
layer {
  name: "conv2/norm2"
  type: "LRN"
  bottom: "conv2/3x3"
  top: "conv2/norm2"
  lrn_param {
    local_size: 5
    alpha: 0.0001
    beta: 0.75
  }
}
layer {
  name: "pool2/3x3_s2"
  type: "Pooling"
  bottom: "conv2/norm2"
  top: "pool2/3x3_s2"
  pooling_param {
    pool: MAX
    kernel_size: 3
    stride: 2
  }
}
layer {
  name: "inception_3a/1x1"
  type: "Convolution"
  bottom: "pool2/3x3_s2"
  top: "inception_3a/1x1"
  param {
    lr_mult: 1
    decay_mult: 1
  }
  param {
    lr_mult: 2
    decay_mult: 0
  }
  convolution_param {
    num_output: 64
    kernel_size: 1
    weight_filler {
      type: "xavier"
      std: 0.03
    }
    bias_filler {
      type: "constant"
      value: 0.2
    }
  }
}
layer {
  name: "inception_3a/relu_1x1"
  type: "ReLU"
  bottom: "inception_3a/1x1"
  top: "inception_3a/1x1"
}
layer {
  name: "inception_3a/3x3_reduce"
  type: "Convolution"
  bottom: "pool2/3x3_s2"
  top: "inception_3a/3x3_reduce"
  param {
    lr_mult: 1
    decay_mult: 1
  }
  param {
    lr_mult: 2
    decay_mult: 0
  }
  convolution_param {
    num_output: 96
    kernel_size: 1
    weight_filler {
      type: "xavier"
      std: 0.09
    }
    bias_filler {
      type: "constant"
      value: 0.2
    }
  }
}
layer {
  name: "inception_3a/relu_3x3_reduce"
  type: "ReLU"
  bottom: "inception_3a/3x3_reduce"
  top: "inception_3a/3x3_reduce"
}
layer {
  name: "inception_3a/3x3"
  type: "Convolution"
  bottom: "inception_3a/3x3_reduce"
  top: "inception_3a/3x3"
  param {
    lr_mult: 1
    decay_mult: 1
  }
  param {
    lr_mult: 2
    decay_mult: 0
  }
  convolution_param {
    num_output: 128
    pad: 1
    kernel_size: 3
    weight_filler {
      type: "xavier"
      std: 0.03
    }
    bias_filler {
      type: "constant"
      value: 0.2
    }
  }
}
layer {
  name: "inception_3a/relu_3x3"
  type: "ReLU"
  bottom: "inception_3a/3x3"
  top: "inception_3a/3x3"
}
layer {
  name: "inception_3a/5x5_reduce"
  type: "Convolution"
  bottom: "pool2/3x3_s2"
  top: "inception_3a/5x5_reduce"
  param {
    lr_mult: 1
    decay_mult: 1
  }
  param {
    lr_mult: 2
    decay_mult: 0
  }
  convolution_param {
    num_output: 16
    kernel_size: 1
    weight_filler {
      type: "xavier"
      std: 0.2
    }
    bias_filler {
      type: "constant"
      value: 0.2
    }
  }
}
layer {
  name: "inception_3a/relu_5x5_reduce"
  type: "ReLU"
  bottom: "inception_3a/5x5_reduce"
  top: "inception_3a/5x5_reduce"
}
layer {
  name: "inception_3a/5x5"
  type: "Convolution"
  bottom: "inception_3a/5x5_reduce"
  top: "inception_3a/5x5"
  param {
    lr_mult: 1
    decay_mult: 1
  }
  param {
    lr_mult: 2
    decay_mult: 0
  }
  convolution_param {
    num_output: 32
    pad: 2
    kernel_size: 5
    weight_filler {
      type: "xavier"
      std: 0.03
    }
    bias_filler {
      type: "constant"
      value: 0.2
    }
  }
}
layer {
  name: "inception_3a/relu_5x5"
  type: "ReLU"
  bottom: "inception_3a/5x5"
  top: "inception_3a/5x5"
}
layer {
  name: "inception_3a/pool"
  type: "Pooling"
  bottom: "pool2/3x3_s2"
  top: "inception_3a/pool"
  pooling_param {
    pool: MAX
    kernel_size: 3
    stride: 1
    pad: 1
  }
}
layer {
  name: "inception_3a/pool_proj"
  type: "Convolution"
  bottom: "inception_3a/pool"
  top: "inception_3a/pool_proj"
  param {
    lr_mult: 1
    decay_mult: 1
  }
  param {
    lr_mult: 2
    decay_mult: 0
  }
  convolution_param {
    num_output: 32
    kernel_size: 1
    weight_filler {
      type: "xavier"
      std: 0.1
    }
    bias_filler {
      type: "constant"
      value: 0.2
    }
  }
}
layer {
  name: "inception_3a/relu_pool_proj"
  type: "ReLU"
  bottom: "inception_3a/pool_proj"
  top: "inception_3a/pool_proj"
}
layer {
  name: "inception_3a/output"
  type: "Concat"
  bottom: "inception_3a/1x1"
  bottom: "inception_3a/3x3"
  bottom: "inception_3a/5x5"
  bottom: "inception_3a/pool_proj"
  top: "inception_3a/output"
}
layer {
  name: "inception_3b/1x1"
  type: "Convolution"
  bottom: "inception_3a/output"
  top: "inception_3b/1x1"
  param {
    lr_mult: 1
    decay_mult: 1
  }
  param {
    lr_mult: 2
    decay_mult: 0
  }
  convolution_param {
    num_output: 128
    kernel_size: 1
    weight_filler {
      type: "xavier"
      std: 0.03
    }
    bias_filler {
      type: "constant"
      value: 0.2
    }
  }
}
layer {
  name: "inception_3b/relu_1x1"
  type: "ReLU"
  bottom: "inception_3b/1x1"
  top: "inception_3b/1x1"
}
layer {
  name: "inception_3b/3x3_reduce"
  type: "Convolution"
  bottom: "inception_3a/output"
  top: "inception_3b/3x3_reduce"
  param {
    lr_mult: 1
    decay_mult: 1
  }
  param {
    lr_mult: 2
    decay_mult: 0
  }
  convolution_param {
    num_output: 128
    kernel_size: 1
    weight_filler {
      type: "xavier"
      std: 0.09
    }
    bias_filler {
      type: "constant"
      value: 0.2
    }
  }
}
layer {
  name: "inception_3b/relu_3x3_reduce"
  type: "ReLU"
  bottom: "inception_3b/3x3_reduce"
  top: "inception_3b/3x3_reduce"
}
layer {
  name: "inception_3b/3x3"
  type: "Convolution"
  bottom: "inception_3b/3x3_reduce"
  top: "inception_3b/3x3"
  param {
    lr_mult: 1
    decay_mult: 1
  }
  param {
    lr_mult: 2
    decay_mult: 0
  }
  convolution_param {
    num_output: 192
    pad: 1
    kernel_size: 3
    weight_filler {
      type: "xavier"
      std: 0.03
    }
    bias_filler {
      type: "constant"
      value: 0.2
    }
  }
}
layer {
  name: "inception_3b/relu_3x3"
  type: "ReLU"
  bottom: "inception_3b/3x3"
  top: "inception_3b/3x3"
}
layer {
  name: "inception_3b/5x5_reduce"
  type: "Convolution"
  bottom: "inception_3a/output"
  top: "inception_3b/5x5_reduce"
  param {
    lr_mult: 1
    decay_mult: 1
  }
  param {
    lr_mult: 2
    decay_mult: 0
  }
  convolution_param {
    num_output: 32
    kernel_size: 1
    weight_filler {
      type: "xavier"
      std: 0.2
    }
    bias_filler {
      type: "constant"
      value: 0.2
    }
  }
}
layer {
  name: "inception_3b/relu_5x5_reduce"
  type: "ReLU"
  bottom: "inception_3b/5x5_reduce"
  top: "inception_3b/5x5_reduce"
}
layer {
  name: "inception_3b/5x5"
  type: "Convolution"
  bottom: "inception_3b/5x5_reduce"
  top: "inception_3b/5x5"
  param {
    lr_mult: 1
    decay_mult: 1
  }
  param {
    lr_mult: 2
    decay_mult: 0
  }
  convolution_param {
    num_output: 96
    pad: 2
    kernel_size: 5
    weight_filler {
      type: "xavier"
      std: 0.03
    }
    bias_filler {
      type: "constant"
      value: 0.2
    }
  }
}
layer {
  name: "inception_3b/relu_5x5"
  type: "ReLU"
  bottom: "inception_3b/5x5"
  top: "inception_3b/5x5"
}
layer {
  name: "inception_3b/pool"
  type: "Pooling"
  bottom: "inception_3a/output"
  top: "inception_3b/pool"
  pooling_param {
    pool: MAX
    kernel_size: 3
    stride: 1
    pad: 1
  }
}
layer {
  name: "inception_3b/pool_proj"
  type: "Convolution"
  bottom: "inception_3b/pool"
  top: "inception_3b/pool_proj"
  param {
    lr_mult: 1
    decay_mult: 1
  }
  param {
    lr_mult: 2
    decay_mult: 0
  }
  convolution_param {
    num_output: 64
    kernel_size: 1
    weight_filler {
      type: "xavier"
      std: 0.1
    }
    bias_filler {
      type: "constant"
      value: 0.2
    }
  }
}
layer {
  name: "inception_3b/relu_pool_proj"
  type: "ReLU"
  bottom: "inception_3b/pool_proj"
  top: "inception_3b/pool_proj"
}
layer {
  name: "inception_3b/output"
  type: "Concat"
  bottom: "inception_3b/1x1"
  bottom: "inception_3b/3x3"
  bottom: "inception_3b/5x5"
  bottom: "inception_3b/pool_proj"
  top: "inception_3b/output"
}
layer {
  name: "pool3/3x3_s2"
  type: "Pooling"
  bottom: "inception_3b/output"
  top: "pool3/3x3_s2"
  pooling_param {
    pool: MAX
    kernel_size: 3
    stride: 2
  }
}
layer {
  name: "inception_4a/1x1"
  type: "Convolution"
  bottom: "pool3/3x3_s2"
  top: "inception_4a/1x1"
  param {
    lr_mult: 1
    decay_mult: 1
  }
  param {
    lr_mult: 2
    decay_mult: 0
  }
  convolution_param {
    num_output: 192
    kernel_size: 1
    weight_filler {
      type: "xavier"
      std: 0.03
    }
    bias_filler {
      type: "constant"
      value: 0.2
    }
  }
}
layer {
  name: "inception_4a/relu_1x1"
  type: "ReLU"
  bottom: "inception_4a/1x1"
  top: "inception_4a/1x1"
}
layer {
  name: "inception_4a/3x3_reduce"
  type: "Convolution"
  bottom: "pool3/3x3_s2"
  top: "inception_4a/3x3_reduce"
  param {
    lr_mult: 1
    decay_mult: 1
  }
  param {
    lr_mult: 2
    decay_mult: 0
  }
  convolution_param {
    num_output: 96
    kernel_size: 1
    weight_filler {
      type: "xavier"
      std: 0.09
    }
    bias_filler {
      type: "constant"
      value: 0.2
    }
  }
}
layer {
  name: "inception_4a/relu_3x3_reduce"
  type: "ReLU"
  bottom: "inception_4a/3x3_reduce"
  top: "inception_4a/3x3_reduce"
}
layer {
  name: "inception_4a/3x3"
  type: "Convolution"
  bottom: "inception_4a/3x3_reduce"
  top: "inception_4a/3x3"
  param {
    lr_mult: 1
    decay_mult: 1
  }
  param {
    lr_mult: 2
    decay_mult: 0
  }
  convolution_param {
    num_output: 208
    pad: 1
    kernel_size: 3
    weight_filler {
      type: "xavier"
      std: 0.03
    }
    bias_filler {
      type: "constant"
      value: 0.2
    }
  }
}
layer {
  name: "inception_4a/relu_3x3"
  type: "ReLU"
  bottom: "inception_4a/3x3"
  top: "inception_4a/3x3"
}
layer {
  name: "inception_4a/5x5_reduce"
  type: "Convolution"
  bottom: "pool3/3x3_s2"
  top: "inception_4a/5x5_reduce"
  param {
    lr_mult: 1
    decay_mult: 1
  }
  param {
    lr_mult: 2
    decay_mult: 0
  }
  convolution_param {
    num_output: 16
    kernel_size: 1
    weight_filler {
      type: "xavier"
      std: 0.2
    }
    bias_filler {
      type: "constant"
      value: 0.2
    }
  }
}
layer {
  name: "inception_4a/relu_5x5_reduce"
  type: "ReLU"
  bottom: "inception_4a/5x5_reduce"
  top: "inception_4a/5x5_reduce"
}
layer {
  name: "inception_4a/5x5"
  type: "Convolution"
  bottom: "inception_4a/5x5_reduce"
  top: "inception_4a/5x5"
  param {
    lr_mult: 1
    decay_mult: 1
  }
  param {
    lr_mult: 2
    decay_mult: 0
  }
  convolution_param {
    num_output: 48
    pad: 2
    kernel_size: 5
    weight_filler {
      type: "xavier"
      std: 0.03
    }
    bias_filler {
      type: "constant"
      value: 0.2
    }
  }
}
layer {
  name: "inception_4a/relu_5x5"
  type: "ReLU"
  bottom: "inception_4a/5x5"
  top: "inception_4a/5x5"
}
layer {
  name: "inception_4a/pool"
  type: "Pooling"
  bottom: "pool3/3x3_s2"
  top: "inception_4a/pool"
  pooling_param {
    pool: MAX
    kernel_size: 3
    stride: 1
    pad: 1
  }
}
layer {
  name: "inception_4a/pool_proj"
  type: "Convolution"
  bottom: "inception_4a/pool"
  top: "inception_4a/pool_proj"
  param {
    lr_mult: 1
    decay_mult: 1
  }
  param {
    lr_mult: 2
    decay_mult: 0
  }
  convolution_param {
    num_output: 64
    kernel_size: 1
    weight_filler {
      type: "xavier"
      std: 0.1
    }
    bias_filler {
      type: "constant"
      value: 0.2
    }
  }
}
layer {
  name: "inception_4a/relu_pool_proj"
  type: "ReLU"
  bottom: "inception_4a/pool_proj"
  top: "inception_4a/pool_proj"
}
layer {
  name: "inception_4a/output"
  type: "Concat"
  bottom: "inception_4a/1x1"
  bottom: "inception_4a/3x3"
  bottom: "inception_4a/5x5"
  bottom: "inception_4a/pool_proj"
  top: "inception_4a/output"
}
layer {
  name: "inception_4b/1x1"
  type: "Convolution"
  bottom: "inception_4a/output"
  top: "inception_4b/1x1"
  param {
    lr_mult: 1
    decay_mult: 1
  }
  param {
    lr_mult: 2
    decay_mult: 0
  }
  convolution_param {
    num_output: 160
    kernel_size: 1
    weight_filler {
      type: "xavier"
      std: 0.03
    }
    bias_filler {
      type: "constant"
      value: 0.2
    }
  }
}
layer {
  name: "inception_4b/relu_1x1"
  type: "ReLU"
  bottom: "inception_4b/1x1"
  top: "inception_4b/1x1"
}
layer {
  name: "inception_4b/3x3_reduce"
  type: "Convolution"
  bottom: "inception_4a/output"
  top: "inception_4b/3x3_reduce"
  param {
    lr_mult: 1
    decay_mult: 1
  }
  param {
    lr_mult: 2
    decay_mult: 0
  }
  convolution_param {
    num_output: 112
    kernel_size: 1
    weight_filler {
      type: "xavier"
      std: 0.09
    }
    bias_filler {
      type: "constant"
      value: 0.2
    }
  }
}
layer {
  name: "inception_4b/relu_3x3_reduce"
  type: "ReLU"
  bottom: "inception_4b/3x3_reduce"
  top: "inception_4b/3x3_reduce"
}
layer {
  name: "inception_4b/3x3"
  type: "Convolution"
  bottom: "inception_4b/3x3_reduce"
  top: "inception_4b/3x3"
  param {
    lr_mult: 1
    decay_mult: 1
  }
  param {
    lr_mult: 2
    decay_mult: 0
  }
  convolution_param {
    num_output: 224
    pad: 1
    kernel_size: 3
    weight_filler {
      type: "xavier"
      std: 0.03
    }
    bias_filler {
      type: "constant"
      value: 0.2
    }
  }
}
layer {
  name: "inception_4b/relu_3x3"
  type: "ReLU"
  bottom: "inception_4b/3x3"
  top: "inception_4b/3x3"
}
layer {
  name: "inception_4b/5x5_reduce"
  type: "Convolution"
  bottom: "inception_4a/output"
  top: "inception_4b/5x5_reduce"
  param {
    lr_mult: 1
    decay_mult: 1
  }
  param {
    lr_mult: 2
    decay_mult: 0
  }
  convolution_param {
    num_output: 24
    kernel_size: 1
    weight_filler {
      type: "xavier"
      std: 0.2
    }
    bias_filler {
      type: "constant"
      value: 0.2
    }
  }
}
layer {
  name: "inception_4b/relu_5x5_reduce"
  type: "ReLU"
  bottom: "inception_4b/5x5_reduce"
  top: "inception_4b/5x5_reduce"
}
layer {
  name: "inception_4b/5x5"
  type: "Convolution"
  bottom: "inception_4b/5x5_reduce"
  top: "inception_4b/5x5"
  param {
    lr_mult: 1
    decay_mult: 1
  }
  param {
    lr_mult: 2
    decay_mult: 0
  }
  convolution_param {
    num_output: 64
    pad: 2
    kernel_size: 5
    weight_filler {
      type: "xavier"
      std: 0.03
    }
    bias_filler {
      type: "constant"
      value: 0.2
    }
  }
}
layer {
  name: "inception_4b/relu_5x5"
  type: "ReLU"
  bottom: "inception_4b/5x5"
  top: "inception_4b/5x5"
}
layer {
  name: "inception_4b/pool"
  type: "Pooling"
  bottom: "inception_4a/output"
  top: "inception_4b/pool"
  pooling_param {
    pool: MAX
    kernel_size: 3
    stride: 1
    pad: 1
  }
}
layer {
  name: "inception_4b/pool_proj"
  type: "Convolution"
  bottom: "inception_4b/pool"
  top: "inception_4b/pool_proj"
  param {
    lr_mult: 1
    decay_mult: 1
  }
  param {
    lr_mult: 2
    decay_mult: 0
  }
  convolution_param {
    num_output: 64
    kernel_size: 1
    weight_filler {
      type: "xavier"
      std: 0.1
    }
    bias_filler {
      type: "constant"
      value: 0.2
    }
  }
}
layer {
  name: "inception_4b/relu_pool_proj"
  type: "ReLU"
  bottom: "inception_4b/pool_proj"
  top: "inception_4b/pool_proj"
}
layer {
  name: "inception_4b/output"
  type: "Concat"
  bottom: "inception_4b/1x1"
  bottom: "inception_4b/3x3"
  bottom: "inception_4b/5x5"
  bottom: "inception_4b/pool_proj"
  top: "inception_4b/output"
}
layer {
  name: "inception_4c/1x1"
  type: "Convolution"
  bottom: "inception_4b/output"
  top: "inception_4c/1x1"
  param {
    lr_mult: 1
    decay_mult: 1
  }
  param {
    lr_mult: 2
    decay_mult: 0
  }
  convolution_param {
    num_output: 128
    kernel_size: 1
    weight_filler {
      type: "xavier"
      std: 0.03
    }
    bias_filler {
      type: "constant"
      value: 0.2
    }
  }
}
layer {
  name: "inception_4c/relu_1x1"
  type: "ReLU"
  bottom: "inception_4c/1x1"
  top: "inception_4c/1x1"
}
layer {
  name: "inception_4c/3x3_reduce"
  type: "Convolution"
  bottom: "inception_4b/output"
  top: "inception_4c/3x3_reduce"
  param {
    lr_mult: 1
    decay_mult: 1
  }
  param {
    lr_mult: 2
    decay_mult: 0
  }
  convolution_param {
    num_output: 128
    kernel_size: 1
    weight_filler {
      type: "xavier"
      std: 0.09
    }
    bias_filler {
      type: "constant"
      value: 0.2
    }
  }
}
layer {
  name: "inception_4c/relu_3x3_reduce"
  type: "ReLU"
  bottom: "inception_4c/3x3_reduce"
  top: "inception_4c/3x3_reduce"
}
layer {
  name: "inception_4c/3x3"
  type: "Convolution"
  bottom: "inception_4c/3x3_reduce"
  top: "inception_4c/3x3"
  param {
    lr_mult: 1
    decay_mult: 1
  }
  param {
    lr_mult: 2
    decay_mult: 0
  }
  convolution_param {
    num_output: 256
    pad: 1
    kernel_size: 3
    weight_filler {
      type: "xavier"
      std: 0.03
    }
    bias_filler {
      type: "constant"
      value: 0.2
    }
  }
}
layer {
  name: "inception_4c/relu_3x3"
  type: "ReLU"
  bottom: "inception_4c/3x3"
  top: "inception_4c/3x3"
}
layer {
  name: "inception_4c/5x5_reduce"
  type: "Convolution"
  bottom: "inception_4b/output"
  top: "inception_4c/5x5_reduce"
  param {
    lr_mult: 1
    decay_mult: 1
  }
  param {
    lr_mult: 2
    decay_mult: 0
  }
  convolution_param {
    num_output: 24
    kernel_size: 1
    weight_filler {
      type: "xavier"
      std: 0.2
    }
    bias_filler {
      type: "constant"
      value: 0.2
    }
  }
}
layer {
  name: "inception_4c/relu_5x5_reduce"
  type: "ReLU"
  bottom: "inception_4c/5x5_reduce"
  top: "inception_4c/5x5_reduce"
}
layer {
  name: "inception_4c/5x5"
  type: "Convolution"
  bottom: "inception_4c/5x5_reduce"
  top: "inception_4c/5x5"
  param {
    lr_mult: 1
    decay_mult: 1
  }
  param {
    lr_mult: 2
    decay_mult: 0
  }
  convolution_param {
    num_output: 64
    pad: 2
    kernel_size: 5
    weight_filler {
      type: "xavier"
      std: 0.03
    }
    bias_filler {
      type: "constant"
      value: 0.2
    }
  }
}
layer {
  name: "inception_4c/relu_5x5"
  type: "ReLU"
  bottom: "inception_4c/5x5"
  top: "inception_4c/5x5"
}
layer {
  name: "inception_4c/pool"
  type: "Pooling"
  bottom: "inception_4b/output"
  top: "inception_4c/pool"
  pooling_param {
    pool: MAX
    kernel_size: 3
    stride: 1
    pad: 1
  }
}
layer {
  name: "inception_4c/pool_proj"
  type: "Convolution"
  bottom: "inception_4c/pool"
  top: "inception_4c/pool_proj"
  param {
    lr_mult: 1
    decay_mult: 1
  }
  param {
    lr_mult: 2
    decay_mult: 0
  }
  convolution_param {
    num_output: 64
    kernel_size: 1
    weight_filler {
      type: "xavier"
      std: 0.1
    }
    bias_filler {
      type: "constant"
      value: 0.2
    }
  }
}
layer {
  name: "inception_4c/relu_pool_proj"
  type: "ReLU"
  bottom: "inception_4c/pool_proj"
  top: "inception_4c/pool_proj"
}
layer {
  name: "inception_4c/output"
  type: "Concat"
  bottom: "inception_4c/1x1"
  bottom: "inception_4c/3x3"
  bottom: "inception_4c/5x5"
  bottom: "inception_4c/pool_proj"
  top: "inception_4c/output"
}
layer {
  name: "inception_4d/1x1"
  type: "Convolution"
  bottom: "inception_4c/output"
  top: "inception_4d/1x1"
  param {
    lr_mult: 1
    decay_mult: 1
  }
  param {
    lr_mult: 2
    decay_mult: 0
  }
  convolution_param {
    num_output: 112
    kernel_size: 1
    weight_filler {
      type: "xavier"
      std: 0.03
    }
    bias_filler {
      type: "constant"
      value: 0.2
    }
  }
}
layer {
  name: "inception_4d/relu_1x1"
  type: "ReLU"
  bottom: "inception_4d/1x1"
  top: "inception_4d/1x1"
}
layer {
  name: "inception_4d/3x3_reduce"
  type: "Convolution"
  bottom: "inception_4c/output"
  top: "inception_4d/3x3_reduce"
  param {
    lr_mult: 1
    decay_mult: 1
  }
  param {
    lr_mult: 2
    decay_mult: 0
  }
  convolution_param {
    num_output: 144
    kernel_size: 1
    weight_filler {
      type: "xavier"
      std: 0.09
    }
    bias_filler {
      type: "constant"
      value: 0.2
    }
  }
}
layer {
  name: "inception_4d/relu_3x3_reduce"
  type: "ReLU"
  bottom: "inception_4d/3x3_reduce"
  top: "inception_4d/3x3_reduce"
}
layer {
  name: "inception_4d/3x3"
  type: "Convolution"
  bottom: "inception_4d/3x3_reduce"
  top: "inception_4d/3x3"
  param {
    lr_mult: 1
    decay_mult: 1
  }
  param {
    lr_mult: 2
    decay_mult: 0
  }
  convolution_param {
    num_output: 288
    pad: 1
    kernel_size: 3
    weight_filler {
      type: "xavier"
      std: 0.03
    }
    bias_filler {
      type: "constant"
      value: 0.2
    }
  }
}
layer {
  name: "inception_4d/relu_3x3"
  type: "ReLU"
  bottom: "inception_4d/3x3"
  top: "inception_4d/3x3"
}
layer {
  name: "inception_4d/5x5_reduce"
  type: "Convolution"
  bottom: "inception_4c/output"
  top: "inception_4d/5x5_reduce"
  param {
    lr_mult: 1
    decay_mult: 1
  }
  param {
    lr_mult: 2
    decay_mult: 0
  }
  convolution_param {
    num_output: 32
    kernel_size: 1
    weight_filler {
      type: "xavier"
      std: 0.2
    }
    bias_filler {
      type: "constant"
      value: 0.2
    }
  }
}
layer {
  name: "inception_4d/relu_5x5_reduce"
  type: "ReLU"
  bottom: "inception_4d/5x5_reduce"
  top: "inception_4d/5x5_reduce"
}
layer {
  name: "inception_4d/5x5"
  type: "Convolution"
  bottom: "inception_4d/5x5_reduce"
  top: "inception_4d/5x5"
  param {
    lr_mult: 1
    decay_mult: 1
  }
  param {
    lr_mult: 2
    decay_mult: 0
  }
  convolution_param {
    num_output: 64
    pad: 2
    kernel_size: 5
    weight_filler {
      type: "xavier"
      std: 0.03
    }
    bias_filler {
      type: "constant"
      value: 0.2
    }
  }
}
layer {
  name: "inception_4d/relu_5x5"
  type: "ReLU"
  bottom: "inception_4d/5x5"
  top: "inception_4d/5x5"
}
layer {
  name: "inception_4d/pool"
  type: "Pooling"
  bottom: "inception_4c/output"
  top: "inception_4d/pool"
  pooling_param {
    pool: MAX
    kernel_size: 3
    stride: 1
    pad: 1
  }
}
layer {
  name: "inception_4d/pool_proj"
  type: "Convolution"
  bottom: "inception_4d/pool"
  top: "inception_4d/pool_proj"
  param {
    lr_mult: 1
    decay_mult: 1
  }
  param {
    lr_mult: 2
    decay_mult: 0
  }
  convolution_param {
    num_output: 64
    kernel_size: 1
    weight_filler {
      type: "xavier"
      std: 0.1
    }
    bias_filler {
      type: "constant"
      value: 0.2
    }
  }
}
layer {
  name: "inception_4d/relu_pool_proj"
  type: "ReLU"
  bottom: "inception_4d/pool_proj"
  top: "inception_4d/pool_proj"
}
layer {
  name: "inception_4d/output"
  type: "Concat"
  bottom: "inception_4d/1x1"
  bottom: "inception_4d/3x3"
  bottom: "inception_4d/5x5"
  bottom: "inception_4d/pool_proj"
  top: "inception_4d/output"
}
layer {
  name: "inception_4e/1x1"
  type: "Convolution"
  bottom: "inception_4d/output"
  top: "inception_4e/1x1"
  param {
    lr_mult: 1
    decay_mult: 1
  }
  param {
    lr_mult: 2
    decay_mult: 0
  }
  convolution_param {
    num_output: 256
    kernel_size: 1
    weight_filler {
      type: "xavier"
      std: 0.03
    }
    bias_filler {
      type: "constant"
      value: 0.2
    }
  }
}
layer {
  name: "inception_4e/relu_1x1"
  type: "ReLU"
  bottom: "inception_4e/1x1"
  top: "inception_4e/1x1"
}
layer {
  name: "inception_4e/3x3_reduce"
  type: "Convolution"
  bottom: "inception_4d/output"
  top: "inception_4e/3x3_reduce"
  param {
    lr_mult: 1
    decay_mult: 1
  }
  param {
    lr_mult: 2
    decay_mult: 0
  }
  convolution_param {
    num_output: 160
    kernel_size: 1
    weight_filler {
      type: "xavier"
      std: 0.09
    }
    bias_filler {
      type: "constant"
      value: 0.2
    }
  }
}
layer {
  name: "inception_4e/relu_3x3_reduce"
  type: "ReLU"
  bottom: "inception_4e/3x3_reduce"
  top: "inception_4e/3x3_reduce"
}
layer {
  name: "inception_4e/3x3"
  type: "Convolution"
  bottom: "inception_4e/3x3_reduce"
  top: "inception_4e/3x3"
  param {
    lr_mult: 1
    decay_mult: 1
  }
  param {
    lr_mult: 2
    decay_mult: 0
  }
  convolution_param {
    num_output: 320
    pad: 1
    kernel_size: 3
    weight_filler {
      type: "xavier"
      std: 0.03
    }
    bias_filler {
      type: "constant"
      value: 0.2
    }
  }
}
layer {
  name: "inception_4e/relu_3x3"
  type: "ReLU"
  bottom: "inception_4e/3x3"
  top: "inception_4e/3x3"
}
layer {
  name: "inception_4e/5x5_reduce"
  type: "Convolution"
  bottom: "inception_4d/output"
  top: "inception_4e/5x5_reduce"
  param {
    lr_mult: 1
    decay_mult: 1
  }
  param {
    lr_mult: 2
    decay_mult: 0
  }
  convolution_param {
    num_output: 32
    kernel_size: 1
    weight_filler {
      type: "xavier"
      std: 0.2
    }
    bias_filler {
      type: "constant"
      value: 0.2
    }
  }
}
layer {
  name: "inception_4e/relu_5x5_reduce"
  type: "ReLU"
  bottom: "inception_4e/5x5_reduce"
  top: "inception_4e/5x5_reduce"
}
layer {
  name: "inception_4e/5x5"
  type: "Convolution"
  bottom: "inception_4e/5x5_reduce"
  top: "inception_4e/5x5"
  param {
    lr_mult: 1
    decay_mult: 1
  }
  param {
    lr_mult: 2
    decay_mult: 0
  }
  convolution_param {
    num_output: 128
    pad: 2
    kernel_size: 5
    weight_filler {
      type: "xavier"
      std: 0.03
    }
    bias_filler {
      type: "constant"
      value: 0.2
    }
  }
}
layer {
  name: "inception_4e/relu_5x5"
  type: "ReLU"
  bottom: "inception_4e/5x5"
  top: "inception_4e/5x5"
}
layer {
  name: "inception_4e/pool"
  type: "Pooling"
  bottom: "inception_4d/output"
  top: "inception_4e/pool"
  pooling_param {
    pool: MAX
    kernel_size: 3
    stride: 1
    pad: 1
  }
}
layer {
  name: "inception_4e/pool_proj"
  type: "Convolution"
  bottom: "inception_4e/pool"
  top: "inception_4e/pool_proj"
  param {
    lr_mult: 1
    decay_mult: 1
  }
  param {
    lr_mult: 2
    decay_mult: 0
  }
  convolution_param {
    num_output: 128
    kernel_size: 1
    weight_filler {
      type: "xavier"
      std: 0.1
    }
    bias_filler {
      type: "constant"
      value: 0.2
    }
  }
}
layer {
  name: "inception_4e/relu_pool_proj"
  type: "ReLU"
  bottom: "inception_4e/pool_proj"
  top: "inception_4e/pool_proj"
}
layer {
  name: "inception_4e/output"
  type: "Concat"
  bottom: "inception_4e/1x1"
  bottom: "inception_4e/3x3"
  bottom: "inception_4e/5x5"
  bottom: "inception_4e/pool_proj"
  top: "inception_4e/output"
}
layer {
  name: "pool4/3x3_s2"
  type: "Pooling"
  bottom: "inception_4e/output"
  top: "pool4/3x3_s2"
  pooling_param {
    pool: MAX
    kernel_size: 3
    stride: 2
  }
}
layer {
  name: "inception_5a/1x1"
  type: "Convolution"
  bottom: "pool4/3x3_s2"
  top: "inception_5a/1x1"
  param {
    lr_mult: 1
    decay_mult: 1
  }
  param {
    lr_mult: 2
    decay_mult: 0
  }
  convolution_param {
    num_output: 256
    kernel_size: 1
    weight_filler {
      type: "xavier"
      std: 0.03
    }
    bias_filler {
      type: "constant"
      value: 0.2
    }
  }
}
layer {
  name: "inception_5a/relu_1x1"
  type: "ReLU"
  bottom: "inception_5a/1x1"
  top: "inception_5a/1x1"
}
layer {
  name: "inception_5a/3x3_reduce"
  type: "Convolution"
  bottom: "pool4/3x3_s2"
  top: "inception_5a/3x3_reduce"
  param {
    lr_mult: 1
    decay_mult: 1
  }
  param {
    lr_mult: 2
    decay_mult: 0
  }
  convolution_param {
    num_output: 160
    kernel_size: 1
    weight_filler {
      type: "xavier"
      std: 0.09
    }
    bias_filler {
      type: "constant"
      value: 0.2
    }
  }
}
layer {
  name: "inception_5a/relu_3x3_reduce"
  type: "ReLU"
  bottom: "inception_5a/3x3_reduce"
  top: "inception_5a/3x3_reduce"
}
layer {
  name: "inception_5a/3x3"
  type: "Convolution"
  bottom: "inception_5a/3x3_reduce"
  top: "inception_5a/3x3"
  param {
    lr_mult: 1
    decay_mult: 1
  }
  param {
    lr_mult: 2
    decay_mult: 0
  }
  convolution_param {
    num_output: 320
    pad: 1
    kernel_size: 3
    weight_filler {
      type: "xavier"
      std: 0.03
    }
    bias_filler {
      type: "constant"
      value: 0.2
    }
  }
}
layer {
  name: "inception_5a/relu_3x3"
  type: "ReLU"
  bottom: "inception_5a/3x3"
  top: "inception_5a/3x3"
}
layer {
  name: "inception_5a/5x5_reduce"
  type: "Convolution"
  bottom: "pool4/3x3_s2"
  top: "inception_5a/5x5_reduce"
  param {
    lr_mult: 1
    decay_mult: 1
  }
  param {
    lr_mult: 2
    decay_mult: 0
  }
  convolution_param {
    num_output: 32
    kernel_size: 1
    weight_filler {
      type: "xavier"
      std: 0.2
    }
    bias_filler {
      type: "constant"
I0104 23:06:11.609350  1659 layer_factory.hpp:77] Creating layer data
I0104 23:06:11.609416  1659 net.cpp:84] Creating Layer data
I0104 23:06:11.609443  1659 net.cpp:380] data -> data
I0104 23:06:11.682252  1659 net.cpp:122] Setting up data
I0104 23:06:11.682335  1659 net.cpp:129] Top shape: 10 3 224 224 (1505280)
I0104 23:06:11.682371  1659 net.cpp:137] Memory required for data: 6021120
I0104 23:06:11.682402  1659 layer_factory.hpp:77] Creating layer conv1/7x7_s2
I0104 23:06:11.682523  1659 net.cpp:84] Creating Layer conv1/7x7_s2
I0104 23:06:11.682582  1659 net.cpp:406] conv1/7x7_s2 <- data
I0104 23:06:11.682617  1659 net.cpp:380] conv1/7x7_s2 -> conv1/7x7_s2
I0104 23:06:11.684278  1659 net.cpp:122] Setting up conv1/7x7_s2
I0104 23:06:11.684347  1659 net.cpp:129] Top shape: 10 64 112 112 (8028160)
I0104 23:06:11.684372  1659 net.cpp:137] Memory required for data: 38133760
I0104 23:06:11.684422  1659 layer_factory.hpp:77] Creating layer conv1/relu_7x7
I0104 23:06:11.684554  1659 net.cpp:84] Creating Layer conv1/relu_7x7
I0104 23:06:11.684607  1659 net.cpp:406] conv1/relu_7x7 <- conv1/7x7_s2
I0104 23:06:11.684626  1659 net.cpp:367] conv1/relu_7x7 -> conv1/7x7_s2 (in-place)
I0104 23:06:11.684829  1659 net.cpp:122] Setting up conv1/relu_7x7
I0104 23:06:11.684849  1659 net.cpp:129] Top shape: 10 64 112 112 (8028160)
I0104 23:06:11.684866  1659 net.cpp:137] Memory required for data: 70246400
I0104 23:06:11.685019  1659 layer_factory.hpp:77] Creating layer pool1/3x3_s2
I0104 23:06:11.685044  1659 net.cpp:84] Creating Layer pool1/3x3_s2
I0104 23:06:11.685062  1659 net.cpp:406] pool1/3x3_s2 <- conv1/7x7_s2
I0104 23:06:11.685247  1659 net.cpp:380] pool1/3x3_s2 -> pool1/3x3_s2
I0104 23:06:11.685488  1659 net.cpp:122] Setting up pool1/3x3_s2
I0104 23:06:11.685509  1659 net.cpp:129] Top shape: 10 64 56 56 (2007040)
I0104 23:06:11.685618  1659 net.cpp:137] Memory required for data: 78274560
I0104 23:06:11.685678  1659 layer_factory.hpp:77] Creating layer pool1/norm1
I0104 23:06:11.685739  1659 net.cpp:84] Creating Layer pool1/norm1
I0104 23:06:11.685756  1659 net.cpp:406] pool1/norm1 <- pool1/3x3_s2
I0104 23:06:11.685941  1659 net.cpp:380] pool1/norm1 -> pool1/norm1
I0104 23:06:11.686107  1659 net.cpp:122] Setting up pool1/norm1
I0104 23:06:11.686126  1659 net.cpp:129] Top shape: 10 64 56 56 (2007040)
I0104 23:06:11.686146  1659 net.cpp:137] Memory required for data: 86302720
I0104 23:06:11.686167  1659 layer_factory.hpp:77] Creating layer conv2/3x3_reduce
I0104 23:06:11.686333  1659 net.cpp:84] Creating Layer conv2/3x3_reduce
I0104 23:06:11.686355  1659 net.cpp:406] conv2/3x3_reduce <- pool1/norm1
I0104 23:06:11.686377  1659 net.cpp:380] conv2/3x3_reduce -> conv2/3x3_reduce
I0104 23:06:11.687290  1659 net.cpp:122] Setting up conv2/3x3_reduce
I0104 23:06:11.687386  1659 net.cpp:129] Top shape: 10 64 56 56 (2007040)
I0104 23:06:11.687412  1659 net.cpp:137] Memory required for data: 94330880
I0104 23:06:11.687439  1659 layer_factory.hpp:77] Creating layer conv2/relu_3x3_reduce
I0104 23:06:11.687511  1659 net.cpp:84] Creating Layer conv2/relu_3x3_reduce
I0104 23:06:11.687530  1659 net.cpp:406] conv2/relu_3x3_reduce <- conv2/3x3_reduce
I0104 23:06:11.687638  1659 net.cpp:367] conv2/relu_3x3_reduce -> conv2/3x3_reduce (in-place)
I0104 23:06:11.687695  1659 net.cpp:122] Setting up conv2/relu_3x3_reduce
I0104 23:06:11.687711  1659 net.cpp:129] Top shape: 10 64 56 56 (2007040)
I0104 23:06:11.687893  1659 net.cpp:137] Memory required for data: 102359040
I0104 23:06:11.687911  1659 layer_factory.hpp:77] Creating layer conv2/3x3
I0104 23:06:11.687938  1659 net.cpp:84] Creating Layer conv2/3x3
I0104 23:06:11.688066  1659 net.cpp:406] conv2/3x3 <- conv2/3x3_reduce
I0104 23:06:11.688263  1659 net.cpp:380] conv2/3x3 -> conv2/3x3
I0104 23:06:11.691721  1659 net.cpp:122] Setting up conv2/3x3
I0104 23:06:11.691747  1659 net.cpp:129] Top shape: 10 192 56 56 (6021120)
I0104 23:06:11.691766  1659 net.cpp:137] Memory required for data: 126443520
I0104 23:06:11.691792  1659 layer_factory.hpp:77] Creating layer conv2/relu_3x3
I0104 23:06:11.691915  1659 net.cpp:84] Creating Layer conv2/relu_3x3
I0104 23:06:11.691975  1659 net.cpp:406] conv2/relu_3x3 <- conv2/3x3
I0104 23:06:11.692028  1659 net.cpp:367] conv2/relu_3x3 -> conv2/3x3 (in-place)
I0104 23:06:11.692050  1659 net.cpp:122] Setting up conv2/relu_3x3
I0104 23:06:11.692065  1659 net.cpp:129] Top shape: 10 192 56 56 (6021120)
I0104 23:06:11.692131  1659 net.cpp:137] Memory required for data: 150528000
I0104 23:06:11.692363  1659 layer_factory.hpp:77] Creating layer conv2/norm2
I0104 23:06:11.692395  1659 net.cpp:84] Creating Layer conv2/norm2
I0104 23:06:11.692410  1659 net.cpp:406] conv2/norm2 <- conv2/3x3
I0104 23:06:11.692574  1659 net.cpp:380] conv2/norm2 -> conv2/norm2
I0104 23:06:11.692769  1659 net.cpp:122] Setting up conv2/norm2
I0104 23:06:11.692788  1659 net.cpp:129] Top shape: 10 192 56 56 (6021120)
I0104 23:06:11.692806  1659 net.cpp:137] Memory required for data: 174612480
I0104 23:06:11.692821  1659 layer_factory.hpp:77] Creating layer pool2/3x3_s2
I0104 23:06:11.692953  1659 net.cpp:84] Creating Layer pool2/3x3_s2
I0104 23:06:11.692970  1659 net.cpp:406] pool2/3x3_s2 <- conv2/norm2
I0104 23:06:11.692987  1659 net.cpp:380] pool2/3x3_s2 -> pool2/3x3_s2
I0104 23:06:11.693383  1659 net.cpp:122] Setting up pool2/3x3_s2
I0104 23:06:11.693461  1659 net.cpp:129] Top shape: 10 192 28 28 (1505280)
I0104 23:06:11.693480  1659 net.cpp:137] Memory required for data: 180633600
I0104 23:06:11.693495  1659 layer_factory.hpp:77] Creating layer pool2/3x3_s2_pool2/3x3_s2_0_split
I0104 23:06:11.693548  1659 net.cpp:84] Creating Layer pool2/3x3_s2_pool2/3x3_s2_0_split
I0104 23:06:11.693565  1659 net.cpp:406] pool2/3x3_s2_pool2/3x3_s2_0_split <- pool2/3x3_s2
I0104 23:06:11.693620  1659 net.cpp:380] pool2/3x3_s2_pool2/3x3_s2_0_split -> pool2/3x3_s2_pool2/3x3_s2_0_split_0
I0104 23:06:11.693646  1659 net.cpp:380] pool2/3x3_s2_pool2/3x3_s2_0_split -> pool2/3x3_s2_pool2/3x3_s2_0_split_1
I0104 23:06:11.693878  1659 net.cpp:380] pool2/3x3_s2_pool2/3x3_s2_0_split -> pool2/3x3_s2_pool2/3x3_s2_0_split_2
I0104 23:06:11.693907  1659 net.cpp:380] pool2/3x3_s2_pool2/3x3_s2_0_split -> pool2/3x3_s2_pool2/3x3_s2_0_split_3
I0104 23:06:11.694156  1659 net.cpp:122] Setting up pool2/3x3_s2_pool2/3x3_s2_0_split
I0104 23:06:11.694175  1659 net.cpp:129] Top shape: 10 192 28 28 (1505280)
I0104 23:06:11.694283  1659 net.cpp:129] Top shape: 10 192 28 28 (1505280)
I0104 23:06:11.694320  1659 net.cpp:129] Top shape: 10 192 28 28 (1505280)
I0104 23:06:11.694339  1659 net.cpp:129] Top shape: 10 192 28 28 (1505280)
I0104 23:06:11.694535  1659 net.cpp:137] Memory required for data: 204718080
I0104 23:06:11.694553  1659 layer_factory.hpp:77] Creating layer inception_3a/1x1
I0104 23:06:11.694726  1659 net.cpp:84] Creating Layer inception_3a/1x1
I0104 23:06:11.694744  1659 net.cpp:406] inception_3a/1x1 <- pool2/3x3_s2_pool2/3x3_s2_0_split_0
I0104 23:06:11.694977  1659 net.cpp:380] inception_3a/1x1 -> inception_3a/1x1
I0104 23:06:11.695974  1659 net.cpp:122] Setting up inception_3a/1x1
I0104 23:06:11.695999  1659 net.cpp:129] Top shape: 10 64 28 28 (501760)
I0104 23:06:11.696019  1659 net.cpp:137] Memory required for data: 206725120
I0104 23:06:11.696041  1659 layer_factory.hpp:77] Creating layer inception_3a/relu_1x1
I0104 23:06:11.696115  1659 net.cpp:84] Creating Layer inception_3a/relu_1x1
I0104 23:06:11.696133  1659 net.cpp:406] inception_3a/relu_1x1 <- inception_3a/1x1
I0104 23:06:11.696244  1659 net.cpp:367] inception_3a/relu_1x1 -> inception_3a/1x1 (in-place)
I0104 23:06:11.696470  1659 net.cpp:122] Setting up inception_3a/relu_1x1
I0104 23:06:11.696487  1659 net.cpp:129] Top shape: 10 64 28 28 (501760)
I0104 23:06:11.696506  1659 net.cpp:137] Memory required for data: 208732160
I0104 23:06:11.696519  1659 layer_factory.hpp:77] Creating layer inception_3a/3x3_reduce
I0104 23:06:11.696666  1659 net.cpp:84] Creating Layer inception_3a/3x3_reduce
I0104 23:06:11.696683  1659 net.cpp:406] inception_3a/3x3_reduce <- pool2/3x3_s2_pool2/3x3_s2_0_split_1
I0104 23:06:11.696704  1659 net.cpp:380] inception_3a/3x3_reduce -> inception_3a/3x3_reduce
I0104 23:06:11.697998  1659 net.cpp:122] Setting up inception_3a/3x3_reduce
I0104 23:06:11.698022  1659 net.cpp:129] Top shape: 10 96 28 28 (752640)
I0104 23:06:11.698041  1659 net.cpp:137] Memory required for data: 211742720
I0104 23:06:11.698070  1659 layer_factory.hpp:77] Creating layer inception_3a/relu_3x3_reduce
I0104 23:06:11.698189  1659 net.cpp:84] Creating Layer inception_3a/relu_3x3_reduce
I0104 23:06:11.698251  1659 net.cpp:406] inception_3a/relu_3x3_reduce <- inception_3a/3x3_reduce
I0104 23:06:11.698362  1659 net.cpp:367] inception_3a/relu_3x3_reduce -> inception_3a/3x3_reduce (in-place)
I0104 23:06:11.698385  1659 net.cpp:122] Setting up inception_3a/relu_3x3_reduce
I0104 23:06:11.698408  1659 net.cpp:129] Top shape: 10 96 28 28 (752640)
I0104 23:06:11.698426  1659 net.cpp:137] Memory required for data: 214753280
I0104 23:06:11.698441  1659 layer_factory.hpp:77] Creating layer inception_3a/3x3
I0104 23:06:11.698642  1659 net.cpp:84] Creating Layer inception_3a/3x3
I0104 23:06:11.698664  1659 net.cpp:406] inception_3a/3x3 <- inception_3a/3x3_reduce
I0104 23:06:11.698940  1659 net.cpp:380] inception_3a/3x3 -> inception_3a/3x3
I0104 23:06:11.702247  1659 net.cpp:122] Setting up inception_3a/3x3
I0104 23:06:11.702268  1659 net.cpp:129] Top shape: 10 128 28 28 (1003520)
I0104 23:06:11.702286  1659 net.cpp:137] Memory required for data: 218767360
I0104 23:06:11.702322  1659 layer_factory.hpp:77] Creating layer inception_3a/relu_3x3
I0104 23:06:11.702435  1659 net.cpp:84] Creating Layer inception_3a/relu_3x3
I0104 23:06:11.702453  1659 net.cpp:406] inception_3a/relu_3x3 <- inception_3a/3x3
I0104 23:06:11.702643  1659 net.cpp:367] inception_3a/relu_3x3 -> inception_3a/3x3 (in-place)
I0104 23:06:11.702666  1659 net.cpp:122] Setting up inception_3a/relu_3x3
I0104 23:06:11.702684  1659 net.cpp:129] Top shape: 10 128 28 28 (1003520)
I0104 23:06:11.702702  1659 net.cpp:137] Memory required for data: 222781440
I0104 23:06:11.702862  1659 layer_factory.hpp:77] Creating layer inception_3a/5x5_reduce
I0104 23:06:11.702893  1659 net.cpp:84] Creating Layer inception_3a/5x5_reduce
I0104 23:06:11.702908  1659 net.cpp:406] inception_3a/5x5_reduce <- pool2/3x3_s2_pool2/3x3_s2_0_split_2
I0104 23:06:11.703063  1659 net.cpp:380] inception_3a/5x5_reduce -> inception_3a/5x5_reduce
I0104 23:06:11.703807  1659 net.cpp:122] Setting up inception_3a/5x5_reduce
I0104 23:06:11.703829  1659 net.cpp:129] Top shape: 10 16 28 28 (125440)
I0104 23:06:11.703846  1659 net.cpp:137] Memory required for data: 223283200
I0104 23:06:11.703866  1659 layer_factory.hpp:77] Creating layer inception_3a/relu_5x5_reduce
I0104 23:06:11.703886  1659 net.cpp:84] Creating Layer inception_3a/relu_5x5_reduce
I0104 23:06:11.703951  1659 net.cpp:406] inception_3a/relu_5x5_reduce <- inception_3a/5x5_reduce
I0104 23:06:11.704078  1659 net.cpp:367] inception_3a/relu_5x5_reduce -> inception_3a/5x5_reduce (in-place)
I0104 23:06:11.704102  1659 net.cpp:122] Setting up inception_3a/relu_5x5_reduce
I0104 23:06:11.704318  1659 net.cpp:129] Top shape: 10 16 28 28 (125440)
I0104 23:06:11.704339  1659 net.cpp:137] Memory required for data: 223784960
I0104 23:06:11.704354  1659 layer_factory.hpp:77] Creating layer inception_3a/5x5
I0104 23:06:11.704382  1659 net.cpp:84] Creating Layer inception_3a/5x5
I0104 23:06:11.704512  1659 net.cpp:406] inception_3a/5x5 <- inception_3a/5x5_reduce
I0104 23:06:11.704540  1659 net.cpp:380] inception_3a/5x5 -> inception_3a/5x5
I0104 23:06:11.705613  1659 net.cpp:122] Setting up inception_3a/5x5
I0104 23:06:11.705634  1659 net.cpp:129] Top shape: 10 32 28 28 (250880)
I0104 23:06:11.705652  1659 net.cpp:137] Memory required for data: 224788480
I0104 23:06:11.705672  1659 layer_factory.hpp:77] Creating layer inception_3a/relu_5x5
I0104 23:06:11.705693  1659 net.cpp:84] Creating Layer inception_3a/relu_5x5
I0104 23:06:11.705760  1659 net.cpp:406] inception_3a/relu_5x5 <- inception_3a/5x5
I0104 23:06:11.705814  1659 net.cpp:367] inception_3a/relu_5x5 -> inception_3a/5x5 (in-place)
I0104 23:06:11.705834  1659 net.cpp:122] Setting up inception_3a/relu_5x5
I0104 23:06:11.705900  1659 net.cpp:129] Top shape: 10 32 28 28 (250880)
I0104 23:06:11.705919  1659 net.cpp:137] Memory required for data: 225792000
I0104 23:06:11.706125  1659 layer_factory.hpp:77] Creating layer inception_3a/pool
I0104 23:06:11.706218  1659 net.cpp:84] Creating Layer inception_3a/pool
I0104 23:06:11.706234  1659 net.cpp:406] inception_3a/pool <- pool2/3x3_s2_pool2/3x3_s2_0_split_3
I0104 23:06:11.706254  1659 net.cpp:380] inception_3a/pool -> inception_3a/pool
I0104 23:06:11.706542  1659 net.cpp:122] Setting up inception_3a/pool
I0104 23:06:11.706559  1659 net.cpp:129] Top shape: 10 192 28 28 (1505280)
I0104 23:06:11.706576  1659 net.cpp:137] Memory required for data: 231813120
I0104 23:06:11.706723  1659 layer_factory.hpp:77] Creating layer inception_3a/pool_proj
I0104 23:06:11.706750  1659 net.cpp:84] Creating Layer inception_3a/pool_proj
I0104 23:06:11.706769  1659 net.cpp:406] inception_3a/pool_proj <- inception_3a/pool
I0104 23:06:11.706920  1659 net.cpp:380] inception_3a/pool_proj -> inception_3a/pool_proj
I0104 23:06:11.707787  1659 net.cpp:122] Setting up inception_3a/pool_proj
I0104 23:06:11.707806  1659 net.cpp:129] Top shape: 10 32 28 28 (250880)
I0104 23:06:11.707823  1659 net.cpp:137] Memory required for data: 232816640
I0104 23:06:11.707851  1659 layer_factory.hpp:77] Creating layer inception_3a/relu_pool_proj
I0104 23:06:11.707917  1659 net.cpp:84] Creating Layer inception_3a/relu_pool_proj
I0104 23:06:11.707934  1659 net.cpp:406] inception_3a/relu_pool_proj <- inception_3a/pool_proj
I0104 23:06:11.707998  1659 net.cpp:367] inception_3a/relu_pool_proj -> inception_3a/pool_proj (in-place)
I0104 23:06:11.708138  1659 net.cpp:122] Setting up inception_3a/relu_pool_proj
I0104 23:06:11.708153  1659 net.cpp:129] Top shape: 10 32 28 28 (250880)
I0104 23:06:11.708169  1659 net.cpp:137] Memory required for data: 233820160
I0104 23:06:11.708353  1659 layer_factory.hpp:77] Creating layer inception_3a/output
I0104 23:06:11.708379  1659 net.cpp:84] Creating Layer inception_3a/output
I0104 23:06:11.708394  1659 net.cpp:406] inception_3a/output <- inception_3a/1x1
I0104 23:06:11.708541  1659 net.cpp:406] inception_3a/output <- inception_3a/3x3
I0104 23:06:11.708560  1659 net.cpp:406] inception_3a/output <- inception_3a/5x5
I0104 23:06:11.708580  1659 net.cpp:406] inception_3a/output <- inception_3a/pool_proj
I0104 23:06:11.708734  1659 net.cpp:380] inception_3a/output -> inception_3a/output
I0104 23:06:11.708889  1659 net.cpp:122] Setting up inception_3a/output
I0104 23:06:11.708905  1659 net.cpp:129] Top shape: 10 256 28 28 (2007040)
I0104 23:06:11.708948  1659 net.cpp:137] Memory required for data: 241848320
I0104 23:06:11.709069  1659 layer_factory.hpp:77] Creating layer inception_3a/output_inception_3a/output_0_split
I0104 23:06:11.709237  1659 net.cpp:84] Creating Layer inception_3a/output_inception_3a/output_0_split
I0104 23:06:11.709265  1659 net.cpp:406] inception_3a/output_inception_3a/output_0_split <- inception_3a/output
I0104 23:06:11.709286  1659 net.cpp:380] inception_3a/output_inception_3a/output_0_split -> inception_3a/output_inception_3a/output_0_split_0
I0104 23:06:11.709455  1659 net.cpp:380] inception_3a/output_inception_3a/output_0_split -> inception_3a/output_inception_3a/output_0_split_1
I0104 23:06:11.709482  1659 net.cpp:380] inception_3a/output_inception_3a/output_0_split -> inception_3a/output_inception_3a/output_0_split_2
I0104 23:06:11.709504  1659 net.cpp:380] inception_3a/output_inception_3a/output_0_split -> inception_3a/output_inception_3a/output_0_split_3
I0104 23:06:11.709882  1659 net.cpp:122] Setting up inception_3a/output_inception_3a/output_0_split
I0104 23:06:11.709900  1659 net.cpp:129] Top shape: 10 256 28 28 (2007040)
I0104 23:06:11.709918  1659 net.cpp:129] Top shape: 10 256 28 28 (2007040)
I0104 23:06:11.709934  1659 net.cpp:129] Top shape: 10 256 28 28 (2007040)
I0104 23:06:11.710064  1659 net.cpp:129] Top shape: 10 256 28 28 (2007040)
I0104 23:06:11.710083  1659 net.cpp:137] Memory required for data: 273960960
I0104 23:06:11.710098  1659 layer_factory.hpp:77] Creating layer inception_3b/1x1
I0104 23:06:11.710244  1659 net.cpp:84] Creating Layer inception_3b/1x1
I0104 23:06:11.710263  1659 net.cpp:406] inception_3b/1x1 <- inception_3a/output_inception_3a/output_0_split_0
I0104 23:06:11.710284  1659 net.cpp:380] inception_3b/1x1 -> inception_3b/1x1
I0104 23:06:11.711875  1659 net.cpp:122] Setting up inception_3b/1x1
I0104 23:06:11.711895  1659 net.cpp:129] Top shape: 10 128 28 28 (1003520)
I0104 23:06:11.711913  1659 net.cpp:137] Memory required for data: 277975040
I0104 23:06:11.711936  1659 layer_factory.hpp:77] Creating layer inception_3b/relu_1x1
I0104 23:06:11.711956  1659 net.cpp:84] Creating Layer inception_3b/relu_1x1
I0104 23:06:11.712021  1659 net.cpp:406] inception_3b/relu_1x1 <- inception_3b/1x1
I0104 23:06:11.712087  1659 net.cpp:367] inception_3b/relu_1x1 -> inception_3b/1x1 (in-place)
I0104 23:06:11.712157  1659 net.cpp:122] Setting up inception_3b/relu_1x1
I0104 23:06:11.712270  1659 net.cpp:129] Top shape: 10 128 28 28 (1003520)
I0104 23:06:11.712432  1659 net.cpp:137] Memory required for data: 281989120
I0104 23:06:11.712452  1659 layer_factory.hpp:77] Creating layer inception_3b/3x3_reduce
I0104 23:06:11.712484  1659 net.cpp:84] Creating Layer inception_3b/3x3_reduce
I0104 23:06:11.712615  1659 net.cpp:406] inception_3b/3x3_reduce <- inception_3a/output_inception_3a/output_0_split_1
I0104 23:06:11.712637  1659 net.cpp:380] inception_3b/3x3_reduce -> inception_3b/3x3_reduce
I0104 23:06:11.714191  1659 net.cpp:122] Setting up inception_3b/3x3_reduce
I0104 23:06:11.714211  1659 net.cpp:129] Top shape: 10 128 28 28 (1003520)
I0104 23:06:11.714228  1659 net.cpp:137] Memory required for data: 286003200
I0104 23:06:11.714249  1659 layer_factory.hpp:77] Creating layer inception_3b/relu_3x3_reduce
I0104 23:06:11.714268  1659 net.cpp:84] Creating Layer inception_3b/relu_3x3_reduce
I0104 23:06:11.714351  1659 net.cpp:406] inception_3b/relu_3x3_reduce <- inception_3b/3x3_reduce
I0104 23:06:11.714462  1659 net.cpp:367] inception_3b/relu_3x3_reduce -> inception_3b/3x3_reduce (in-place)
I0104 23:06:11.714519  1659 net.cpp:122] Setting up inception_3b/relu_3x3_reduce
I0104 23:06:11.714535  1659 net.cpp:129] Top shape: 10 128 28 28 (1003520)
I0104 23:06:11.714551  1659 net.cpp:137] Memory required for data: 290017280
I0104 23:06:11.714610  1659 layer_factory.hpp:77] Creating layer inception_3b/3x3
I0104 23:06:11.714673  1659 net.cpp:84] Creating Layer inception_3b/3x3
I0104 23:06:11.714934  1659 net.cpp:406] inception_3b/3x3 <- inception_3b/3x3_reduce
I0104 23:06:11.714962  1659 net.cpp:380] inception_3b/3x3 -> inception_3b/3x3
I0104 23:06:11.721091  1659 net.cpp:122] Setting up inception_3b/3x3
I0104 23:06:11.721115  1659 net.cpp:129] Top shape: 10 192 28 28 (1505280)
I0104 23:06:11.721135  1659 net.cpp:137] Memory required for data: 296038400
I0104 23:06:11.721287  1659 layer_factory.hpp:77] Creating layer inception_3b/relu_3x3
I0104 23:06:11.721379  1659 net.cpp:84] Creating Layer inception_3b/relu_3x3
I0104 23:06:11.721395  1659 net.cpp:406] inception_3b/relu_3x3 <- inception_3b/3x3
I0104 23:06:11.721503  1659 net.cpp:367] inception_3b/relu_3x3 -> inception_3b/3x3 (in-place)
I0104 23:06:11.721616  1659 net.cpp:122] Setting up inception_3b/relu_3x3
I0104 23:06:11.721734  1659 net.cpp:129] Top shape: 10 192 28 28 (1505280)
I0104 23:06:11.721752  1659 net.cpp:137] Memory required for data: 302059520
I0104 23:06:11.721766  1659 layer_factory.hpp:77] Creating layer inception_3b/5x5_reduce
I0104 23:06:11.721973  1659 net.cpp:84] Creating Layer inception_3b/5x5_reduce
I0104 23:06:11.721990  1659 net.cpp:406] inception_3b/5x5_reduce <- inception_3a/output_inception_3a/output_0_split_2
I0104 23:06:11.722021  1659 net.cpp:380] inception_3b/5x5_reduce -> inception_3b/5x5_reduce
I0104 23:06:11.722954  1659 net.cpp:122] Setting up inception_3b/5x5_reduce
I0104 23:06:11.722975  1659 net.cpp:129] Top shape: 10 32 28 28 (250880)
I0104 23:06:11.722993  1659 net.cpp:137] Memory required for data: 303063040
I0104 23:06:11.723013  1659 layer_factory.hpp:77] Creating layer inception_3b/relu_5x5_reduce
I0104 23:06:11.723033  1659 net.cpp:84] Creating Layer inception_3b/relu_5x5_reduce
I0104 23:06:11.723098  1659 net.cpp:406] inception_3b/relu_5x5_reduce <- inception_3b/5x5_reduce
I0104 23:06:11.723163  1659 net.cpp:367] inception_3b/relu_5x5_reduce -> inception_3b/5x5_reduce (in-place)
I0104 23:06:11.723232  1659 net.cpp:122] Setting up inception_3b/relu_5x5_reduce
I0104 23:06:11.723278  1659 net.cpp:129] Top shape: 10 32 28 28 (250880)
I0104 23:06:11.723320  1659 net.cpp:137] Memory required for data: 304066560
I0104 23:06:11.723337  1659 layer_factory.hpp:77] Creating layer inception_3b/5x5
I0104 23:06:11.723523  1659 net.cpp:84] Creating Layer inception_3b/5x5
I0104 23:06:11.723546  1659 net.cpp:406] inception_3b/5x5 <- inception_3b/5x5_reduce
I0104 23:06:11.723690  1659 net.cpp:380] inception_3b/5x5 -> inception_3b/5x5
I0104 23:06:11.726315  1659 net.cpp:122] Setting up inception_3b/5x5
I0104 23:06:11.726336  1659 net.cpp:129] Top shape: 10 96 28 28 (752640)
I0104 23:06:11.726353  1659 net.cpp:137] Memory required for data: 307077120
I0104 23:06:11.726373  1659 layer_factory.hpp:77] Creating layer inception_3b/relu_5x5
I0104 23:06:11.726444  1659 net.cpp:84] Creating Layer inception_3b/relu_5x5
I0104 23:06:11.726461  1659 net.cpp:406] inception_3b/relu_5x5 <- inception_3b/5x5
I0104 23:06:11.726524  1659 net.cpp:367] inception_3b/relu_5x5 -> inception_3b/5x5 (in-place)
I0104 23:06:11.726631  1659 net.cpp:122] Setting up inception_3b/relu_5x5
I0104 23:06:11.726680  1659 net.cpp:129] Top shape: 10 96 28 28 (752640)
I0104 23:06:11.726699  1659 net.cpp:137] Memory required for data: 310087680
I0104 23:06:11.726713  1659 layer_factory.hpp:77] Creating layer inception_3b/pool
I0104 23:06:11.726958  1659 net.cpp:84] Creating Layer inception_3b/pool
I0104 23:06:11.726977  1659 net.cpp:406] inception_3b/pool <- inception_3a/output_inception_3a/output_0_split_3
I0104 23:06:11.727005  1659 net.cpp:380] inception_3b/pool -> inception_3b/pool
I0104 23:06:11.727208  1659 net.cpp:122] Setting up inception_3b/pool
I0104 23:06:11.727274  1659 net.cpp:129] Top shape: 10 256 28 28 (2007040)
I0104 23:06:11.727296  1659 net.cpp:137] Memory required for data: 318115840
I0104 23:06:11.727442  1659 layer_factory.hpp:77] Creating layer inception_3b/pool_proj
I0104 23:06:11.727473  1659 net.cpp:84] Creating Layer inception_3b/pool_proj
I0104 23:06:11.727489  1659 net.cpp:406] inception_3b/pool_proj <- inception_3b/pool
I0104 23:06:11.727643  1659 net.cpp:380] inception_3b/pool_proj -> inception_3b/pool_proj
I0104 23:06:11.728790  1659 net.cpp:122] Setting up inception_3b/pool_proj
I0104 23:06:11.728811  1659 net.cpp:129] Top shape: 10 64 28 28 (501760)
I0104 23:06:11.728829  1659 net.cpp:137] Memory required for data: 320122880
I0104 23:06:11.728852  1659 layer_factory.hpp:77] Creating layer inception_3b/relu_pool_proj
I0104 23:06:11.728986  1659 net.cpp:84] Creating Layer inception_3b/relu_pool_proj
I0104 23:06:11.729002  1659 net.cpp:406] inception_3b/relu_pool_proj <- inception_3b/pool_proj
I0104 23:06:11.729022  1659 net.cpp:367] inception_3b/relu_pool_proj -> inception_3b/pool_proj (in-place)
I0104 23:06:11.729182  1659 net.cpp:122] Setting up inception_3b/relu_pool_proj
I0104 23:06:11.729197  1659 net.cpp:129] Top shape: 10 64 28 28 (501760)
I0104 23:06:11.729213  1659 net.cpp:137] Memory required for data: 322129920
I0104 23:06:11.729363  1659 layer_factory.hpp:77] Creating layer inception_3b/output
I0104 23:06:11.729459  1659 net.cpp:84] Creating Layer inception_3b/output
I0104 23:06:11.729477  1659 net.cpp:406] inception_3b/output <- inception_3b/1x1
I0104 23:06:11.729496  1659 net.cpp:406] inception_3b/output <- inception_3b/3x3
I0104 23:06:11.729643  1659 net.cpp:406] inception_3b/output <- inception_3b/5x5
I0104 23:06:11.729660  1659 net.cpp:406] inception_3b/output <- inception_3b/pool_proj
I0104 23:06:11.729830  1659 net.cpp:380] inception_3b/output -> inception_3b/output
I0104 23:06:11.729979  1659 net.cpp:122] Setting up inception_3b/output
I0104 23:06:11.729996  1659 net.cpp:129] Top shape: 10 480 28 28 (3763200)
I0104 23:06:11.730136  1659 net.cpp:137] Memory required for data: 337182720
I0104 23:06:11.730152  1659 layer_factory.hpp:77] Creating layer pool3/3x3_s2
I0104 23:06:11.730468  1659 net.cpp:84] Creating Layer pool3/3x3_s2
I0104 23:06:11.730489  1659 net.cpp:406] pool3/3x3_s2 <- inception_3b/output
I0104 23:06:11.730509  1659 net.cpp:380] pool3/3x3_s2 -> pool3/3x3_s2
I0104 23:06:11.730723  1659 net.cpp:122] Setting up pool3/3x3_s2
I0104 23:06:11.730849  1659 net.cpp:129] Top shape: 10 480 14 14 (940800)
I0104 23:06:11.730868  1659 net.cpp:137] Memory required for data: 340945920
I0104 23:06:11.730882  1659 layer_factory.hpp:77] Creating layer pool3/3x3_s2_pool3/3x3_s2_0_split
I0104 23:06:11.730906  1659 net.cpp:84] Creating Layer pool3/3x3_s2_pool3/3x3_s2_0_split
I0104 23:06:11.731042  1659 net.cpp:406] pool3/3x3_s2_pool3/3x3_s2_0_split <- pool3/3x3_s2
I0104 23:06:11.731068  1659 net.cpp:380] pool3/3x3_s2_pool3/3x3_s2_0_split -> pool3/3x3_s2_pool3/3x3_s2_0_split_0
I0104 23:06:11.731228  1659 net.cpp:380] pool3/3x3_s2_pool3/3x3_s2_0_split -> pool3/3x3_s2_pool3/3x3_s2_0_split_1
I0104 23:06:11.731256  1659 net.cpp:380] pool3/3x3_s2_pool3/3x3_s2_0_split -> pool3/3x3_s2_pool3/3x3_s2_0_split_2
I0104 23:06:11.731426  1659 net.cpp:380] pool3/3x3_s2_pool3/3x3_s2_0_split -> pool3/3x3_s2_pool3/3x3_s2_0_split_3
I0104 23:06:11.731809  1659 net.cpp:122] Setting up pool3/3x3_s2_pool3/3x3_s2_0_split
I0104 23:06:11.731827  1659 net.cpp:129] Top shape: 10 480 14 14 (940800)
I0104 23:06:11.731847  1659 net.cpp:129] Top shape: 10 480 14 14 (940800)
I0104 23:06:11.731863  1659 net.cpp:129] Top shape: 10 480 14 14 (940800)
I0104 23:06:11.731879  1659 net.cpp:129] Top shape: 10 480 14 14 (940800)
I0104 23:06:11.731940  1659 net.cpp:137] Memory required for data: 355998720
I0104 23:06:11.731956  1659 layer_factory.hpp:77] Creating layer inception_4a/1x1
I0104 23:06:11.732076  1659 net.cpp:84] Creating Layer inception_4a/1x1
I0104 23:06:11.732127  1659 net.cpp:406] inception_4a/1x1 <- pool3/3x3_s2_pool3/3x3_s2_0_split_0
I0104 23:06:11.732149  1659 net.cpp:380] inception_4a/1x1 -> inception_4a/1x1
I0104 23:06:11.735288  1659 net.cpp:122] Setting up inception_4a/1x1
I0104 23:06:11.735329  1659 net.cpp:129] Top shape: 10 192 14 14 (376320)
I0104 23:06:11.735348  1659 net.cpp:137] Memory required for data: 357504000
I0104 23:06:11.735370  1659 layer_factory.hpp:77] Creating layer inception_4a/relu_1x1
I0104 23:06:11.735394  1659 net.cpp:84] Creating Layer inception_4a/relu_1x1
I0104 23:06:11.735460  1659 net.cpp:406] inception_4a/relu_1x1 <- inception_4a/1x1
I0104 23:06:11.735512  1659 net.cpp:367] inception_4a/relu_1x1 -> inception_4a/1x1 (in-place)
I0104 23:06:11.735579  1659 net.cpp:122] Setting up inception_4a/relu_1x1
I0104 23:06:11.735636  1659 net.cpp:129] Top shape: 10 192 14 14 (376320)
I0104 23:06:11.735713  1659 net.cpp:137] Memory required for data: 359009280
I0104 23:06:11.735729  1659 layer_factory.hpp:77] Creating layer inception_4a/3x3_reduce
I0104 23:06:11.735759  1659 net.cpp:84] Creating Layer inception_4a/3x3_reduce
I0104 23:06:11.735821  1659 net.cpp:406] inception_4a/3x3_reduce <- pool3/3x3_s2_pool3/3x3_s2_0_split_1
I0104 23:06:11.736064  1659 net.cpp:380] inception_4a/3x3_reduce -> inception_4a/3x3_reduce
I0104 23:06:11.737928  1659 net.cpp:122] Setting up inception_4a/3x3_reduce
I0104 23:06:11.737949  1659 net.cpp:129] Top shape: 10 96 14 14 (188160)
I0104 23:06:11.737967  1659 net.cpp:137] Memory required for data: 359761920
I0104 23:06:11.738001  1659 layer_factory.hpp:77] Creating layer inception_4a/relu_3x3_reduce
I0104 23:06:11.738121  1659 net.cpp:84] Creating Layer inception_4a/relu_3x3_reduce
I0104 23:06:11.738169  1659 net.cpp:406] inception_4a/relu_3x3_reduce <- inception_4a/3x3_reduce
I0104 23:06:11.738191  1659 net.cpp:367] inception_4a/relu_3x3_reduce -> inception_4a/3x3_reduce (in-place)
I0104 23:06:11.738212  1659 net.cpp:122] Setting up inception_4a/relu_3x3_reduce
I0104 23:06:11.738270  1659 net.cpp:129] Top shape: 10 96 14 14 (188160)
I0104 23:06:11.738289  1659 net.cpp:137] Memory required for data: 360514560
I0104 23:06:11.738359  1659 layer_factory.hpp:77] Creating layer inception_4a/3x3
I0104 23:06:11.738392  1659 net.cpp:84] Creating Layer inception_4a/3x3
I0104 23:06:11.738629  1659 net.cpp:406] inception_4a/3x3 <- inception_4a/3x3_reduce
I0104 23:06:11.738765  1659 net.cpp:380] inception_4a/3x3 -> inception_4a/3x3
I0104 23:06:11.743858  1659 net.cpp:122] Setting up inception_4a/3x3
I0104 23:06:11.743880  1659 net.cpp:129] Top shape: 10 208 14 14 (407680)
I0104 23:06:11.743903  1659 net.cpp:137] Memory required for data: 362145280
I0104 23:06:11.743923  1659 layer_factory.hpp:77] Creating layer inception_4a/relu_3x3
I0104 23:06:11.743943  1659 net.cpp:84] Creating Layer inception_4a/relu_3x3
I0104 23:06:11.744009  1659 net.cpp:406] inception_4a/relu_3x3 <- inception_4a/3x3
I0104 23:06:11.744060  1659 net.cpp:367] inception_4a/relu_3x3 -> inception_4a/3x3 (in-place)
I0104 23:06:11.744081  1659 net.cpp:122] Setting up inception_4a/relu_3x3
I0104 23:06:11.744140  1659 net.cpp:129] Top shape: 10 208 14 14 (407680)
I0104 23:06:11.744333  1659 net.cpp:137] Memory required for data: 363776000
I0104 23:06:11.744452  1659 layer_factory.hpp:77] Creating layer inception_4a/5x5_reduce
I0104 23:06:11.744483  1659 net.cpp:84] Creating Layer inception_4a/5x5_reduce
I0104 23:06:11.744498  1659 net.cpp:406] inception_4a/5x5_reduce <- pool3/3x3_s2_pool3/3x3_s2_0_split_2
I0104 23:06:11.744571  1659 net.cpp:380] inception_4a/5x5_reduce -> inception_4a/5x5_reduce
I0104 23:06:11.745596  1659 net.cpp:122] Setting up inception_4a/5x5_reduce
I0104 23:06:11.745616  1659 net.cpp:129] Top shape: 10 16 14 14 (31360)
I0104 23:06:11.745635  1659 net.cpp:137] Memory required for data: 363901440
I0104 23:06:11.745656  1659 layer_factory.hpp:77] Creating layer inception_4a/relu_5x5_reduce
I0104 23:06:11.745676  1659 net.cpp:84] Creating Layer inception_4a/relu_5x5_reduce
I0104 23:06:11.745739  1659 net.cpp:406] inception_4a/relu_5x5_reduce <- inception_4a/5x5_reduce
I0104 23:06:11.745810  1659 net.cpp:367] inception_4a/relu_5x5_reduce -> inception_4a/5x5_reduce (in-place)
I0104 23:06:11.745863  1659 net.cpp:122] Setting up inception_4a/relu_5x5_reduce
I0104 23:06:11.745878  1659 net.cpp:129] Top shape: 10 16 14 14 (31360)
I0104 23:06:11.745900  1659 net.cpp:137] Memory required for data: 364026880
I0104 23:06:11.745914  1659 layer_factory.hpp:77] Creating layer inception_4a/5x5
I0104 23:06:11.746145  1659 net.cpp:84] Creating Layer inception_4a/5x5
I0104 23:06:11.746163  1659 net.cpp:406] inception_4a/5x5 <- inception_4a/5x5_reduce
I0104 23:06:11.746188  1659 net.cpp:380] inception_4a/5x5 -> inception_4a/5x5
I0104 23:06:11.747422  1659 net.cpp:122] Setting up inception_4a/5x5
I0104 23:06:11.747443  1659 net.cpp:129] Top shape: 10 48 14 14 (94080)
I0104 23:06:11.747460  1659 net.cpp:137] Memory required for data: 364403200
I0104 23:06:11.747558  1659 layer_factory.hpp:77] Creating layer inception_4a/relu_5x5
I0104 23:06:11.747618  1659 net.cpp:84] Creating Layer inception_4a/relu_5x5
I0104 23:06:11.747635  1659 net.cpp:406] inception_4a/relu_5x5 <- inception_4a/5x5
I0104 23:06:11.747699  1659 net.cpp:367] inception_4a/relu_5x5 -> inception_4a/5x5 (in-place)
I0104 23:06:11.747766  1659 net.cpp:122] Setting up inception_4a/relu_5x5
I0104 23:06:11.747923  1659 net.cpp:129] Top shape: 10 48 14 14 (94080)
I0104 23:06:11.748044  1659 net.cpp:137] Memory required for data: 364779520
I0104 23:06:11.748102  1659 layer_factory.hpp:77] Creating layer inception_4a/pool
I0104 23:06:11.748157  1659 net.cpp:84] Creating Layer inception_4a/pool
I0104 23:06:11.748173  1659 net.cpp:406] inception_4a/pool <- pool3/3x3_s2_pool3/3x3_s2_0_split_3
I0104 23:06:11.748258  1659 net.cpp:380] inception_4a/pool -> inception_4a/pool
I0104 23:06:11.748551  1659 net.cpp:122] Setting up inception_4a/pool
I0104 23:06:11.748569  1659 net.cpp:129] Top shape: 10 480 14 14 (940800)
I0104 23:06:11.748597  1659 net.cpp:137] Memory required for data: 368542720
I0104 23:06:11.748611  1659 layer_factory.hpp:77] Creating layer inception_4a/pool_proj
I0104 23:06:11.748754  1659 net.cpp:84] Creating Layer inception_4a/pool_proj
I0104 23:06:11.748848  1659 net.cpp:406] inception_4a/pool_proj <- inception_4a/pool
I0104 23:06:11.748872  1659 net.cpp:380] inception_4a/pool_proj -> inception_4a/pool_proj
I0104 23:06:11.750401  1659 net.cpp:122] Setting up inception_4a/pool_proj
I0104 23:06:11.750422  1659 net.cpp:129] Top shape: 10 64 14 14 (125440)
I0104 23:06:11.750439  1659 net.cpp:137] Memory required for data: 369044480
I0104 23:06:11.750463  1659 layer_factory.hpp:77] Creating layer inception_4a/relu_pool_proj
I0104 23:06:11.750530  1659 net.cpp:84] Creating Layer inception_4a/relu_pool_proj
I0104 23:06:11.750548  1659 net.cpp:406] inception_4a/relu_pool_proj <- inception_4a/pool_proj
I0104 23:06:11.750602  1659 net.cpp:367] inception_4a/relu_pool_proj -> inception_4a/pool_proj (in-place)
I0104 23:06:11.750622  1659 net.cpp:122] Setting up inception_4a/relu_pool_proj
I0104 23:06:11.750682  1659 net.cpp:129] Top shape: 10 64 14 14 (125440)
I0104 23:06:11.750700  1659 net.cpp:137] Memory required for data: 369546240
I0104 23:06:11.750883  1659 layer_factory.hpp:77] Creating layer inception_4a/output
I0104 23:06:11.750906  1659 net.cpp:84] Creating Layer inception_4a/output
I0104 23:06:11.750922  1659 net.cpp:406] inception_4a/output <- inception_4a/1x1
I0104 23:06:11.750939  1659 net.cpp:406] inception_4a/output <- inception_4a/3x3
I0104 23:06:11.751081  1659 net.cpp:406] inception_4a/output <- inception_4a/5x5
I0104 23:06:11.751099  1659 net.cpp:406] inception_4a/output <- inception_4a/pool_proj
I0104 23:06:11.751127  1659 net.cpp:380] inception_4a/output -> inception_4a/output
I0104 23:06:11.751490  1659 net.cpp:122] Setting up inception_4a/output
I0104 23:06:11.751513  1659 net.cpp:129] Top shape: 10 512 14 14 (1003520)
I0104 23:06:11.751529  1659 net.cpp:137] Memory required for data: 373560320
I0104 23:06:11.751544  1659 layer_factory.hpp:77] Creating layer inception_4a/output_inception_4a/output_0_split
I0104 23:06:11.751690  1659 net.cpp:84] Creating Layer inception_4a/output_inception_4a/output_0_split
I0104 23:06:11.751754  1659 net.cpp:406] inception_4a/output_inception_4a/output_0_split <- inception_4a/output
I0104 23:06:11.751809  1659 net.cpp:380] inception_4a/output_inception_4a/output_0_split -> inception_4a/output_inception_4a/output_0_split_0
I0104 23:06:11.751837  1659 net.cpp:380] inception_4a/output_inception_4a/output_0_split -> inception_4a/output_inception_4a/output_0_split_1
I0104 23:06:11.751996  1659 net.cpp:380] inception_4a/output_inception_4a/output_0_split -> inception_4a/output_inception_4a/output_0_split_2
I0104 23:06:11.752025  1659 net.cpp:380] inception_4a/output_inception_4a/output_0_split -> inception_4a/output_inception_4a/output_0_split_3
I0104 23:06:11.752405  1659 net.cpp:122] Setting up inception_4a/output_inception_4a/output_0_split
I0104 23:06:11.752454  1659 net.cpp:129] Top shape: 10 512 14 14 (1003520)
I0104 23:06:11.752475  1659 net.cpp:129] Top shape: 10 512 14 14 (1003520)
I0104 23:06:11.752490  1659 net.cpp:129] Top shape: 10 512 14 14 (1003520)
I0104 23:06:11.752557  1659 net.cpp:129] Top shape: 10 512 14 14 (1003520)
I0104 23:06:11.752619  1659 net.cpp:137] Memory required for data: 389616640
I0104 23:06:11.752859  1659 layer_factory.hpp:77] Creating layer inception_4b/1x1
I0104 23:06:11.752895  1659 net.cpp:84] Creating Layer inception_4b/1x1
I0104 23:06:11.752912  1659 net.cpp:406] inception_4b/1x1 <- inception_4a/output_inception_4a/output_0_split_0
I0104 23:06:11.753047  1659 net.cpp:380] inception_4b/1x1 -> inception_4b/1x1
I0104 23:06:11.755729  1659 net.cpp:122] Setting up inception_4b/1x1
I0104 23:06:11.755750  1659 net.cpp:129] Top shape: 10 160 14 14 (313600)
I0104 23:06:11.755769  1659 net.cpp:137] Memory required for data: 390871040
I0104 23:06:11.755789  1659 layer_factory.hpp:77] Creating layer inception_4b/relu_1x1
I0104 23:06:11.755808  1659 net.cpp:84] Creating Layer inception_4b/relu_1x1
I0104 23:06:11.755872  1659 net.cpp:406] inception_4b/relu_1x1 <- inception_4b/1x1
I0104 23:06:11.755939  1659 net.cpp:367] inception_4b/relu_1x1 -> inception_4b/1x1 (in-place)
I0104 23:06:11.756005  1659 net.cpp:122] Setting up inception_4b/relu_1x1
I0104 23:06:11.756052  1659 net.cpp:129] Top shape: 10 160 14 14 (313600)
I0104 23:06:11.756069  1659 net.cpp:137] Memory required for data: 392125440
I0104 23:06:11.756083  1659 layer_factory.hpp:77] Creating layer inception_4b/3x3_reduce
I0104 23:06:11.756152  1659 net.cpp:84] Creating Layer inception_4b/3x3_reduce
I0104 23:06:11.756212  1659 net.cpp:406] inception_4b/3x3_reduce <- inception_4a/output_inception_4a/output_0_split_1
I0104 23:06:11.756268  1659 net.cpp:380] inception_4b/3x3_reduce -> inception_4b/3x3_reduce
I0104 23:06:11.758503  1659 net.cpp:122] Setting up inception_4b/3x3_reduce
I0104 23:06:11.758524  1659 net.cpp:129] Top shape: 10 112 14 14 (219520)
I0104 23:06:11.758543  1659 net.cpp:137] Memory required for data: 393003520
I0104 23:06:11.758566  1659 layer_factory.hpp:77] Creating layer inception_4b/relu_3x3_reduce
I0104 23:06:11.758635  1659 net.cpp:84] Creating Layer inception_4b/relu_3x3_reduce
I0104 23:06:11.758652  1659 net.cpp:406] inception_4b/relu_3x3_reduce <- inception_4b/3x3_reduce
I0104 23:06:11.758707  1659 net.cpp:367] inception_4b/relu_3x3_reduce -> inception_4b/3x3_reduce (in-place)
I0104 23:06:11.758728  1659 net.cpp:122] Setting up inception_4b/relu_3x3_reduce
I0104 23:06:11.758741  1659 net.cpp:129] Top shape: 10 112 14 14 (219520)
I0104 23:06:11.758803  1659 net.cpp:137] Memory required for data: 393881600
I0104 23:06:11.758817  1659 layer_factory.hpp:77] Creating layer inception_4b/3x3
I0104 23:06:11.759019  1659 net.cpp:84] Creating Layer inception_4b/3x3
I0104 23:06:11.759124  1659 net.cpp:406] inception_4b/3x3 <- inception_4b/3x3_reduce
I0104 23:06:11.759150  1659 net.cpp:380] inception_4b/3x3 -> inception_4b/3x3
I0104 23:06:11.765509  1659 net.cpp:122] Setting up inception_4b/3x3
I0104 23:06:11.765535  1659 net.cpp:129] Top shape: 10 224 14 14 (439040)
I0104 23:06:11.765554  1659 net.cpp:137] Memory required for data: 395637760
I0104 23:06:11.765576  1659 layer_factory.hpp:77] Creating layer inception_4b/relu_3x3
I0104 23:06:11.765650  1659 net.cpp:84] Creating Layer inception_4b/relu_3x3
I0104 23:06:11.765667  1659 net.cpp:406] inception_4b/relu_3x3 <- inception_4b/3x3
I0104 23:06:11.765779  1659 net.cpp:367] inception_4b/relu_3x3 -> inception_4b/3x3 (in-place)
I0104 23:06:11.765833  1659 net.cpp:122] Setting up inception_4b/relu_3x3
I0104 23:06:11.766002  1659 net.cpp:129] Top shape: 10 224 14 14 (439040)
I0104 23:06:11.766116  1659 net.cpp:137] Memory required for data: 397393920
I0104 23:06:11.766132  1659 layer_factory.hpp:77] Creating layer inception_4b/5x5_reduce
I0104 23:06:11.766336  1659 net.cpp:84] Creating Layer inception_4b/5x5_reduce
I0104 23:06:11.766355  1659 net.cpp:406] inception_4b/5x5_reduce <- inception_4a/output_inception_4a/output_0_split_2
I0104 23:06:11.766522  1659 net.cpp:380] inception_4b/5x5_reduce -> inception_4b/5x5_reduce
I0104 23:06:11.767568  1659 net.cpp:122] Setting up inception_4b/5x5_reduce
I0104 23:06:11.767590  1659 net.cpp:129] Top shape: 10 24 14 14 (47040)
I0104 23:06:11.767608  1659 net.cpp:137] Memory required for data: 397582080
I0104 23:06:11.767629  1659 layer_factory.hpp:77] Creating layer inception_4b/relu_5x5_reduce
I0104 23:06:11.767699  1659 net.cpp:84] Creating Layer inception_4b/relu_5x5_reduce
I0104 23:06:11.767716  1659 net.cpp:406] inception_4b/relu_5x5_reduce <- inception_4b/5x5_reduce
I0104 23:06:11.767771  1659 net.cpp:367] inception_4b/relu_5x5_reduce -> inception_4b/5x5_reduce (in-place)
I0104 23:06:11.767791  1659 net.cpp:122] Setting up inception_4b/relu_5x5_reduce
I0104 23:06:11.767805  1659 net.cpp:129] Top shape: 10 24 14 14 (47040)
I0104 23:06:11.767868  1659 net.cpp:137] Memory required for data: 397770240
I0104 23:06:11.767882  1659 layer_factory.hpp:77] Creating layer inception_4b/5x5
I0104 23:06:11.768120  1659 net.cpp:84] Creating Layer inception_4b/5x5
I0104 23:06:11.768239  1659 net.cpp:406] inception_4b/5x5 <- inception_4b/5x5_reduce
I0104 23:06:11.768262  1659 net.cpp:380] inception_4b/5x5 -> inception_4b/5x5
I0104 23:06:11.769973  1659 net.cpp:122] Setting up inception_4b/5x5
I0104 23:06:11.769995  1659 net.cpp:129] Top shape: 10 64 14 14 (125440)
I0104 23:06:11.770014  1659 net.cpp:137] Memory required for data: 398272000
I0104 23:06:11.770033  1659 layer_factory.hpp:77] Creating layer inception_4b/relu_5x5
I0104 23:06:11.770107  1659 net.cpp:84] Creating Layer inception_4b/relu_5x5
I0104 23:06:11.770124  1659 net.cpp:406] inception_4b/relu_5x5 <- inception_4b/5x5
I0104 23:06:11.770231  1659 net.cpp:367] inception_4b/relu_5x5 -> inception_4b/5x5 (in-place)
I0104 23:06:11.770288  1659 net.cpp:122] Setting up inception_4b/relu_5x5
I0104 23:06:11.770380  1659 net.cpp:129] Top shape: 10 64 14 14 (125440)
I0104 23:06:11.770398  1659 net.cpp:137] Memory required for data: 398773760
I0104 23:06:11.770603  1659 layer_factory.hpp:77] Creating layer inception_4b/pool
I0104 23:06:11.770627  1659 net.cpp:84] Creating Layer inception_4b/pool
I0104 23:06:11.770643  1659 net.cpp:406] inception_4b/pool <- inception_4a/output_inception_4a/output_0_split_3
I0104 23:06:11.770665  1659 net.cpp:380] inception_4b/pool -> inception_4b/pool
I0104 23:06:11.771037  1659 net.cpp:122] Setting up inception_4b/pool
I0104 23:06:11.771055  1659 net.cpp:129] Top shape: 10 512 14 14 (1003520)
I0104 23:06:11.771072  1659 net.cpp:137] Memory required for data: 402787840
I0104 23:06:11.771086  1659 layer_factory.hpp:77] Creating layer inception_4b/pool_proj
I0104 23:06:11.771162  1659 net.cpp:84] Creating Layer inception_4b/pool_proj
I0104 23:06:11.771178  1659 net.cpp:406] inception_4b/pool_proj <- inception_4b/pool
I0104 23:06:11.771288  1659 net.cpp:380] inception_4b/pool_proj -> inception_4b/pool_proj
I0104 23:06:11.772833  1659 net.cpp:122] Setting up inception_4b/pool_proj
I0104 23:06:11.772855  1659 net.cpp:129] Top shape: 10 64 14 14 (125440)
I0104 23:06:11.772876  1659 net.cpp:137] Memory required for data: 403289600
I0104 23:06:11.772897  1659 layer_factory.hpp:77] Creating layer inception_4b/relu_pool_proj
I0104 23:06:11.772964  1659 net.cpp:84] Creating Layer inception_4b/relu_pool_proj
I0104 23:06:11.773071  1659 net.cpp:406] inception_4b/relu_pool_proj <- inception_4b/pool_proj
I0104 23:06:11.773188  1659 net.cpp:367] inception_4b/relu_pool_proj -> inception_4b/pool_proj (in-place)
I0104 23:06:11.773342  1659 net.cpp:122] Setting up inception_4b/relu_pool_proj
I0104 23:06:11.773357  1659 net.cpp:129] Top shape: 10 64 14 14 (125440)
I0104 23:06:11.773378  1659 net.cpp:137] Memory required for data: 403791360
I0104 23:06:11.773507  1659 layer_factory.hpp:77] Creating layer inception_4b/output
I0104 23:06:11.773533  1659 net.cpp:84] Creating Layer inception_4b/output
I0104 23:06:11.773730  1659 net.cpp:406] inception_4b/output <- inception_4b/1x1
I0104 23:06:11.773823  1659 net.cpp:406] inception_4b/output <- inception_4b/3x3
I0104 23:06:11.773975  1659 net.cpp:406] inception_4b/output <- inception_4b/5x5
I0104 23:06:11.773995  1659 net.cpp:406] inception_4b/output <- inception_4b/pool_proj
I0104 23:06:11.774019  1659 net.cpp:380] inception_4b/output -> inception_4b/output
I0104 23:06:11.774207  1659 net.cpp:122] Setting up inception_4b/output
I0104 23:06:11.774225  1659 net.cpp:129] Top shape: 10 512 14 14 (1003520)
I0104 23:06:11.774412  1659 net.cpp:137] Memory required for data: 407805440
I0104 23:06:11.774433  1659 layer_factory.hpp:77] Creating layer inception_4b/output_inception_4b/output_0_split
I0104 23:06:11.774453  1659 net.cpp:84] Creating Layer inception_4b/output_inception_4b/output_0_split
I0104 23:06:11.774592  1659 net.cpp:406] inception_4b/output_inception_4b/output_0_split <- inception_4b/output
I0104 23:06:11.774621  1659 net.cpp:380] inception_4b/output_inception_4b/output_0_split -> inception_4b/output_inception_4b/output_0_split_0
I0104 23:06:11.774646  1659 net.cpp:380] inception_4b/output_inception_4b/output_0_split -> inception_4b/output_inception_4b/output_0_split_1
I0104 23:06:11.774814  1659 net.cpp:380] inception_4b/output_inception_4b/output_0_split -> inception_4b/output_inception_4b/output_0_split_2
I0104 23:06:11.774840  1659 net.cpp:380] inception_4b/output_inception_4b/output_0_split -> inception_4b/output_inception_4b/output_0_split_3
I0104 23:06:11.775182  1659 net.cpp:122] Setting up inception_4b/output_inception_4b/output_0_split
I0104 23:06:11.775247  1659 net.cpp:129] Top shape: 10 512 14 14 (1003520)
I0104 23:06:11.775265  1659 net.cpp:129] Top shape: 10 512 14 14 (1003520)
I0104 23:06:11.775281  1659 net.cpp:129] Top shape: 10 512 14 14 (1003520)
I0104 23:06:11.775362  1659 net.cpp:129] Top shape: 10 512 14 14 (1003520)
I0104 23:06:11.775475  1659 net.cpp:137] Memory required for data: 423861760
I0104 23:06:11.775598  1659 layer_factory.hpp:77] Creating layer inception_4c/1x1
I0104 23:06:11.775769  1659 net.cpp:84] Creating Layer inception_4c/1x1
I0104 23:06:11.775789  1659 net.cpp:406] inception_4c/1x1 <- inception_4b/output_inception_4b/output_0_split_0
I0104 23:06:11.775820  1659 net.cpp:380] inception_4c/1x1 -> inception_4c/1x1
I0104 23:06:11.778151  1659 net.cpp:122] Setting up inception_4c/1x1
I0104 23:06:11.778172  1659 net.cpp:129] Top shape: 10 128 14 14 (250880)
I0104 23:06:11.778189  1659 net.cpp:137] Memory required for data: 424865280
I0104 23:06:11.778210  1659 layer_factory.hpp:77] Creating layer inception_4c/relu_1x1
I0104 23:06:11.778280  1659 net.cpp:84] Creating Layer inception_4c/relu_1x1
I0104 23:06:11.778297  1659 net.cpp:406] inception_4c/relu_1x1 <- inception_4c/1x1
I0104 23:06:11.778411  1659 net.cpp:367] inception_4c/relu_1x1 -> inception_4c/1x1 (in-place)
I0104 23:06:11.778434  1659 net.cpp:122] Setting up inception_4c/relu_1x1
I0104 23:06:11.778447  1659 net.cpp:129] Top shape: 10 128 14 14 (250880)
I0104 23:06:11.778511  1659 net.cpp:137] Memory required for data: 425868800
I0104 23:06:11.778570  1659 layer_factory.hpp:77] Creating layer inception_4c/3x3_reduce
I0104 23:06:11.778791  1659 net.cpp:84] Creating Layer inception_4c/3x3_reduce
I0104 23:06:11.778808  1659 net.cpp:406] inception_4c/3x3_reduce <- inception_4b/output_inception_4b/output_0_split_1
I0104 23:06:11.778976  1659 net.cpp:380] inception_4c/3x3_reduce -> inception_4c/3x3_reduce
I0104 23:06:11.781234  1659 net.cpp:122] Setting up inception_4c/3x3_reduce
I0104 23:06:11.781253  1659 net.cpp:129] Top shape: 10 128 14 14 (250880)
I0104 23:06:11.781271  1659 net.cpp:137] Memory required for data: 426872320
I0104 23:06:11.781292  1659 layer_factory.hpp:77] Creating layer inception_4c/relu_3x3_reduce
I0104 23:06:11.781373  1659 net.cpp:84] Creating Layer inception_4c/relu_3x3_reduce
I0104 23:06:11.781435  1659 net.cpp:406] inception_4c/relu_3x3_reduce <- inception_4c/3x3_reduce
I0104 23:06:11.781656  1659 net.cpp:367] inception_4c/relu_3x3_reduce -> inception_4c/3x3_reduce (in-place)
I0104 23:06:11.781733  1659 net.cpp:122] Setting up inception_4c/relu_3x3_reduce
I0104 23:06:11.781847  1659 net.cpp:129] Top shape: 10 128 14 14 (250880)
I0104 23:06:11.781867  1659 net.cpp:137] Memory required for data: 427875840
I0104 23:06:11.781880  1659 layer_factory.hpp:77] Creating layer inception_4c/3x3
I0104 23:06:11.781975  1659 net.cpp:84] Creating Layer inception_4c/3x3
I0104 23:06:11.782037  1659 net.cpp:406] inception_4c/3x3 <- inception_4c/3x3_reduce
I0104 23:06:11.782135  1659 net.cpp:380] inception_4c/3x3 -> inception_4c/3x3
I0104 23:06:11.790097  1659 net.cpp:122] Setting up inception_4c/3x3
I0104 23:06:11.790122  1659 net.cpp:129] Top shape: 10 256 14 14 (501760)
I0104 23:06:11.790141  1659 net.cpp:137] Memory required for data: 429882880
I0104 23:06:11.790163  1659 layer_factory.hpp:77] Creating layer inception_4c/relu_3x3
I0104 23:06:11.790233  1659 net.cpp:84] Creating Layer inception_4c/relu_3x3
I0104 23:06:11.790252  1659 net.cpp:406] inception_4c/relu_3x3 <- inception_4c/3x3
I0104 23:06:11.790328  1659 net.cpp:367] inception_4c/relu_3x3 -> inception_4c/3x3 (in-place)
I0104 23:06:11.790352  1659 net.cpp:122] Setting up inception_4c/relu_3x3
I0104 23:06:11.790436  1659 net.cpp:129] Top shape: 10 256 14 14 (501760)
I0104 23:06:11.790549  1659 net.cpp:137] Memory required for data: 431889920
I0104 23:06:11.790593  1659 layer_factory.hpp:77] Creating layer inception_4c/5x5_reduce
I0104 23:06:11.790801  1659 net.cpp:84] Creating Layer inception_4c/5x5_reduce
I0104 23:06:11.790864  1659 net.cpp:406] inception_4c/5x5_reduce <- inception_4b/output_inception_4b/output_0_split_2
I0104 23:06:11.790889  1659 net.cpp:380] inception_4c/5x5_reduce -> inception_4c/5x5_reduce
I0104 23:06:11.791991  1659 net.cpp:122] Setting up inception_4c/5x5_reduce
I0104 23:06:11.792016  1659 net.cpp:129] Top shape: 10 24 14 14 (47040)
I0104 23:06:11.792035  1659 net.cpp:137] Memory required for data: 432078080
I0104 23:06:11.792057  1659 layer_factory.hpp:77] Creating layer inception_4c/relu_5x5_reduce
I0104 23:06:11.792129  1659 net.cpp:84] Creating Layer inception_4c/relu_5x5_reduce
I0104 23:06:11.792233  1659 net.cpp:406] inception_4c/relu_5x5_reduce <- inception_4c/5x5_reduce
I0104 23:06:11.792533  1659 net.cpp:367] inception_4c/relu_5x5_reduce -> inception_4c/5x5_reduce (in-place)
I0104 23:06:11.792558  1659 net.cpp:122] Setting up inception_4c/relu_5x5_reduce
I0104 23:06:11.792598  1659 net.cpp:129] Top shape: 10 24 14 14 (47040)
I0104 23:06:11.792695  1659 net.cpp:137] Memory required for data: 432266240
I0104 23:06:11.792711  1659 layer_factory.hpp:77] Creating layer inception_4c/5x5
I0104 23:06:11.792739  1659 net.cpp:84] Creating Layer inception_4c/5x5
I0104 23:06:11.792803  1659 net.cpp:406] inception_4c/5x5 <- inception_4c/5x5_reduce
I0104 23:06:11.792979  1659 net.cpp:380] inception_4c/5x5 -> inception_4c/5x5
I0104 23:06:11.794586  1659 net.cpp:122] Setting up inception_4c/5x5
I0104 23:06:11.794606  1659 net.cpp:129] Top shape: 10 64 14 14 (125440)
I0104 23:06:11.794625  1659 net.cpp:137] Memory required for data: 432768000
I0104 23:06:11.794646  1659 layer_factory.hpp:77] Creating layer inception_4c/relu_5x5
I0104 23:06:11.794665  1659 net.cpp:84] Creating Layer inception_4c/relu_5x5
I0104 23:06:11.794731  1659 net.cpp:406] inception_4c/relu_5x5 <- inception_4c/5x5
I0104 23:06:11.794795  1659 net.cpp:367] inception_4c/relu_5x5 -> inception_4c/5x5 (in-place)
I0104 23:06:11.794862  1659 net.cpp:122] Setting up inception_4c/relu_5x5
I0104 23:06:11.794906  1659 net.cpp:129] Top shape: 10 64 14 14 (125440)
I0104 23:06:11.794927  1659 net.cpp:137] Memory required for data: 433269760
I0104 23:06:11.794940  1659 layer_factory.hpp:77] Creating layer inception_4c/pool
I0104 23:06:11.794963  1659 net.cpp:84] Creating Layer inception_4c/pool
I0104 23:06:11.795024  1659 net.cpp:406] inception_4c/pool <- inception_4b/output_inception_4b/output_0_split_3
I0104 23:06:11.795092  1659 net.cpp:380] inception_4c/pool -> inception_4c/pool
I0104 23:06:11.795478  1659 net.cpp:122] Setting up inception_4c/pool
I0104 23:06:11.795496  1659 net.cpp:129] Top shape: 10 512 14 14 (1003520)
I0104 23:06:11.795514  1659 net.cpp:137] Memory required for data: 437283840
I0104 23:06:11.795604  1659 layer_factory.hpp:77] Creating layer inception_4c/pool_proj
I0104 23:06:11.795677  1659 net.cpp:84] Creating Layer inception_4c/pool_proj
I0104 23:06:11.795750  1659 net.cpp:406] inception_4c/pool_proj <- inception_4c/pool
I0104 23:06:11.795802  1659 net.cpp:380] inception_4c/pool_proj -> inception_4c/pool_proj
I0104 23:06:11.797420  1659 net.cpp:122] Setting up inception_4c/pool_proj
I0104 23:06:11.797438  1659 net.cpp:129] Top shape: 10 64 14 14 (125440)
I0104 23:06:11.797456  1659 net.cpp:137] Memory required for data: 437785600
I0104 23:06:11.797551  1659 layer_factory.hpp:77] Creating layer inception_4c/relu_pool_proj
I0104 23:06:11.797617  1659 net.cpp:84] Creating Layer inception_4c/relu_pool_proj
I0104 23:06:11.797669  1659 net.cpp:406] inception_4c/relu_pool_proj <- inception_4c/pool_proj
I0104 23:06:11.797689  1659 net.cpp:367] inception_4c/relu_pool_proj -> inception_4c/pool_proj (in-place)
I0104 23:06:11.797710  1659 net.cpp:122] Setting up inception_4c/relu_pool_proj
I0104 23:06:11.797883  1659 net.cpp:129] Top shape: 10 64 14 14 (125440)
I0104 23:06:11.797900  1659 net.cpp:137] Memory required for data: 438287360
I0104 23:06:11.797914  1659 layer_factory.hpp:77] Creating layer inception_4c/output
I0104 23:06:11.798072  1659 net.cpp:84] Creating Layer inception_4c/output
I0104 23:06:11.798089  1659 net.cpp:406] inception_4c/output <- inception_4c/1x1
I0104 23:06:11.798111  1659 net.cpp:406] inception_4c/output <- inception_4c/3x3
I0104 23:06:11.798127  1659 net.cpp:406] inception_4c/output <- inception_4c/5x5
I0104 23:06:11.798144  1659 net.cpp:406] inception_4c/output <- inception_4c/pool_proj
I0104 23:06:11.798292  1659 net.cpp:380] inception_4c/output -> inception_4c/output
I0104 23:06:11.798517  1659 net.cpp:122] Setting up inception_4c/output
I0104 23:06:11.798535  1659 net.cpp:129] Top shape: 10 512 14 14 (1003520)
I0104 23:06:11.798712  1659 net.cpp:137] Memory required for data: 442301440
I0104 23:06:11.798730  1659 layer_factory.hpp:77] Creating layer inception_4c/output_inception_4c/output_0_split
I0104 23:06:11.798754  1659 net.cpp:84] Creating Layer inception_4c/output_inception_4c/output_0_split
I0104 23:06:11.798893  1659 net.cpp:406] inception_4c/output_inception_4c/output_0_split <- inception_4c/output
I0104 23:06:11.798924  1659 net.cpp:380] inception_4c/output_inception_4c/output_0_split -> inception_4c/output_inception_4c/output_0_split_0
I0104 23:06:11.799126  1659 net.cpp:380] inception_4c/output_inception_4c/output_0_split -> inception_4c/output_inception_4c/output_0_split_1
I0104 23:06:11.799177  1659 net.cpp:380] inception_4c/output_inception_4c/output_0_split -> inception_4c/output_inception_4c/output_0_split_2
I0104 23:06:11.799324  1659 net.cpp:380] inception_4c/output_inception_4c/output_0_split -> inception_4c/output_inception_4c/output_0_split_3
I0104 23:06:11.799579  1659 net.cpp:122] Setting up inception_4c/output_inception_4c/output_0_split
I0104 23:06:11.799597  1659 net.cpp:129] Top shape: 10 512 14 14 (1003520)
I0104 23:06:11.799691  1659 net.cpp:129] Top shape: 10 512 14 14 (1003520)
I0104 23:06:11.799708  1659 net.cpp:129] Top shape: 10 512 14 14 (1003520)
I0104 23:06:11.799724  1659 net.cpp:129] Top shape: 10 512 14 14 (1003520)
I0104 23:06:11.799739  1659 net.cpp:137] Memory required for data: 458357760
I0104 23:06:11.799803  1659 layer_factory.hpp:77] Creating layer inception_4d/1x1
I0104 23:06:11.799986  1659 net.cpp:84] Creating Layer inception_4d/1x1
I0104 23:06:11.800006  1659 net.cpp:406] inception_4d/1x1 <- inception_4c/output_inception_4c/output_0_split_0
I0104 23:06:11.800032  1659 net.cpp:380] inception_4d/1x1 -> inception_4d/1x1
I0104 23:06:11.802271  1659 net.cpp:122] Setting up inception_4d/1x1
I0104 23:06:11.802296  1659 net.cpp:129] Top shape: 10 112 14 14 (219520)
I0104 23:06:11.802333  1659 net.cpp:137] Memory required for data: 459235840
I0104 23:06:11.802357  1659 layer_factory.hpp:77] Creating layer inception_4d/relu_1x1
I0104 23:06:11.802378  1659 net.cpp:84] Creating Layer inception_4d/relu_1x1
I0104 23:06:11.802511  1659 net.cpp:406] inception_4d/relu_1x1 <- inception_4d/1x1
I0104 23:06:11.802538  1659 net.cpp:367] inception_4d/relu_1x1 -> inception_4d/1x1 (in-place)
I0104 23:06:11.802606  1659 net.cpp:122] Setting up inception_4d/relu_1x1
I0104 23:06:11.802664  1659 net.cpp:129] Top shape: 10 112 14 14 (219520)
I0104 23:06:11.802714  1659 net.cpp:137] Memory required for data: 460113920
I0104 23:06:11.802731  1659 layer_factory.hpp:77] Creating layer inception_4d/3x3_reduce
I0104 23:06:11.802759  1659 net.cpp:84] Creating Layer inception_4d/3x3_reduce
I0104 23:06:11.802922  1659 net.cpp:406] inception_4d/3x3_reduce <- inception_4c/output_inception_4c/output_0_split_1
I0104 23:06:11.802949  1659 net.cpp:380] inception_4d/3x3_reduce -> inception_4d/3x3_reduce
I0104 23:06:11.805539  1659 net.cpp:122] Setting up inception_4d/3x3_reduce
I0104 23:06:11.805560  1659 net.cpp:129] Top shape: 10 144 14 14 (282240)
I0104 23:06:11.805578  1659 net.cpp:137] Memory required for data: 461242880
I0104 23:06:11.805603  1659 layer_factory.hpp:77] Creating layer inception_4d/relu_3x3_reduce
I0104 23:06:11.805672  1659 net.cpp:84] Creating Layer inception_4d/relu_3x3_reduce
I0104 23:06:11.805690  1659 net.cpp:406] inception_4d/relu_3x3_reduce <- inception_4d/3x3_reduce
I0104 23:06:11.805743  1659 net.cpp:367] inception_4d/relu_3x3_reduce -> inception_4d/3x3_reduce (in-place)
I0104 23:06:11.805764  1659 net.cpp:122] Setting up inception_4d/relu_3x3_reduce
I0104 23:06:11.805843  1659 net.cpp:129] Top shape: 10 144 14 14 (282240)
I0104 23:06:11.805917  1659 net.cpp:137] Memory required for data: 462371840
I0104 23:06:11.805932  1659 layer_factory.hpp:77] Creating layer inception_4d/3x3
I0104 23:06:11.805958  1659 net.cpp:84] Creating Layer inception_4d/3x3
I0104 23:06:11.806125  1659 net.cpp:406] inception_4d/3x3 <- inception_4d/3x3_reduce
I0104 23:06:11.806318  1659 net.cpp:380] inception_4d/3x3 -> inception_4d/3x3
I0104 23:06:11.816145  1659 net.cpp:122] Setting up inception_4d/3x3
I0104 23:06:11.816169  1659 net.cpp:129] Top shape: 10 288 14 14 (564480)
I0104 23:06:11.816187  1659 net.cpp:137] Memory required for data: 464629760
I0104 23:06:11.816210  1659 layer_factory.hpp:77] Creating layer inception_4d/relu_3x3
I0104 23:06:11.816280  1659 net.cpp:84] Creating Layer inception_4d/relu_3x3
I0104 23:06:11.816359  1659 net.cpp:406] inception_4d/relu_3x3 <- inception_4d/3x3
I0104 23:06:11.816414  1659 net.cpp:367] inception_4d/relu_3x3 -> inception_4d/3x3 (in-place)
I0104 23:06:11.816437  1659 net.cpp:122] Setting up inception_4d/relu_3x3
I0104 23:06:11.816452  1659 net.cpp:129] Top shape: 10 288 14 14 (564480)
I0104 23:06:11.816562  1659 net.cpp:137] Memory required for data: 466887680
I0104 23:06:11.816622  1659 layer_factory.hpp:77] Creating layer inception_4d/5x5_reduce
I0104 23:06:11.816973  1659 net.cpp:84] Creating Layer inception_4d/5x5_reduce
I0104 23:06:11.816992  1659 net.cpp:406] inception_4d/5x5_reduce <- inception_4c/output_inception_4c/output_0_split_2
I0104 23:06:11.817013  1659 net.cpp:380] inception_4d/5x5_reduce -> inception_4d/5x5_reduce
I0104 23:06:11.818178  1659 net.cpp:122] Setting up inception_4d/5x5_reduce
I0104 23:06:11.818199  1659 net.cpp:129] Top shape: 10 32 14 14 (62720)
I0104 23:06:11.818217  1659 net.cpp:137] Memory required for data: 467138560
I0104 23:06:11.818238  1659 layer_factory.hpp:77] Creating layer inception_4d/relu_5x5_reduce
I0104 23:06:11.818326  1659 net.cpp:84] Creating Layer inception_4d/relu_5x5_reduce
I0104 23:06:11.818344  1659 net.cpp:406] inception_4d/relu_5x5_reduce <- inception_4d/5x5_reduce
I0104 23:06:11.818454  1659 net.cpp:367] inception_4d/relu_5x5_reduce -> inception_4d/5x5_reduce (in-place)
I0104 23:06:11.818508  1659 net.cpp:122] Setting up inception_4d/relu_5x5_reduce
I0104 23:06:11.818523  1659 net.cpp:129] Top shape: 10 32 14 14 (62720)
I0104 23:06:11.818539  1659 net.cpp:137] Memory required for data: 467389440
I0104 23:06:11.818742  1659 layer_factory.hpp:77] Creating layer inception_4d/5x5
I0104 23:06:11.818907  1659 net.cpp:84] Creating Layer inception_4d/5x5
I0104 23:06:11.818956  1659 net.cpp:406] inception_4d/5x5 <- inception_4d/5x5_reduce
I0104 23:06:11.819123  1659 net.cpp:380] inception_4d/5x5 -> inception_4d/5x5
I0104 23:06:11.821059  1659 net.cpp:122] Setting up inception_4d/5x5
I0104 23:06:11.821080  1659 net.cpp:129] Top shape: 10 64 14 14 (125440)
I0104 23:06:11.821099  1659 net.cpp:137] Memory required for data: 467891200
I0104 23:06:11.821118  1659 layer_factory.hpp:77] Creating layer inception_4d/relu_5x5
I0104 23:06:11.821137  1659 net.cpp:84] Creating Layer inception_4d/relu_5x5
I0104 23:06:11.821203  1659 net.cpp:406] inception_4d/relu_5x5 <- inception_4d/5x5
I0104 23:06:11.821269  1659 net.cpp:367] inception_4d/relu_5x5 -> inception_4d/5x5 (in-place)
I0104 23:06:11.821403  1659 net.cpp:122] Setting up inception_4d/relu_5x5
I0104 23:06:11.821465  1659 net.cpp:129] Top shape: 10 64 14 14 (125440)
I0104 23:06:11.821650  1659 net.cpp:137] Memory required for data: 468392960
I0104 23:06:11.821666  1659 layer_factory.hpp:77] Creating layer inception_4d/pool
I0104 23:06:11.821761  1659 net.cpp:84] Creating Layer inception_4d/pool
I0104 23:06:11.821836  1659 net.cpp:406] inception_4d/pool <- inception_4c/output_inception_4c/output_0_split_3
I0104 23:06:11.821949  1659 net.cpp:380] inception_4d/pool -> inception_4d/pool
I0104 23:06:11.822182  1659 net.cpp:122] Setting up inception_4d/pool
I0104 23:06:11.822201  1659 net.cpp:129] Top shape: 10 512 14 14 (1003520)
I0104 23:06:11.822347  1659 net.cpp:137] Memory required for data: 472407040
I0104 23:06:11.822361  1659 layer_factory.hpp:77] Creating layer inception_4d/pool_proj
I0104 23:06:11.822389  1659 net.cpp:84] Creating Layer inception_4d/pool_proj
I0104 23:06:11.822520  1659 net.cpp:406] inception_4d/pool_proj <- inception_4d/pool
I0104 23:06:11.822551  1659 net.cpp:380] inception_4d/pool_proj -> inception_4d/pool_proj
I0104 23:06:11.824101  1659 net.cpp:122] Setting up inception_4d/pool_proj
I0104 23:06:11.824121  1659 net.cpp:129] Top shape: 10 64 14 14 (125440)
I0104 23:06:11.824139  1659 net.cpp:137] Memory required for data: 472908800
I0104 23:06:11.824159  1659 layer_factory.hpp:77] Creating layer inception_4d/relu_pool_proj
I0104 23:06:11.824228  1659 net.cpp:84] Creating Layer inception_4d/relu_pool_proj
I0104 23:06:11.824246  1659 net.cpp:406] inception_4d/relu_pool_proj <- inception_4d/pool_proj
I0104 23:06:11.824362  1659 net.cpp:367] inception_4d/relu_pool_proj -> inception_4d/pool_proj (in-place)
I0104 23:06:11.824383  1659 net.cpp:122] Setting up inception_4d/relu_pool_proj
I0104 23:06:11.824398  1659 net.cpp:129] Top shape: 10 64 14 14 (125440)
I0104 23:06:11.824412  1659 net.cpp:137] Memory required for data: 473410560
I0104 23:06:11.824470  1659 layer_factory.hpp:77] Creating layer inception_4d/output
I0104 23:06:11.824496  1659 net.cpp:84] Creating Layer inception_4d/output
I0104 23:06:11.824689  1659 net.cpp:406] inception_4d/output <- inception_4d/1x1
I0104 23:06:11.824800  1659 net.cpp:406] inception_4d/output <- inception_4d/3x3
I0104 23:06:11.824817  1659 net.cpp:406] inception_4d/output <- inception_4d/5x5
I0104 23:06:11.824833  1659 net.cpp:406] inception_4d/output <- inception_4d/pool_proj
I0104 23:06:11.824898  1659 net.cpp:380] inception_4d/output -> inception_4d/output
I0104 23:06:11.825222  1659 net.cpp:122] Setting up inception_4d/output
I0104 23:06:11.825239  1659 net.cpp:129] Top shape: 10 528 14 14 (1034880)
I0104 23:06:11.825260  1659 net.cpp:137] Memory required for data: 477550080
I0104 23:06:11.825274  1659 layer_factory.hpp:77] Creating layer inception_4d/output_inception_4d/output_0_split
I0104 23:06:11.825386  1659 net.cpp:84] Creating Layer inception_4d/output_inception_4d/output_0_split
I0104 23:06:11.825402  1659 net.cpp:406] inception_4d/output_inception_4d/output_0_split <- inception_4d/output
I0104 23:06:11.825485  1659 net.cpp:380] inception_4d/output_inception_4d/output_0_split -> inception_4d/output_inception_4d/output_0_split_0
I0104 23:06:11.825569  1659 net.cpp:380] inception_4d/output_inception_4d/output_0_split -> inception_4d/output_inception_4d/output_0_split_1
I0104 23:06:11.825692  1659 net.cpp:380] inception_4d/output_inception_4d/output_0_split -> inception_4d/output_inception_4d/output_0_split_2
I0104 23:06:11.825726  1659 net.cpp:380] inception_4d/output_inception_4d/output_0_split -> inception_4d/output_inception_4d/output_0_split_3
I0104 23:06:11.826089  1659 net.cpp:122] Setting up inception_4d/output_inception_4d/output_0_split
I0104 23:06:11.826107  1659 net.cpp:129] Top shape: 10 528 14 14 (1034880)
I0104 23:06:11.826216  1659 net.cpp:129] Top shape: 10 528 14 14 (1034880)
I0104 23:06:11.826236  1659 net.cpp:129] Top shape: 10 528 14 14 (1034880)
I0104 23:06:11.826252  1659 net.cpp:129] Top shape: 10 528 14 14 (1034880)
I0104 23:06:11.826268  1659 net.cpp:137] Memory required for data: 494108160
I0104 23:06:11.826282  1659 layer_factory.hpp:77] Creating layer inception_4e/1x1
I0104 23:06:11.826460  1659 net.cpp:84] Creating Layer inception_4e/1x1
I0104 23:06:11.826478  1659 net.cpp:406] inception_4e/1x1 <- inception_4d/output_inception_4d/output_0_split_0
I0104 23:06:11.826709  1659 net.cpp:380] inception_4e/1x1 -> inception_4e/1x1
I0104 23:06:11.830673  1659 net.cpp:122] Setting up inception_4e/1x1
I0104 23:06:11.830694  1659 net.cpp:129] Top shape: 10 256 14 14 (501760)
I0104 23:06:11.830711  1659 net.cpp:137] Memory required for data: 496115200
I0104 23:06:11.830734  1659 layer_factory.hpp:77] Creating layer inception_4e/relu_1x1
I0104 23:06:11.830802  1659 net.cpp:84] Creating Layer inception_4e/relu_1x1
I0104 23:06:11.830819  1659 net.cpp:406] inception_4e/relu_1x1 <- inception_4e/1x1
I0104 23:06:11.830874  1659 net.cpp:367] inception_4e/relu_1x1 -> inception_4e/1x1 (in-place)
I0104 23:06:11.830896  1659 net.cpp:122] Setting up inception_4e/relu_1x1
I0104 23:06:11.830955  1659 net.cpp:129] Top shape: 10 256 14 14 (501760)
I0104 23:06:11.831017  1659 net.cpp:137] Memory required for data: 498122240
I0104 23:06:11.831032  1659 layer_factory.hpp:77] Creating layer inception_4e/3x3_reduce
I0104 23:06:11.831276  1659 net.cpp:84] Creating Layer inception_4e/3x3_reduce
I0104 23:06:11.831387  1659 net.cpp:406] inception_4e/3x3_reduce <- inception_4d/output_inception_4d/output_0_split_1
I0104 23:06:11.831415  1659 net.cpp:380] inception_4e/3x3_reduce -> inception_4e/3x3_reduce
I0104 23:06:11.834141  1659 net.cpp:122] Setting up inception_4e/3x3_reduce
I0104 23:06:11.834161  1659 net.cpp:129] Top shape: 10 160 14 14 (313600)
I0104 23:06:11.834182  1659 net.cpp:137] Memory required for data: 499376640
I0104 23:06:11.834203  1659 layer_factory.hpp:77] Creating layer inception_4e/relu_3x3_reduce
I0104 23:06:11.834271  1659 net.cpp:84] Creating Layer inception_4e/relu_3x3_reduce
I0104 23:06:11.834383  1659 net.cpp:406] inception_4e/relu_3x3_reduce <- inception_4e/3x3_reduce
I0104 23:06:11.834405  1659 net.cpp:367] inception_4e/relu_3x3_reduce -> inception_4e/3x3_reduce (in-place)
I0104 23:06:11.834429  1659 net.cpp:122] Setting up inception_4e/relu_3x3_reduce
I0104 23:06:11.834486  1659 net.cpp:129] Top shape: 10 160 14 14 (313600)
I0104 23:06:11.834504  1659 net.cpp:137] Memory required for data: 500631040
I0104 23:06:11.834560  1659 layer_factory.hpp:77] Creating layer inception_4e/3x3
I0104 23:06:11.834631  1659 net.cpp:84] Creating Layer inception_4e/3x3
I0104 23:06:11.834776  1659 net.cpp:406] inception_4e/3x3 <- inception_4e/3x3_reduce
I0104 23:06:11.834951  1659 net.cpp:380] inception_4e/3x3 -> inception_4e/3x3
I0104 23:06:11.847030  1659 net.cpp:122] Setting up inception_4e/3x3
I0104 23:06:11.847056  1659 net.cpp:129] Top shape: 10 320 14 14 (627200)
I0104 23:06:11.847075  1659 net.cpp:137] Memory required for data: 503139840
I0104 23:06:11.847098  1659 layer_factory.hpp:77] Creating layer inception_4e/relu_3x3
I0104 23:06:11.847170  1659 net.cpp:84] Creating Layer inception_4e/relu_3x3
I0104 23:06:11.847190  1659 net.cpp:406] inception_4e/relu_3x3 <- inception_4e/3x3
I0104 23:06:11.847347  1659 net.cpp:367] inception_4e/relu_3x3 -> inception_4e/3x3 (in-place)
I0104 23:06:11.847373  1659 net.cpp:122] Setting up inception_4e/relu_3x3
I0104 23:06:11.847457  1659 net.cpp:129] Top shape: 10 320 14 14 (627200)
I0104 23:06:11.847508  1659 net.cpp:137] Memory required for data: 505648640
I0104 23:06:11.847523  1659 layer_factory.hpp:77] Creating layer inception_4e/5x5_reduce
I0104 23:06:11.847554  1659 net.cpp:84] Creating Layer inception_4e/5x5_reduce
I0104 23:06:11.847739  1659 net.cpp:406] inception_4e/5x5_reduce <- inception_4d/output_inception_4d/output_0_split_2
I0104 23:06:11.847766  1659 net.cpp:380] inception_4e/5x5_reduce -> inception_4e/5x5_reduce
I0104 23:06:11.848996  1659 net.cpp:122] Setting up inception_4e/5x5_reduce
I0104 23:06:11.849019  1659 net.cpp:129] Top shape: 10 32 14 14 (62720)
I0104 23:06:11.849041  1659 net.cpp:137] Memory required for data: 505899520
I0104 23:06:11.849062  1659 layer_factory.hpp:77] Creating layer inception_4e/relu_5x5_reduce
I0104 23:06:11.849179  1659 net.cpp:84] Creating Layer inception_4e/relu_5x5_reduce
I0104 23:06:11.849229  1659 net.cpp:406] inception_4e/relu_5x5_reduce <- inception_4e/5x5_reduce
I0104 23:06:11.849252  1659 net.cpp:367] inception_4e/relu_5x5_reduce -> inception_4e/5x5_reduce (in-place)
I0104 23:06:11.849273  1659 net.cpp:122] Setting up inception_4e/relu_5x5_reduce
I0104 23:06:11.849336  1659 net.cpp:129] Top shape: 10 32 14 14 (62720)
I0104 23:06:11.849362  1659 net.cpp:137] Memory required for data: 506150400
I0104 23:06:11.849521  1659 layer_factory.hpp:77] Creating layer inception_4e/5x5
I0104 23:06:11.849555  1659 net.cpp:84] Creating Layer inception_4e/5x5
I0104 23:06:11.849570  1659 net.cpp:406] inception_4e/5x5 <- inception_4e/5x5_reduce
I0104 23:06:11.849792  1659 net.cpp:380] inception_4e/5x5 -> inception_4e/5x5
I0104 23:06:11.853065  1659 net.cpp:122] Setting up inception_4e/5x5
I0104 23:06:11.853088  1659 net.cpp:129] Top shape: 10 128 14 14 (250880)
I0104 23:06:11.853106  1659 net.cpp:137] Memory required for data: 507153920
I0104 23:06:11.853127  1659 layer_factory.hpp:77] Creating layer inception_4e/relu_5x5
I0104 23:06:11.853147  1659 net.cpp:84] Creating Layer inception_4e/relu_5x5
I0104 23:06:11.853215  1659 net.cpp:406] inception_4e/relu_5x5 <- inception_4e/5x5
I0104 23:06:11.853283  1659 net.cpp:367] inception_4e/relu_5x5 -> inception_4e/5x5 (in-place)
I0104 23:06:11.853358  1659 net.cpp:122] Setting up inception_4e/relu_5x5
I0104 23:06:11.853372  1659 net.cpp:129] Top shape: 10 128 14 14 (250880)
I0104 23:06:11.853389  1659 net.cpp:137] Memory required for data: 508157440
I0104 23:06:11.853447  1659 layer_factory.hpp:77] Creating layer inception_4e/pool
I0104 23:06:11.853513  1659 net.cpp:84] Creating Layer inception_4e/pool
I0104 23:06:11.853571  1659 net.cpp:406] inception_4e/pool <- inception_4d/output_inception_4d/output_0_split_3
I0104 23:06:11.853703  1659 net.cpp:380] inception_4e/pool -> inception_4e/pool
I0104 23:06:11.854015  1659 net.cpp:122] Setting up inception_4e/pool
I0104 23:06:11.854058  1659 net.cpp:129] Top shape: 10 528 14 14 (1034880)
I0104 23:06:11.854075  1659 net.cpp:137] Memory required for data: 512296960
I0104 23:06:11.854178  1659 layer_factory.hpp:77] Creating layer inception_4e/pool_proj
I0104 23:06:11.854363  1659 net.cpp:84] Creating Layer inception_4e/pool_proj
I0104 23:06:11.854442  1659 net.cpp:406] inception_4e/pool_proj <- inception_4e/pool
I0104 23:06:11.854492  1659 net.cpp:380] inception_4e/pool_proj -> inception_4e/pool_proj
I0104 23:06:11.856865  1659 net.cpp:122] Setting up inception_4e/pool_proj
I0104 23:06:11.856886  1659 net.cpp:129] Top shape: 10 128 14 14 (250880)
I0104 23:06:11.856907  1659 net.cpp:137] Memory required for data: 513300480
I0104 23:06:11.856928  1659 layer_factory.hpp:77] Creating layer inception_4e/relu_pool_proj
I0104 23:06:11.856997  1659 net.cpp:84] Creating Layer inception_4e/relu_pool_proj
I0104 23:06:11.857100  1659 net.cpp:406] inception_4e/relu_pool_proj <- inception_4e/pool_proj
I0104 23:06:11.857164  1659 net.cpp:367] inception_4e/relu_pool_proj -> inception_4e/pool_proj (in-place)
I0104 23:06:11.857223  1659 net.cpp:122] Setting up inception_4e/relu_pool_proj
I0104 23:06:11.857237  1659 net.cpp:129] Top shape: 10 128 14 14 (250880)
I0104 23:06:11.857481  1659 net.cpp:137] Memory required for data: 514304000
I0104 23:06:11.857499  1659 layer_factory.hpp:77] Creating layer inception_4e/output
I0104 23:06:11.857631  1659 net.cpp:84] Creating Layer inception_4e/output
I0104 23:06:11.857650  1659 net.cpp:406] inception_4e/output <- inception_4e/1x1
I0104 23:06:11.857667  1659 net.cpp:406] inception_4e/output <- inception_4e/3x3
I0104 23:06:11.857682  1659 net.cpp:406] inception_4e/output <- inception_4e/5x5
I0104 23:06:11.857698  1659 net.cpp:406] inception_4e/output <- inception_4e/pool_proj
I0104 23:06:11.857890  1659 net.cpp:380] inception_4e/output -> inception_4e/output
I0104 23:06:11.858101  1659 net.cpp:122] Setting up inception_4e/output
I0104 23:06:11.858119  1659 net.cpp:129] Top shape: 10 832 14 14 (1630720)
I0104 23:06:11.858139  1659 net.cpp:137] Memory required for data: 520826880
I0104 23:06:11.858285  1659 layer_factory.hpp:77] Creating layer pool4/3x3_s2
I0104 23:06:11.858322  1659 net.cpp:84] Creating Layer pool4/3x3_s2
I0104 23:06:11.858340  1659 net.cpp:406] pool4/3x3_s2 <- inception_4e/output
I0104 23:06:11.858500  1659 net.cpp:380] pool4/3x3_s2 -> pool4/3x3_s2
I0104 23:06:11.858675  1659 net.cpp:122] Setting up pool4/3x3_s2
I0104 23:06:11.858757  1659 net.cpp:129] Top shape: 10 832 7 7 (407680)
I0104 23:06:11.858844  1659 net.cpp:137] Memory required for data: 522457600
I0104 23:06:11.858903  1659 layer_factory.hpp:77] Creating layer pool4/3x3_s2_pool4/3x3_s2_0_split
I0104 23:06:11.858968  1659 net.cpp:84] Creating Layer pool4/3x3_s2_pool4/3x3_s2_0_split
I0104 23:06:11.858985  1659 net.cpp:406] pool4/3x3_s2_pool4/3x3_s2_0_split <- pool4/3x3_s2
I0104 23:06:11.859176  1659 net.cpp:380] pool4/3x3_s2_pool4/3x3_s2_0_split -> pool4/3x3_s2_pool4/3x3_s2_0_split_0
I0104 23:06:11.859201  1659 net.cpp:380] pool4/3x3_s2_pool4/3x3_s2_0_split -> pool4/3x3_s2_pool4/3x3_s2_0_split_1
I0104 23:06:11.859367  1659 net.cpp:380] pool4/3x3_s2_pool4/3x3_s2_0_split -> pool4/3x3_s2_pool4/3x3_s2_0_split_2
I0104 23:06:11.859391  1659 net.cpp:380] pool4/3x3_s2_pool4/3x3_s2_0_split -> pool4/3x3_s2_pool4/3x3_s2_0_split_3
I0104 23:06:11.859724  1659 net.cpp:122] Setting up pool4/3x3_s2_pool4/3x3_s2_0_split
I0104 23:06:11.859789  1659 net.cpp:129] Top shape: 10 832 7 7 (407680)
I0104 23:06:11.859809  1659 net.cpp:129] Top shape: 10 832 7 7 (407680)
I0104 23:06:11.859827  1659 net.cpp:129] Top shape: 10 832 7 7 (407680)
I0104 23:06:11.859887  1659 net.cpp:129] Top shape: 10 832 7 7 (407680)
I0104 23:06:11.859948  1659 net.cpp:137] Memory required for data: 528980480
I0104 23:06:11.860153  1659 layer_factory.hpp:77] Creating layer inception_5a/1x1
I0104 23:06:11.860230  1659 net.cpp:84] Creating Layer inception_5a/1x1
I0104 23:06:11.860246  1659 net.cpp:406] inception_5a/1x1 <- pool4/3x3_s2_pool4/3x3_s2_0_split_0
I0104 23:06:11.860404  1659 net.cpp:380] inception_5a/1x1 -> inception_5a/1x1
I0104 23:06:11.866263  1659 net.cpp:122] Setting up inception_5a/1x1
I0104 23:06:11.866286  1659 net.cpp:129] Top shape: 10 256 7 7 (125440)
I0104 23:06:11.866322  1659 net.cpp:137] Memory required for data: 529482240
I0104 23:06:11.866343  1659 layer_factory.hpp:77] Creating layer inception_5a/relu_1x1
I0104 23:06:11.866412  1659 net.cpp:84] Creating Layer inception_5a/relu_1x1
I0104 23:06:11.866430  1659 net.cpp:406] inception_5a/relu_1x1 <- inception_5a/1x1
I0104 23:06:11.866484  1659 net.cpp:367] inception_5a/relu_1x1 -> inception_5a/1x1 (in-place)
I0104 23:06:11.866506  1659 net.cpp:122] Setting up inception_5a/relu_1x1
I0104 23:06:11.866567  1659 net.cpp:129] Top shape: 10 256 7 7 (125440)
I0104 23:06:11.866629  1659 net.cpp:137] Memory required for data: 529984000
I0104 23:06:11.866677  1659 layer_factory.hpp:77] Creating layer inception_5a/3x3_reduce
I0104 23:06:11.866708  1659 net.cpp:84] Creating Layer inception_5a/3x3_reduce
I0104 23:06:11.866910  1659 net.cpp:406] inception_5a/3x3_reduce <- pool4/3x3_s2_pool4/3x3_s2_0_split_1
I0104 23:06:11.866946  1659 net.cpp:380] inception_5a/3x3_reduce -> inception_5a/3x3_reduce
I0104 23:06:11.871081  1659 net.cpp:122] Setting up inception_5a/3x3_reduce
I0104 23:06:11.871104  1659 net.cpp:129] Top shape: 10 160 7 7 (78400)
I0104 23:06:11.871121  1659 net.cpp:137] Memory required for data: 530297600
I0104 23:06:11.871143  1659 layer_factory.hpp:77] Creating layer inception_5a/relu_3x3_reduce
I0104 23:06:11.871162  1659 net.cpp:84] Creating Layer inception_5a/relu_3x3_reduce
I0104 23:06:11.871228  1659 net.cpp:406] inception_5a/relu_3x3_reduce <- inception_5a/3x3_reduce
I0104 23:06:11.871294  1659 net.cpp:367] inception_5a/relu_3x3_reduce -> inception_5a/3x3_reduce (in-place)
I0104 23:06:11.871362  1659 net.cpp:122] Setting up inception_5a/relu_3x3_reduce
I0104 23:06:11.871377  1659 net.cpp:129] Top shape: 10 160 7 7 (78400)
I0104 23:06:11.871393  1659 net.cpp:137] Memory required for data: 530611200
I0104 23:06:11.871454  1659 layer_factory.hpp:77] Creating layer inception_5a/3x3
I0104 23:06:11.871522  1659 net.cpp:84] Creating Layer inception_5a/3x3
I0104 23:06:11.871572  1659 net.cpp:406] inception_5a/3x3 <- inception_5a/3x3_reduce
I0104 23:06:11.871599  1659 net.cpp:380] inception_5a/3x3 -> inception_5a/3x3
I0104 23:06:11.883797  1659 net.cpp:122] Setting up inception_5a/3x3
I0104 23:06:11.883824  1659 net.cpp:129] Top shape: 10 320 7 7 (156800)
I0104 23:06:11.883842  1659 net.cpp:137] Memory required for data: 531238400
I0104 23:06:11.883864  1659 layer_factory.hpp:77] Creating layer inception_5a/relu_3x3
I0104 23:06:11.883941  1659 net.cpp:84] Creating Layer inception_5a/relu_3x3
I0104 23:06:11.883960  1659 net.cpp:406] inception_5a/relu_3x3 <- inception_5a/3x3
I0104 23:06:11.884068  1659 net.cpp:367] inception_5a/relu_3x3 -> inception_5a/3x3 (in-place)
I0104 23:06:11.884126  1659 net.cpp:122] Setting up inception_5a/relu_3x3
I0104 23:06:11.884141  1659 net.cpp:129] Top shape: 10 320 7 7 (156800)
I0104 23:06:11.884157  1659 net.cpp:137] Memory required for data: 531865600
I0104 23:06:11.884217  1659 layer_factory.hpp:77] Creating layer inception_5a/5x5_reduce
I0104 23:06:11.884289  1659 net.cpp:84] Creating Layer inception_5a/5x5_reduce
I0104 23:06:11.884464  1659 net.cpp:406] inception_5a/5x5_reduce <- pool4/3x3_s2_pool4/3x3_s2_0_split_2
I0104 23:06:11.884627  1659 net.cpp:380] inception_5a/5x5_reduce -> inception_5a/5x5_reduce
I0104 23:06:11.885967  1659 net.cpp:122] Setting up inception_5a/5x5_reduce
I0104 23:06:11.885988  1659 net.cpp:129] Top shape: 10 32 7 7 (15680)
I0104 23:06:11.886006  1659 net.cpp:137] Memory required for data: 531928320
I0104 23:06:11.886026  1659 layer_factory.hpp:77] Creating layer inception_5a/relu_5x5_reduce
I0104 23:06:11.886045  1659 net.cpp:84] Creating Layer inception_5a/relu_5x5_reduce
I0104 23:06:11.886112  1659 net.cpp:406] inception_5a/relu_5x5_reduce <- inception_5a/5x5_reduce
I0104 23:06:11.886174  1659 net.cpp:367] inception_5a/relu_5x5_reduce -> inception_5a/5x5_reduce (in-place)
I0104 23:06:11.886241  1659 net.cpp:122] Setting up inception_5a/relu_5x5_reduce
I0104 23:06:11.886291  1659 net.cpp:129] Top shape: 10 32 7 7 (15680)
I0104 23:06:11.886329  1659 net.cpp:137] Memory required for data: 531991040
I0104 23:06:11.886343  1659 layer_factory.hpp:77] Creating layer inception_5a/5x5
I0104 23:06:11.886415  1659 net.cpp:84] Creating Layer inception_5a/5x5
I0104 23:06:11.886517  1659 net.cpp:406] inception_5a/5x5 <- inception_5a/5x5_reduce
I0104 23:06:11.886725  1659 net.cpp:380] inception_5a/5x5 -> inception_5a/5x5
I0104 23:06:11.890077  1659 net.cpp:122] Setting up inception_5a/5x5
I0104 23:06:11.890103  1659 net.cpp:129] Top shape: 10 128 7 7 (62720)
I0104 23:06:11.890121  1659 net.cpp:137] Memory required for data: 532241920
I0104 23:06:11.890142  1659 layer_factory.hpp:77] Creating layer inception_5a/relu_5x5
I0104 23:06:11.890336  1659 net.cpp:84] Creating Layer inception_5a/relu_5x5
I0104 23:06:11.890357  1659 net.cpp:406] inception_5a/relu_5x5 <- inception_5a/5x5
I0104 23:06:11.890375  1659 net.cpp:367] inception_5a/relu_5x5 -> inception_5a/5x5 (in-place)
I0104 23:06:11.890398  1659 net.cpp:122] Setting up inception_5a/relu_5x5
I0104 23:06:11.890458  1659 net.cpp:129] Top shape: 10 128 7 7 (62720)
I0104 23:06:11.890585  1659 net.cpp:137] Memory required for data: 532492800
I0104 23:06:11.890602  1659 layer_factory.hpp:77] Creating layer inception_5a/pool
I0104 23:06:11.890821  1659 net.cpp:84] Creating Layer inception_5a/pool
I0104 23:06:11.890864  1659 net.cpp:406] inception_5a/pool <- pool4/3x3_s2_pool4/3x3_s2_0_split_3
I0104 23:06:11.890890  1659 net.cpp:380] inception_5a/pool -> inception_5a/pool
I0104 23:06:11.891108  1659 net.cpp:122] Setting up inception_5a/pool
I0104 23:06:11.891125  1659 net.cpp:129] Top shape: 10 832 7 7 (407680)
I0104 23:06:11.891258  1659 net.cpp:137] Memory required for data: 534123520
I0104 23:06:11.891274  1659 layer_factory.hpp:77] Creating layer inception_5a/pool_proj
I0104 23:06:11.891316  1659 net.cpp:84] Creating Layer inception_5a/pool_proj
I0104 23:06:11.891463  1659 net.cpp:406] inception_5a/pool_proj <- inception_5a/pool
I0104 23:06:11.891495  1659 net.cpp:380] inception_5a/pool_proj -> inception_5a/pool_proj
I0104 23:06:11.894863  1659 net.cpp:122] Setting up inception_5a/pool_proj
I0104 23:06:11.894886  1659 net.cpp:129] Top shape: 10 128 7 7 (62720)
I0104 23:06:11.894903  1659 net.cpp:137] Memory required for data: 534374400
I0104 23:06:11.894924  1659 layer_factory.hpp:77] Creating layer inception_5a/relu_pool_proj
I0104 23:06:11.894944  1659 net.cpp:84] Creating Layer inception_5a/relu_pool_proj
I0104 23:06:11.895009  1659 net.cpp:406] inception_5a/relu_pool_proj <- inception_5a/pool_proj
I0104 23:06:11.895121  1659 net.cpp:367] inception_5a/relu_pool_proj -> inception_5a/pool_proj (in-place)
I0104 23:06:11.895179  1659 net.cpp:122] Setting up inception_5a/relu_pool_proj
I0104 23:06:11.895193  1659 net.cpp:129] Top shape: 10 128 7 7 (62720)
I0104 23:06:11.895210  1659 net.cpp:137] Memory required for data: 534625280
I0104 23:06:11.895272  1659 layer_factory.hpp:77] Creating layer inception_5a/output
I0104 23:06:11.895509  1659 net.cpp:84] Creating Layer inception_5a/output
I0104 23:06:11.895526  1659 net.cpp:406] inception_5a/output <- inception_5a/1x1
I0104 23:06:11.895545  1659 net.cpp:406] inception_5a/output <- inception_5a/3x3
I0104 23:06:11.895718  1659 net.cpp:406] inception_5a/output <- inception_5a/5x5
I0104 23:06:11.895737  1659 net.cpp:406] inception_5a/output <- inception_5a/pool_proj
I0104 23:06:11.895762  1659 net.cpp:380] inception_5a/output -> inception_5a/output
I0104 23:06:11.895946  1659 net.cpp:122] Setting up inception_5a/output
I0104 23:06:11.895963  1659 net.cpp:129] Top shape: 10 832 7 7 (407680)
I0104 23:06:11.895984  1659 net.cpp:137] Memory required for data: 536256000
I0104 23:06:11.895998  1659 layer_factory.hpp:77] Creating layer inception_5a/output_inception_5a/output_0_split
I0104 23:06:11.896116  1659 net.cpp:84] Creating Layer inception_5a/output_inception_5a/output_0_split
I0104 23:06:11.896132  1659 net.cpp:406] inception_5a/output_inception_5a/output_0_split <- inception_5a/output
I0104 23:06:11.896239  1659 net.cpp:380] inception_5a/output_inception_5a/output_0_split -> inception_5a/output_inception_5a/output_0_split_0
I0104 23:06:11.896320  1659 net.cpp:380] inception_5a/output_inception_5a/output_0_split -> inception_5a/output_inception_5a/output_0_split_1
I0104 23:06:11.896345  1659 net.cpp:380] inception_5a/output_inception_5a/output_0_split -> inception_5a/output_inception_5a/output_0_split_2
I0104 23:06:11.896543  1659 net.cpp:380] inception_5a/output_inception_5a/output_0_split -> inception_5a/output_inception_5a/output_0_split_3
I0104 23:06:11.896912  1659 net.cpp:122] Setting up inception_5a/output_inception_5a/output_0_split
I0104 23:06:11.896934  1659 net.cpp:129] Top shape: 10 832 7 7 (407680)
I0104 23:06:11.896953  1659 net.cpp:129] Top shape: 10 832 7 7 (407680)
I0104 23:06:11.896970  1659 net.cpp:129] Top shape: 10 832 7 7 (407680)
I0104 23:06:11.896986  1659 net.cpp:129] Top shape: 10 832 7 7 (407680)
I0104 23:06:11.897047  1659 net.cpp:137] Memory required for data: 542778880
I0104 23:06:11.897063  1659 layer_factory.hpp:77] Creating layer inception_5b/1x1
I0104 23:06:11.897179  1659 net.cpp:84] Creating Layer inception_5b/1x1
I0104 23:06:11.897256  1659 net.cpp:406] inception_5b/1x1 <- inception_5a/output_inception_5a/output_0_split_0
I0104 23:06:11.897284  1659 net.cpp:380] inception_5b/1x1 -> inception_5b/1x1
I0104 23:06:11.905967  1659 net.cpp:122] Setting up inception_5b/1x1
I0104 23:06:11.905992  1659 net.cpp:129] Top shape: 10 384 7 7 (188160)
I0104 23:06:11.906013  1659 net.cpp:137] Memory required for data: 543531520
I0104 23:06:11.906038  1659 layer_factory.hpp:77] Creating layer inception_5b/relu_1x1
I0104 23:06:11.906113  1659 net.cpp:84] Creating Layer inception_5b/relu_1x1
I0104 23:06:11.906131  1659 net.cpp:406] inception_5b/relu_1x1 <- inception_5b/1x1
I0104 23:06:11.906240  1659 net.cpp:367] inception_5b/relu_1x1 -> inception_5b/1x1 (in-place)
I0104 23:06:11.906292  1659 net.cpp:122] Setting up inception_5b/relu_1x1
I0104 23:06:11.906329  1659 net.cpp:129] Top shape: 10 384 7 7 (188160)
I0104 23:06:11.906347  1659 net.cpp:137] Memory required for data: 544284160
I0104 23:06:11.906409  1659 layer_factory.hpp:77] Creating layer inception_5b/3x3_reduce
I0104 23:06:11.906668  1659 net.cpp:84] Creating Layer inception_5b/3x3_reduce
I0104 23:06:11.906687  1659 net.cpp:406] inception_5b/3x3_reduce <- inception_5a/output_inception_5a/output_0_split_1
I0104 23:06:11.906833  1659 net.cpp:380] inception_5b/3x3_reduce -> inception_5b/3x3_reduce
I0104 23:06:11.911479  1659 net.cpp:122] Setting up inception_5b/3x3_reduce
I0104 23:06:11.911499  1659 net.cpp:129] Top shape: 10 192 7 7 (94080)
I0104 23:06:11.911517  1659 net.cpp:137] Memory required for data: 544660480
I0104 23:06:11.911538  1659 layer_factory.hpp:77] Creating layer inception_5b/relu_3x3_reduce
I0104 23:06:11.911558  1659 net.cpp:84] Creating Layer inception_5b/relu_3x3_reduce
I0104 23:06:11.911623  1659 net.cpp:406] inception_5b/relu_3x3_reduce <- inception_5b/3x3_reduce
I0104 23:06:11.911690  1659 net.cpp:367] inception_5b/relu_3x3_reduce -> inception_5b/3x3_reduce (in-place)
I0104 23:06:11.911756  1659 net.cpp:122] Setting up inception_5b/relu_3x3_reduce
I0104 23:06:11.911803  1659 net.cpp:129] Top shape: 10 192 7 7 (94080)
I0104 23:06:11.911820  1659 net.cpp:137] Memory required for data: 545036800
I0104 23:06:11.911835  1659 layer_factory.hpp:77] Creating layer inception_5b/3x3
I0104 23:06:11.911906  1659 net.cpp:84] Creating Layer inception_5b/3x3
I0104 23:06:11.911967  1659 net.cpp:406] inception_5b/3x3 <- inception_5b/3x3_reduce
I0104 23:06:11.912029  1659 net.cpp:380] inception_5b/3x3 -> inception_5b/3x3
I0104 23:06:11.929122  1659 net.cpp:122] Setting up inception_5b/3x3
I0104 23:06:11.929147  1659 net.cpp:129] Top shape: 10 384 7 7 (188160)
I0104 23:06:11.929167  1659 net.cpp:137] Memory required for data: 545789440
I0104 23:06:11.929188  1659 layer_factory.hpp:77] Creating layer inception_5b/relu_3x3
I0104 23:06:11.929261  1659 net.cpp:84] Creating Layer inception_5b/relu_3x3
I0104 23:06:11.929280  1659 net.cpp:406] inception_5b/relu_3x3 <- inception_5b/3x3
I0104 23:06:11.929407  1659 net.cpp:367] inception_5b/relu_3x3 -> inception_5b/3x3 (in-place)
I0104 23:06:11.929461  1659 net.cpp:122] Setting up inception_5b/relu_3x3
I0104 23:06:11.929476  1659 net.cpp:129] Top shape: 10 384 7 7 (188160)
I0104 23:06:11.929492  1659 net.cpp:137] Memory required for data: 546542080
I0104 23:06:11.929556  1659 layer_factory.hpp:77] Creating layer inception_5b/5x5_reduce
I0104 23:06:11.929896  1659 net.cpp:84] Creating Layer inception_5b/5x5_reduce
I0104 23:06:11.929915  1659 net.cpp:406] inception_5b/5x5_reduce <- inception_5a/output_inception_5a/output_0_split_2
I0104 23:06:11.929940  1659 net.cpp:380] inception_5b/5x5_reduce -> inception_5b/5x5_reduce
I0104 23:06:11.931646  1659 net.cpp:122] Setting up inception_5b/5x5_reduce
I0104 23:06:11.931668  1659 net.cpp:129] Top shape: 10 48 7 7 (23520)
I0104 23:06:11.931691  1659 net.cpp:137] Memory required for data: 546636160
I0104 23:06:11.931712  1659 layer_factory.hpp:77] Creating layer inception_5b/relu_5x5_reduce
I0104 23:06:11.931732  1659 net.cpp:84] Creating Layer inception_5b/relu_5x5_reduce
I0104 23:06:11.931860  1659 net.cpp:406] inception_5b/relu_5x5_reduce <- inception_5b/5x5_reduce
I0104 23:06:11.931885  1659 net.cpp:367] inception_5b/relu_5x5_reduce -> inception_5b/5x5_reduce (in-place)
I0104 23:06:11.931905  1659 net.cpp:122] Setting up inception_5b/relu_5x5_reduce
I0104 23:06:11.931919  1659 net.cpp:129] Top shape: 10 48 7 7 (23520)
I0104 23:06:11.931983  1659 net.cpp:137] Memory required for data: 546730240
I0104 23:06:11.931998  1659 layer_factory.hpp:77] Creating layer inception_5b/5x5
I0104 23:06:11.932222  1659 net.cpp:84] Creating Layer inception_5b/5x5
I0104 23:06:11.932385  1659 net.cpp:406] inception_5b/5x5 <- inception_5b/5x5_reduce
I0104 23:06:11.932412  1659 net.cpp:380] inception_5b/5x5 -> inception_5b/5x5
I0104 23:06:11.936843  1659 net.cpp:122] Setting up inception_5b/5x5
I0104 23:06:11.936864  1659 net.cpp:129] Top shape: 10 128 7 7 (62720)
I0104 23:06:11.936882  1659 net.cpp:137] Memory required for data: 546981120
I0104 23:06:11.936903  1659 layer_factory.hpp:77] Creating layer inception_5b/relu_5x5
I0104 23:06:11.936923  1659 net.cpp:84] Creating Layer inception_5b/relu_5x5
I0104 23:06:11.936990  1659 net.cpp:406] inception_5b/relu_5x5 <- inception_5b/5x5
I0104 23:06:11.937055  1659 net.cpp:367] inception_5b/relu_5x5 -> inception_5b/5x5 (in-place)
I0104 23:06:11.937167  1659 net.cpp:122] Setting up inception_5b/relu_5x5
I0104 23:06:11.937212  1659 net.cpp:129] Top shape: 10 128 7 7 (62720)
I0104 23:06:11.937232  1659 net.cpp:137] Memory required for data: 547232000
I0104 23:06:11.937247  1659 layer_factory.hpp:77] Creating layer inception_5b/pool
I0104 23:06:11.937270  1659 net.cpp:84] Creating Layer inception_5b/pool
I0104 23:06:11.937351  1659 net.cpp:406] inception_5b/pool <- inception_5a/output_inception_5a/output_0_split_3
I0104 23:06:11.937599  1659 net.cpp:380] inception_5b/pool -> inception_5b/pool
I0104 23:06:11.937844  1659 net.cpp:122] Setting up inception_5b/pool
I0104 23:06:11.937862  1659 net.cpp:129] Top shape: 10 832 7 7 (407680)
I0104 23:06:11.937882  1659 net.cpp:137] Memory required for data: 548862720
I0104 23:06:11.937896  1659 layer_factory.hpp:77] Creating layer inception_5b/pool_proj
I0104 23:06:11.937973  1659 net.cpp:84] Creating Layer inception_5b/pool_proj
I0104 23:06:11.937989  1659 net.cpp:406] inception_5b/pool_proj <- inception_5b/pool
I0104 23:06:11.938161  1659 net.cpp:380] inception_5b/pool_proj -> inception_5b/pool_proj
I0104 23:06:11.941510  1659 net.cpp:122] Setting up inception_5b/pool_proj
I0104 23:06:11.941530  1659 net.cpp:129] Top shape: 10 128 7 7 (62720)
I0104 23:06:11.941548  1659 net.cpp:137] Memory required for data: 549113600
I0104 23:06:11.941568  1659 layer_factory.hpp:77] Creating layer inception_5b/relu_pool_proj
I0104 23:06:11.941588  1659 net.cpp:84] Creating Layer inception_5b/relu_pool_proj
I0104 23:06:11.941654  1659 net.cpp:406] inception_5b/relu_pool_proj <- inception_5b/pool_proj
I0104 23:06:11.941720  1659 net.cpp:367] inception_5b/relu_pool_proj -> inception_5b/pool_proj (in-place)
I0104 23:06:11.941785  1659 net.cpp:122] Setting up inception_5b/relu_pool_proj
I0104 23:06:11.941830  1659 net.cpp:129] Top shape: 10 128 7 7 (62720)
I0104 23:06:11.941849  1659 net.cpp:137] Memory required for data: 549364480
I0104 23:06:11.941866  1659 layer_factory.hpp:77] Creating layer inception_5b/output
I0104 23:06:11.941887  1659 net.cpp:84] Creating Layer inception_5b/output
I0104 23:06:11.942104  1659 net.cpp:406] inception_5b/output <- inception_5b/1x1
I0104 23:06:11.942190  1659 net.cpp:406] inception_5b/output <- inception_5b/3x3
I0104 23:06:11.942255  1659 net.cpp:406] inception_5b/output <- inception_5b/5x5
I0104 23:06:11.942275  1659 net.cpp:406] inception_5b/output <- inception_5b/pool_proj
I0104 23:06:11.942435  1659 net.cpp:380] inception_5b/output -> inception_5b/output
I0104 23:06:11.942584  1659 net.cpp:122] Setting up inception_5b/output
I0104 23:06:11.942601  1659 net.cpp:129] Top shape: 10 1024 7 7 (501760)
I0104 23:06:11.942723  1659 net.cpp:137] Memory required for data: 551371520
I0104 23:06:11.942816  1659 layer_factory.hpp:77] Creating layer pool5/7x7_s1
I0104 23:06:11.942837  1659 net.cpp:84] Creating Layer pool5/7x7_s1
I0104 23:06:11.942852  1659 net.cpp:406] pool5/7x7_s1 <- inception_5b/output
I0104 23:06:11.942989  1659 net.cpp:380] pool5/7x7_s1 -> pool5/7x7_s1
I0104 23:06:11.943285  1659 net.cpp:122] Setting up pool5/7x7_s1
I0104 23:06:11.943321  1659 net.cpp:129] Top shape: 10 1024 1 1 (10240)
I0104 23:06:11.943346  1659 net.cpp:137] Memory required for data: 551412480
I0104 23:06:11.943469  1659 layer_factory.hpp:77] Creating layer pool5/drop_7x7_s1
I0104 23:06:11.943493  1659 net.cpp:84] Creating Layer pool5/drop_7x7_s1
I0104 23:06:11.943508  1659 net.cpp:406] pool5/drop_7x7_s1 <- pool5/7x7_s1
I0104 23:06:11.943594  1659 net.cpp:367] pool5/drop_7x7_s1 -> pool5/7x7_s1 (in-place)
I0104 23:06:11.943879  1659 net.cpp:122] Setting up pool5/drop_7x7_s1
I0104 23:06:11.943902  1659 net.cpp:129] Top shape: 10 1024 1 1 (10240)
I0104 23:06:11.943919  1659 net.cpp:137] Memory required for data: 551453440
I0104 23:06:11.943933  1659 layer_factory.hpp:77] Creating layer loss3/classifier
I0104 23:06:11.944034  1659 net.cpp:84] Creating Layer loss3/classifier
I0104 23:06:11.944082  1659 net.cpp:406] loss3/classifier <- pool5/7x7_s1
I0104 23:06:11.944108  1659 net.cpp:380] loss3/classifier -> loss3/classifier
I0104 23:06:11.969626  1659 net.cpp:122] Setting up loss3/classifier
I0104 23:06:11.969653  1659 net.cpp:129] Top shape: 10 1000 (10000)
I0104 23:06:11.969672  1659 net.cpp:137] Memory required for data: 551493440
I0104 23:06:11.969696  1659 layer_factory.hpp:77] Creating layer prob
I0104 23:06:11.969717  1659 net.cpp:84] Creating Layer prob
I0104 23:06:11.969789  1659 net.cpp:406] prob <- loss3/classifier
I0104 23:06:11.969895  1659 net.cpp:380] prob -> prob
I0104 23:06:11.970268  1659 net.cpp:122] Setting up prob
I0104 23:06:11.970288  1659 net.cpp:129] Top shape: 10 1000 (10000)
I0104 23:06:11.970329  1659 net.cpp:137] Memory required for data: 551533440
I0104 23:06:11.970345  1659 net.cpp:200] prob does not need backward computation.
I0104 23:06:11.970459  1659 net.cpp:200] loss3/classifier does not need backward computation.
I0104 23:06:11.970510  1659 net.cpp:200] pool5/drop_7x7_s1 does not need backward computation.
I0104 23:06:11.970528  1659 net.cpp:200] pool5/7x7_s1 does not need backward computation.
…
